log/mnist_test_class_1/model.tar (torch, 71258 bytes, 21 tensors)

conv1.weight f4 [8, 1, 5, 5]
00000000: 942b cdbd e9d2 733d fefb 7b3e dc56 3a3e
00000010: 92c4 9e3d 9eab 8bbd 95a7 b53d e721 52bd
00000020: 4947 743d a7f3 173e ff9e 6a3e 5901 62bd
00000030: cf2f 573e b33c 773d 4a6d 003e 6462 abbd
00000040: 7d47 2a3e b706 4e3d d953 2e3e 916f fd3d
00000050: bb04 d0bd cb11 3dbd 0b87 d73b 327f d3bd
00000060: 9ba2 49bd e4c8 2d3e 6bfd 903d 8bcc 90bd
00000070: 3b0b 2c3e b97f dbbd 2949 14bd 6aa5 4f3e
00000080: 4fe7 b13d 5825 953d 8f63 5abe 049d 003e
00000090: 3c8e 803d 24ba 1c3e 4764 003d e632 1cbe
000000a0: 0416 afbd 0315 3a3e e623 55bd d5d8 b0bc
000000b0: 29b1 973d 1058 ef3d 57e1 c6bd c96f 81bd
000000c0: 4848 d0bc 6af5 a6bd 8dfa 95bc 8cb5 283d
000000d0: d85a 3b3e 80f0 d43c c98b eebd a060 e23d
000000e0: 379e b2bd 631f f53c 74b3 b9bd 4dd9 2d3e
000000f0: 3868 ecbd 2e34 e03d a066 013d 6346 693e
00000100: 7b36 67bd add9 413e 3b40 d9bd b85b 2b3e
00000110: 81d4 96bd 9d23 4dbc 6d9d 843d 815e 063e
00000120: 08b5 663e d377 123e d652 aebc 8497 f03d
00000130: cb3d 913d 40a6 303e fdd0 5c3e 6c37 b4bd
00000140: 7eea 36bb 8c30 eb3d bf74 a43c 2fbe b0bd
00000150: a913 563d 23a3 03bd 8451 693d 5f74 043e
00000160: 1c3a 513e b551 2a3e 4ffd 1b3d a283 343e
00000170: 6095 e13a 25c6 633d 7970 3d3e b122 b6bd
00000180: cb70 2a3d 5c36 ad3c a3d6 063e 1104 4d3d
00000190: 78de df3d d74c 733d 94f6 673e 9d51 5c3d
000001a0: 9e09 bd3c 282c 82bd 8aef b4bd fde8 013e
000001b0: 686a 143e 5987 393e 7c32 1c3e 8624 883d
000001c0: db2d ae3c e261 233e 5bc0 683d f2e3 a83d
000001d0: a297 ac3c 45b7 023e bf17 663d 696e 1cbe
000001e0: d18a 923d 9545 24bc 4106 1d3e cd63 443d
000001f0: c52e e63c 0e08 1f3e 6fe2 6f3d e07f b0bd
00000200: 4f07 9b3d aad7 0c3e 6678 423d b38b 0a3e
00000210: 40db 633e d24e 61bc ef9e 0e3d 8942 81bd
00000220: 87bc 783d a339 03bc 4638 7c3d dc48 0f3e
00000230: 4710 bf3d 9d45 cc3d a189 e23d 7276 24bd
00000240: 4d02 c13d f7bb a53d b16b 453d 91ae 53bc
00000250: 99a6 fa3d 4b0e 17be 0c87 b43d df35 67be
00000260: 3226 f8bd 1e93 883d 6a1f cbbd aae5 fbbd
00000270: ff00 27bd ad98 e8bd 830f 53be ca2b 333d
00000280: a685 b9bc 46c6 40ba bd94 56bc bb3a 983d
00000290: e6f9 2fbe a8d9 aabd ddc1 a93d 2255 37be
000002a0: f95a d83c d45f a6bc d2eb d13d 747c dc3c
000002b0: 6e2a 3c3e 44b3 e33d b358 9f3d bed8 6b3d
000002c0: 9aab 703d 2824 12bb 5f60 103d 458c bc3b
000002d0: adfa 3ebe 6dd5 2cbe 3b14 053d 54a0 8e3c
000002e0: 754c f63c bf77 2ebe 3b4e c9bd 67c0 e8bc
000002f0: f951 2dbd 8914 1b3e 74c4 2c3d 64d2 3dbb
00000300: 39f3 4bbe 020f b13d 1b6b b4bd 9e28 e0bd
00000310: 8546 8b3d 880f fcbc 28e8 37be 487c 0f3e
-0.100180775 0.05952731 0.24607846 0.18197197 0.077523366 -0.06819843 0.08869854 -0.051301863
0.059638295 0.1483904 0.22912215 -0.055177066 0.21014331 0.06036062 0.1254169 -0.08368376
0.16628833 0.050299373 0.17024173 0.12374795 -0.10157152 -0.046159547 0.0065773777 -0.10326995
-0.04922734 0.16971165 0.07079586 -0.070702635 0.16801159 -0.107177205 -0.036202583 0.20277944
0.08686697 0.072825134 -0.21327041 0.12559897 0.06277129 0.15305382 0.031345632 -0.15253791
-0.08549121 0.18172078 -0.05203619 -0.021587769 0.074068375 0.116867185 -0.09710949 -0.063201495
-0.025425091 -0.08152278 -0.018307948 0.04118876 0.18296373 0.025993586 -0.11647756 0.11053586
-0.08721583 0.029922193 -0.09067431 0.16977425 -0.11543316 0.109474525 0.03159201 0.22780757
-0.05644844 0.18930693 -0.10607954 0.16734207 -0.07364751 -0.012520698 0.06475339 0.13121988
0.22529995 0.14303522 -0.021279734 0.11747649 0.07091864 0.1725092 0.21564098 -0.087996334
-0.0027910764 0.11483869 0.0200752 -0.08630025 0.052264843 -0.032138 0.056962505 0.12935017
0.20432323 0.16632731 0.03808337 0.17628339 0.0017210655 0.055608887 0.18499936 -0.088933356
0.041611474 0.021144085 0.13167815 0.050052706 0.109311044 0.059399452 0.22652656 0.05378877
0.023075875 -0.063560784 -0.08834751 0.12686534 0.14493716 0.18118037 0.15253633 0.06647591
0.0212621 0.15955308 0.05682407 0.08246602 0.021068398 0.12765224 0.05617499 -0.15276493
0.071553834 -0.010026355 0.15334417 0.04794674 0.028098473 0.15530416 0.058565553 -0.0861814
0.075697534 0.13754144 0.047478102 0.13529854 0.22251606 -0.013751702 0.03481954 -0.06311519
0.06072667 -0.008009347 0.061577104 0.13992637 0.093292765 0.09974215 0.11061407 -0.04015202
0.09424267 0.08092492 0.048198406 -0.012920038 0.12238807 -0.14751546 0.08814821 -0.22579144
-0.1211666 0.066686854 -0.09918101 -0.12299664 -0.040772434 -0.113572456 -0.20611386 0.043742932
-0.022646736 -0.0007353764 -0.013096985 0.07433077 -0.17185172 -0.08342296 0.082889296 -0.1790357
0.026410567 -0.020309366 0.10250057 0.026914813 0.1837556 0.111181766 0.0778059 0.05757975
0.058757402 -0.0022299383 0.035248157 0.005754026 -0.18650313 -0.1687829 0.032489996 0.017410435
0.030065754 -0.17037867 -0.098293744 -0.028412057 -0.042314503 0.15144552 0.04217954 -0.0028964514
-0.19917001 0.08645441 -0.08809491 -0.10945247 0.0680056 -0.030769125 -0.17959654 0.14012253

bn1.running_mean f4 [8]
00000000: d915 2f3d f60d 853c 7090 153d d2b5 5f3d
00000010: 40dc 563d cf4f 363d 78ce 8bbc c669 97bc
0.042745445 0.016242009 0.0365147 0.054616757 0.05245614 0.044509705 -0.017066225 -0.018483054

bn1.running_var f4 [8]
00000000: 2f4d 173c b5be ae3b 9f53 ca3b 98a3 373c
00000010: d188 373c e2ce eb3b 071b 083b 578c 3f3b
0.009234711 0.0053327926 0.006174519 0.011208437 0.011202053 0.007196293 0.0020768063 0.0029227936

conv2.weight f4 [4, 8, 5, 5]
00000000: f9dd 24b7 f923 2d3d 8631 8b3c 3fc2 893d
00000010: 33e4 ae3d 4188 9d3d 94bf babc 672c 013d
00000020: a90e 23bd 4612 783d b739 d73c d963 b0bc
00000030: 1ae0 533d c688 8f3c bd79 f13c c3c1 333d
00000040: 3549 013d 9768 243d 73e3 81ba 74a8 82bb
00000050: 985f 9d3d b3ad d43a 6840 893d d693 3a3d
00000060: f907 b33d d83c 97bd 4120 31bd 836e 3abd
00000070: 7059 823c 0d02 83bc 5442 b93b 0ad4 ef3b
00000080: efab 133d 18c0 20bd 066f 993c 8683 c23c
00000090: 89de 04bd 46bd 34bc 8ae1 5c3d 8073 573d
000000a0: 7055 343d 8160 c1bc fea1 443d 6eae b2bc
000000b0: 6adb cc3b 3ac5 243c 7789 5abd ff97 d9bc
000000c0: 4706 fabc 5760 34bd 222f 9c3c dd79 0ebb
000000d0: 19e6 9a3c 0ecc 5d3d 04a3 afbc 2ab3 b2bc
000000e0: ab09 083d dc0f ffbb 7808 993c a0eb febb
000000f0: fd3b 243d 3eb3 99bc 3941 9b3b 990f 543d
00000100: 3db2 8e3a 336b dbbc 44f9 e13c 284e 433d
00000110: 6db3 6d3d e466 063d d8ab a33d 34ad 463d
00000120: e6b6 823d d5f5 373d 0314 853c 6b15 da3c
00000130: 3909 6f3c 9dde 303a ba54 2d3c 13b7 1b3d
00000140: b6b5 203d d96a 423b 5067 123c 5832 9f3d
00000150: 0c8f 9c3d e60d 243d 8c0e 2d3d dc27 2cbc
00000160: 31e0 5e3d 0d4c 513d b230 9dbc 7283 ea3c
00000170: fb59 8a3d 6784 b53c 0e75 bd3c a3e1 a33d
00000180: f92d 69bb c552 9b3d 5e26 b7bb fcd8 513d
00000190: d7f6 c73c 77ca 61bc f229 853d 93d2 003c
000001a0: 7bdd 643d 10d8 0ebd a037 273d 38be 9d3d
000001b0: be59 3c3d 254a 7f3c 195d 58bd 2308 203d
000001c0: c08f 233c d91a 31bd 9493 bf3d 20cb a93d
000001d0: 204f 663c df44 833d 4fa3 903b 9d6c 843a
000001e0: 2cc5 8abc 6915 52bc 95d8 633d aaba d63c
000001f0: 9509 a03c 8d09 c43a 4c9d 08bc 9a9c e33c
00000200: f151 9e3d 8fe8 b4bc 9721 3ebd 7565 8c3c
00000210: 9469 073d 9541 51bc b6c9 f93c 70f4 7c3d
00000220: 6dc0 433d 6da1 d43c cec6 9fbc 8ec1 5b3d
00000230: 092f 14bc 16d2 7c3d 716d b53c bbfd 0ebd
00000240: 8dba 173c e754 febc 924a 853c 96de d93c
00000250: d7a9 843d 31f6 3a3d fa7d 353d a97a 1039
00000260: dda5 17bd 9ee3 573a c02e 303d 0b69 6e3b
00000270: 6a79 ff3c 00c1 6abc 42af 553d 4b83 70bc
00000280: 8a8d a83c 7199 71bd 5ca4 8dbc 9ae9 11bd
00000290: e6c6 803c 19d8 1a3d 2dd6 053b 6445 aebc
000002a0: 3073 873d 0d7b 4bbd 50fe a33c 75ba 27bc
000002b0: 6582 33bb f24f 363d 4c24 9e3d 8163 cabc
000002c0: b661 743c 05c2 83bd 0608 063d a599 66bc
000002d0: 2db5 0fbd 7cf1 a83c d364 72bd e3e5 be3c
000002e0: 2428 bcbc 83ac 51bd daff 78bd 88f2 82bb
000002f0: 045a 00bc 626f fab8 82e5 72bc 31e7 b0bc
00000300: 618a 8bbd c10f 92bb 7e52 22bd 9198 c0bc
00000310: 5ebb 22bc f22c bdbc ef02 343d 75fe b23c
00000320: 02a8 92bd 471e a8bd c427 f63c ed64 adbb
00000330: 7942 0d3c 96b6 6abd 7032 8cbc d801 b4bb
00000340: 9c9b 03bd 856b 73bd f5ef 23bd 3bd9 28bd
00000350: 08bd 9cbd 1a61 5c3c 5774 81bd 1242 8abd
00000360: 7255 cebc 169a 82bb 5164 4ebd a9e2 333d
00000370: 1d16 1abd efb2 82bd dc81 e0bc 2847 dbbb
00000380: deca 123d f4d6 75bd 914b 6ebc 4e70 eb3b
00000390: 8b67 86bc 00f4 1fbc 6019 c13c 79ac bdbb
000003a0: 0137 683b 3501 f7bc a3fe 913c 1e9a d3bc
000003b0: 6521 99bd ef33 a5bd ac9d ea3b b79e dd3c
000003c0: 21f2 8fbd 6f44 0fbd 3a1f 9a3c 43bd a83c
000003d0: 452f 8abd 7e67 f4ba 9d15 e2bc bf9e cf3b
000003e0: ce41 d33c 55e0 e83b 3c6d cf3c 2fa7 06bc
000003f0: 7920 52bd 299c 453d fb64 253d 7409 103c
-9.826844e-06 0.042270634 0.016991388 0.067265026 0.08539619 0.07692004 -0.02279643 0.031536486
-0.039808903 0.060564302 0.026272638 -0.021531986 0.05172739 0.017521273 0.029476995 0.043885957
0.031563956 0.040138807 -0.0009909704 -0.0039873663 0.07684249 0.0016226083 0.06701738 0.045551144
0.08741755 -0.07384652 -0.04324365 -0.04551555 0.015911788 -0.015992189 0.005653659 0.007318978
0.03605264 -0.039245695 0.018729698 0.023744356 -0.03243879 -0.011031454 0.05392603 0.052600384
0.044026792 -0.023605587 0.04800605 -0.02181169 0.006251742 0.010056788 -0.053353753 -0.026561735
-0.030520571 -0.04403719 0.019065443 -0.0021740117 0.018908547 0.05414968 -0.021440037 -0.021813948
0.033212345 -0.007783873 0.018680796 -0.0077795535 0.04009627 -0.018762227 0.0047379998 0.051772688
0.0010886859 -0.026784515 0.02758468 0.047681957 0.058032442 0.032812968 0.07991761 0.048505023
0.06382541 0.044912178 0.016244894 0.026621541 0.014589601 0.0006747039 0.010579282 0.03801639
0.039235793 0.0029665737 0.008935764 0.07773274 0.076444715 0.040052317 0.0422502 -0.01050755
0.054413024 0.05109792 -0.019188259 0.028627131 0.06755444 0.02215786 0.023127105 0.08002021
-0.003558038 0.075841464 -0.0055892905 0.051232323 0.024409695 -0.013781182 0.06502141 0.007862705
0.055875283 -0.034874022 0.040824533 0.07702297 0.045984022 0.015581642 -0.05282316 0.03907026
0.009983003 -0.043238495 0.0935432 0.08290696 0.014056951 0.064096205 0.004413999 0.001010317
-0.016939722 -0.012822487 0.05562647 0.026212055 0.019535819 0.001495646 -0.008338284 0.027784634
0.07730473 -0.022083549 -0.046418753 0.017138222 0.03305967 -0.012771984 0.030491691 0.06175655
0.047790933 0.02595588 -0.019503977 0.053651385 -0.009044417 0.06172379 0.022146912 -0.034909945
0.009260786 -0.031046344 0.01627091 0.026595395 0.06477707 0.045644943 0.044309594 0.00013778605
-0.037023414 0.0008235517 0.043013334 0.0036378528 0.031185824 -0.014328241 0.052169092 -0.01467974
0.020575304 -0.058984224 -0.017290287 -0.03562317 0.015719842 0.037803743 0.0020421848 -0.021273322
0.06613767 -0.049677897 0.020018727 -0.010237326 -0.0027390954 0.044509836 0.07721767 -0.02470565
0.014915874 -0.06433491 0.032722495 -0.014074718 -0.035084892 0.020622961 -0.059178185 0.023302978
-0.02296836 -0.05118991 -0.060790874 -0.003996197 -0.007833961 -0.000119416756 -0.014825227 -0.021594616
-0.06813503 -0.0044574444 -0.039629452 -0.02351025 -0.009932367 -0.02309272 0.04394811 0.02184985
-0.07160951 -0.082089 0.030048259 -0.0052915723 0.008621805 -0.057303034 -0.017113894 -0.005493384
-0.032130823 -0.05942871 -0.040023763 -0.041222792 -0.07653242 0.013450885 -0.06321018 -0.06750883
-0.025187228 -0.0039856536 -0.050388638 0.04391733 -0.037618745 -0.06381785 -0.027405672 -0.006691832
0.035838 -0.06001945 -0.014544384 0.0071850186 -0.016406795 -0.009762764 0.02357167 -0.0057883826
0.0035433176 -0.030151943 0.017821616 -0.025830325 -0.074770726 -0.08066546 0.0071599092 0.02705322
-0.07028604 -0.034977373 0.018813718 0.02059806 -0.06747297 -0.0018646566 -0.027598197 0.0063360627
0.025788214 0.0071068206 0.025320642 -0.008218571 -0.0513005 0.04824463 0.040379506 0.008791316

bn2.running_mean f4 [4]
00000000: 2ecd a83f 523b a6bf 842c 8cbf ba25 aabf
1.3187616 -1.2986853 -1.0951085 -1.3292763

bn2.running_var f4 [4]
00000000: 1127 5e40 bdb8 6f40 e746 2b40 d27a 9440
3.4711344 3.7456505 2.6762025 4.6399927

fc1.weight f4 [32, 196]
00000000: 3151 803d 126d 603b 3a87 e73c 8bc6 8b3c
00000010: 3069 5d3d 3db6 cf3c 7883 04bb 6e46 3bbd
00000020: 4764 733c 8c06 4cbc e83a 08bd 68e7 bdbc
00000030: 02a6 c8bc b3db afbb 20c7 993c ca51 34bd
00000040: ad87 a63b f54c 3d3d ac40 653c a9d7 26bd
00000050: 5ca4 cc3c af76 943c 76a1 103d f44a 64bd
00000060: 3ca6 a8bc 8eee 253b 66c8 613d 5168 1c3d
00000070: 68cb 4b3a ac3e 70bb d49a 483d c595 2d3d
00000080: db56 04bd 6f96 3b3d 0e6e 6f3d 8ef7 ccbb
00000090: 1a4b 5d3d 6f10 20bd dea8 743c e47e 503b
000000a0: 1421 353c 6caa 30bd a04e 433d c937 9ebc
000000b0: b900 58b7 9368 533a e560 04bd d942 f8bb
000000c0: c5f2 4f3d fad5 b73c 374f d9bc 3d09 36bd
000000d0: f965 963c 33ab 64bb d9af 1a3d bd9c 863d
000000e0: 98aa d4bc e4ab 9d3d c94d 79bb 99a9 2dbd
000000f0: 979a dc3c e26d 97bd 7de5 84bb 8c3e 8cbb
00000100: 76d8 f8bc 1c47 1b3d 2cd7 2ebd 4872 993c
00000110: 842a 1abb ca54 8fba d65e 743d df40 6e3b
00000120: e602 f53c 09df f53b 3715 303d 5495 7f3d
00000130: 67c2 34bd c67d 86bc 41bc 4b3d a4e3 1b3d
00000140: 5c92 15bb 06b3 72bc 4c12 903c f98b 7abd
00000150: 754e 4bbd 0217 c43c 041f c53c d01a 76bd
00000160: 8ecf 813c 0aa9 03bc 6f17 0b3d de7d 85bc
00000170: 06da 1bbd c978 3c3b 5f55 14bd 93fd 9fbb
00000180: 5963 fcbb d794 d7bc c563 44bd c160 3c3d
00000190: 2de3 453d 4931 033d a23d d13c 4ede 513d
000001a0: 25fd 4ebd 6bae 4d3d f8ea 81bd 0e9a 623d
000001b0: 2d75 75bb 7025 96ba f9ac 8d3d d81e 0cbc
000001c0: b71c 8fbc 735a 37bd ec58 dcbc 2a5f 703a
000001d0: 5295 933c 9b65 bcbb 107d 01bc 9eba d5ba
000001e0: 4fd9 9f3d 06bd 0abd cfb8 62bd 85cf 213d
000001f0: 3f42 2bbd bf3a c0bc bfe6 93bc 53de 5bbc
00000200: 2b63 273d 1687 403d 2679 fbbc b879 ef3c
00000210: 9ddb 803d 3c0c afbc f975 e5bc 3286 b6bc
00000220: fc90 74bd 9435 0fbd 71d6 a4bc b051 ff3c
00000230: 8780 aa3c cb7f dcbb a7d2 333d 6511 90bc
00000240: 5752 793c 3755 0dbc bc7b 82bd e634 543b
00000250: 6eb1 1bbd cc5d 593d a859 733d db35 8a3d
00000260: 5898 a3bb d6a1 1fbd 39e4 7dbd c3f0 853d
00000270: 354c 8eba cc15 1fbd 6e6b 553d fe45 1abd
00000280: 390f 1e3d 83ad 803d 4696 9c3d 40db 293d
00000290: 2854 25bd 7b2e ba3d c140 47ba 1433 52bc
000002a0: 57eb 31bd db41 f1bc 42af dabc 8ec0 e63b
000002b0: 738e 063c 9f43 043c 0d6d aa3d f7f5 9b3d
000002c0: 58ab 9f3d 3de0 b9bc c5a5 0e3c b1be 9a3d
000002d0: b54d 22bd 6679 68bd 3eb8 a63d 35df db3c
000002e0: 5aa0 403c 051a cfbc a734 0e3d d272 6dbd
000002f0: b832 3e3d 1925 8d3d 2564 8b3c ce34 8f3c
00000300: d6d0 23bc d5cf d03c 5282 043d 3aba 253d
00000310: 8b64 643d 1d50 d03c a9e0 0c3d 7d0f d1bc
00000320: c593 593c fdd3 debc b73a 9cbc cb5c 98bd
00000330: 974d 703d 996e 72bd 6b3f 0f3d 03fb 38bd
00000340: 76c3 7bbd 4b3f 223d 1f6f 0b3d cdc8 bfbc
00000350: 8511 163d 3937 433d 8de6 a3bb 01bc 4ebd
00000360: 16f2 55bd a706 6fbd 5934 563c 47cc cabc
00000370: ccc9 3fbd b40b 1e3d e362 8c3d 94de 4e3d
00000380: b33c 37bd 1933 f8bc b4f4 09bd cadf bf3b
00000390: 3ec1 c2bc c3df 94bd bc29 55bd fdd4 3ebd
000003a0: 7262 2e3d fea1 ef3b de31 923c 4a77 d9bb
000003b0: badf 9bba 96be 653d 833d e23c dde2 05bd
000003c0: 1557 4d3d af9d 89bc b5f6 01bd d72b 863d
000003d0: e3f0 2bbd 0652 e83b e513 8fbd 58a9 47bd
000003e0: 4a02 853c a9b3 82bb 40ac b53a a94d a0bd
000003f0: 1cd6 8abb 40de 843c 47d7 75bd fae8 a83d
0.06265486 0.0034244698 0.028262723 0.017062446 0.054055393 0.025355453 -0.0020219963 -0.045721464
0.014855451 -0.012452733 -0.033259302 -0.023181632 -0.024493221 -0.0053667664 0.018771708 -0.044023313
0.005082092 0.04621597 0.01399247 -0.040733013 0.024980716 0.018122999 0.03531023 -0.055735543
-0.02058708 0.0025319192 0.055122755 0.03818542 0.00077741453 -0.003665845 0.04897578 0.04237916
-0.032309394 0.04579776 0.058454566 -0.0062550968 0.0540267 -0.039078172 0.014932839 0.0031813914
0.01105525 -0.043131277 0.047682405 -0.01931371 -1.28747715e-05 0.0008064594 -0.03231897 -0.0075763282
0.050768632 0.0224409 -0.02652703 -0.044442404 0.018359171 -0.0034892082 0.037765358 0.06572864
-0.025960252 0.07698801 -0.0038040748 -0.04239807 0.026929183 -0.07394005 -0.0040556774 -0.004279917
-0.030376654 0.037909612 -0.042685673 0.018731251 -0.0023523876 -0.0010935303 0.059660755 0.0036354584
0.029908609 0.0075033945 0.042988982 0.06239827 -0.04413071 -0.016417395 0.04974008 0.038058892
-0.0022822833 -0.01481319 0.01758685 -0.061168645 -0.04963537 0.023936752 0.024062641 -0.060084164
0.01584604 -0.0080359075 0.033957895 -0.01629537 -0.03804972 0.0028758517 -0.03621423 -0.0048825233
-0.007702273 -0.02631609 -0.04794671 0.04599071 0.048312355 0.032029424 0.025542084 0.051237397
-0.050534386 0.050215166 -0.06343645 0.0553227 -0.0037453875 -0.0011455249 0.069177575 -0.008552276
-0.017469747 -0.044763993 -0.02689787 0.0009169454 0.018015537 -0.005749417 -0.007903352 -0.0016306227
0.0780512 -0.033871673 -0.05535203 0.039504547 -0.041811224 -0.023465512 -0.018054364 -0.013419705
0.04086606 0.047003828 -0.030697417 0.029232845 0.06291888 -0.021368138 -0.028010355 -0.022280786
-0.05970858 -0.034963205 -0.020121785 0.031166881 0.02081324 -0.0067291013 0.043902066 -0.01758642
0.015217385 -0.008626274 -0.06371257 0.0032380163 -0.038011007 0.053067967 0.059411675 0.06748553
-0.004992526 -0.0389727 -0.06198523 0.06540062 -0.0010856452 -0.038839146 0.052104406 -0.037664406
0.038588736 0.06283095 0.0764585 0.04146886 -0.04036346 0.09090897 -0.00076008966 -0.012829561
-0.04343733 -0.029450348 -0.026694898 0.0070419973 0.0082126735 0.008072763 0.08321581 0.076152734
0.07796353 -0.022689933 0.008706515 0.07555903 -0.03962489 -0.0567564 0.0814061 0.026839832
0.011756981 -0.025280962 0.034718182 -0.05797083 0.046435088 0.068918414 0.017015526 0.017481234
-0.009998521 0.025489727 0.032350846 0.040460803 0.055759948 0.025428826 0.03439394 -0.02552008
0.01327986 -0.027200693 -0.019070966 -0.07439574 0.058667745 -0.059187505 0.03497259 -0.04516126
-0.061465703 0.039611142 0.03404152 -0.023411179 0.0366378 0.047660086 -0.005001849 -0.050472263
-0.052232824 -0.058355954 0.013074004 -0.02475561 -0.046823308 0.03858538 0.06854799 0.050505236
-0.04473562 -0.030297803 -0.033680633 0.005855535 -0.023773786 -0.07269242 -0.052041754 -0.04658984
0.042574354 0.007313012 0.017846044 -0.006636535 -0.0011892237 0.05608996 0.027617222 -0.032687057
0.050131876 -0.016798822 -0.03172942 0.065513305 -0.041977774 0.007089856 -0.069862165 -0.048745483
0.016236443 -0.0039887023 0.0013860539 -0.078273125 -0.0042369496 0.016219258 -0.060019758 0.08247562

conv1.weight f4 [8, 1, 5, 5]
00000000: 9238 e6bd 913f 763d 7119 5d3e 34eb 3e3e
00000010: 6727 c13d 2592 a7bd e350 c63d 085d e3bd
00000020: 19a0 433d 489c 263e 619e 5a3e d059 39bd
00000030: 0209 483e f4e6 7a3d af88 ff3d 8c28 e8bd
00000040: 5b1e 333e 927d 1f3d c585 0e3e dfd5 ed3d
00000050: f008 f1bd ef8c 21bd afb8 51bc 5b2b 09be
00000060: dcf0 79bd 3451 153e fa6b e8bb dc0e d5bd
00000070: 9f90 363e 686b aabd 3dcd 8cbd 4fc8 3b3e
00000080: 13ac 973d d6b6 b43d d90e 41be f57e 983d
00000090: 566c 4e3d e580 063e 676a 143d ddd5 eabd
000000a0: c028 2bbe 6592 103e 2015 a5bd 2f3e d6bc
000000b0: a1e3 e93d 5221 9b3d 3d9d 16be b794 d0bd
000000c0: 5df6 0ebd bb4d 56bd 609c 09bd 4962 f13a
000000d0: 5e08 233e 8e7b 57ba c66e 20be 91e3 ca3d
000000e0: 9e05 05be c6c8 5aba c624 e2bd 8cca 163e
000000f0: 58ac 07be 7d82 783d 76af e5bb 4d0d 5e3e
00000100: 25c0 a6bd bddb 443e b2cb 29be c8f7 0c3e
00000110: af83 c4bd 6ea6 2abd fea8 873d 4fb9 a43d
00000120: 8fab 513e 477c fb3d 8e9d 53bd c431 e33d
00000130: a590 7d3d 280a 313e 5789 563e 574d 11be
00000140: f361 57bc e20a 093e 0c64 9f3c f1f0 04be
00000150: 9c5f e13c 3831 38bd cb97 9d3d 0928 f53d
00000160: fb07 373e a829 233e 29b5 d43c d78d 403e
00000170: fc93 50bd bac3 133d bbde 373e b9f1 cdbd
00000180: 8f3a 103d 9691 2ebd fc0b e63d d7a3 0c3d
00000190: 9292 ce3d 2a3b 543d 51d8 5a3e 0b3a 193d
000001a0: 7e7b 383d d3b9 8bbd 94fd c9bd 917e f63d
000001b0: d886 0a3e 05bc 4c3e 8503 233e f23b 8c3d
000001c0: ce4a 243b 58b1 103e fd2e 4a3d 41cc bc3d
000001d0: 8b30 d63c ef89 ee3d 894d 023d da65 29be
000001e0: ac03 b73d 1e49 3fbc ae51 0c3e d753 d53c
000001f0: 621c b13c c00e 2c3e 9827 4f3d 9cab 09be
00000200: 286d c53c 5872 113e e0ba 483d 6107 173e
00000210: 6b65 4d3e 5ed7 83bd 400f 1b3d 7bc1 a9bd
00000220: abb8 3c3d d8f9 23bd e205 be3c cf1c 183e
00000230: ea2d a03d c886 a73d fa79 a43d bb65 94bd
00000240: b90e b43d 548f 333d 626e 753c 4e12 47bd
00000250: d27a d83d a462 22be 3922 0c3e fa82 3dbe
00000260: 3e0b 9abd f87e c43d 5418 e3bd 7078 b1bd
00000270: 88de ae3b 0d14 97bd 35d5 47be 6907 fd3c
00000280: 3fd0 6b3c 4074 8c3c 2b77 663c e918 dc3d
00000290: d87a 3cbe 0dbf 6cbd f619 a43d 9a28 35be
000002a0: f011 643d def1 a4bc 7342 eb3d 5409 523c
000002b0: 0f2a 4b3e 5356 063e 49ea a53d f0ca 973d
000002c0: 9c8f 9d3d 8e67 993c 8cc6 3d3d 7e36 7a3c
000002d0: e01e 32be f91b 1ebe da60 753d aea7 013d
000002e0: b5ec 303d 2781 22be 7197 a8bd a7b9 0e3c
000002f0: 67a8 d0bc 60bc 293e 0371 5c3d fbe6 a73c
00000300: a95c 1dbe 50e1 dc3d 09d1 a6bd 2a5c c5bd
00000310: 0d2c db3d bd6b 823c a852 1fbe 4828 253e
-0.11241259 0.060119215 0.21591736 0.1864441 0.094313435 -0.08182172 0.09683397 -0.11101729
0.047760103 0.16270554 0.2134948 -0.045251667 0.19534686 0.06125541 0.12477242 -0.11335859
0.17492048 0.038938113 0.13918217 0.11613058 -0.11769283 -0.039441045 -0.01280038 -0.13395445
-0.061020717 0.14581758 -0.00709295 -0.10403225 0.17828606 -0.08321267 -0.068750836 0.1833813
0.074058674 0.08823936 -0.1885332 0.0744609 0.050396286 0.13135107 0.036234286 -0.114665724
-0.16714764 0.14118345 -0.0806067 -0.026152698 0.1142037 0.07574715 -0.14708419 -0.10184615
-0.03490292 -0.052320223 -0.033596396 0.0018416132 0.1592116 -0.000822001 -0.15667257 0.09906686
-0.12990424 -0.00083459576 -0.1104217 0.14725703 -0.13249338 0.06067132 -0.007009442 0.21684761
-0.081421174 0.19224449 -0.1658161 0.13766396 -0.09595429 -0.041662626 0.066240296 0.08043157
0.204756 0.122795634 -0.051663928 0.110934764 0.061905522 0.1728903 0.20950828 -0.14189659
-0.0131459115 0.13383058 0.019456886 -0.12982537 0.02751141 -0.044968814 0.07694968 0.11970527
0.17874138 0.1593386 0.02596529 0.18804108 -0.05092238 0.03607533 0.17956059 -0.100558706
0.035212096 -0.04261931 0.112327546 0.034335937 0.1008655 0.051814236 0.2137158 0.03740887
0.045039646 -0.068225525 -0.09862819 0.120358594 0.13528001 0.19993599 0.15919311 0.06847371
0.0025069 0.14130151 0.049361218 0.09218646 0.026146194 0.116474025 0.031812225 -0.1654276
0.08936247 -0.011675147 0.13703033 0.026040955 0.02161998 0.16802502 0.05057487 -0.1344437
0.024099901 0.14203775 0.049006343 0.14748909 0.20058219 -0.064375624 0.03785634 -0.082888566
0.04607455 -0.04003319 0.023196165 0.1485474 0.078212574 0.08180004 0.08031078 -0.07245966
0.087918706 0.04383786 0.014979931 -0.04860144 0.10570301 -0.15857941 0.1368493 -0.18506995
-0.075216755 0.0959453 -0.110886246 -0.0866555 0.0053365864 -0.07376871 -0.19514926 0.030887323
0.014392911 0.017145276 0.014066498 0.10746939 -0.18406236 -0.057799388 0.08012764 -0.1769127
0.05568117 -0.020134863 0.114872836 0.012819607 0.19840263 0.13118868 0.08101327 0.07411754
0.07693407 0.018726137 0.046331927 0.015271781 -0.1739459 -0.15440358 0.059906818 0.031654052
0.04319449 -0.1586958 -0.0823201 0.008711255 -0.025470925 0.16575766 0.053818714 0.020495882
-0.15367378 0.107851624 -0.08145339 -0.096367195 0.107017614 0.015920514 -0.15558875 0.16128647

bn1.running_mean f4 [8]
00000000: 1c2b 0f3d 7e18 793b e2fc 793c 1d61 303d
00000010: df77 453d 7a6c f03c 83e3 15bb 8c89 20bb
0.03495322 0.0038008983 0.015258046 0.043061364 0.04821002 0.0293486 -0.0022871203 -0.0024496047

bn1.running_var f4 [8]
00000000: b78f e53b 49d6 c43a 7e1b ea3a 54f2 e83b
00000010: ace2 193c e8f4 4e3b 1e92 303a 9dba ca3a
0.0070056575 0.0015017475 0.0017860977 0.007108966 0.009392422 0.003157908 0.00067356403 0.0015466992

conv2.weight f4 [4, 8, 5, 5]
00000000: adba 853c 3d99 9c3c 565a 1dbb 7cb2 fc3c
00000010: 1405 383d 6d66 b03d 876f 42bd 770c a53c
00000020: 4451 72bd e246 103d 53c9 103d d9cb 49bd
00000030: ba39 4b3d b2bb 4ebb 668e 18bc a1e3 563d
00000040: 4950 5e3c 60f5 153d ae0d e5bc 7482 4ebd
00000050: df25 8e3d fdf9 9abc e4ca 893d 2666 e33c
00000060: 1a05 5e3d 09c6 44bd ade5 cfbc 1b7a 8ebd
00000070: d3ca 1ebc 9907 2fbd b548 e43c 14bd 893c
00000080: 7c11 503d 44e3 72bd 2fc8 713c 4c81 3a3d
00000090: b2c9 94bc 3586 a2bc 4b42 983d f543 613d
000000a0: 17bc 763d e740 6abb 636c 7b3d e30a c3bc
000000b0: 4a6c 41bc aeea b83c 57b1 46bd 3d0e 94bc
000000c0: 7053 e6bc 276f 85bd 7a19 dc3c c7e6 103c
000000d0: f9ed 853b 481c 713d e380 47bd 7398 b1bc
000000e0: de48 723d e0d4 a2bc 8618 9f3c ddea 18bd
000000f0: 55d8 1f3d 0663 8cbc e61e d3ba 1911 423d
00000100: bdd6 02bd db04 7ebd ea78 3a3d 4f6a 363d
00000110: 6ce6 803d 4c56 173c c0fe 7d3d ff29 2e3d
00000120: 8eff 2f3d 628d 0b3d 821b 95bc 567f 363d
00000130: 3a0d b3bb 15c4 64bc a658 72bc 2b70 fa3b
00000140: 085e 6a3d aec5 8bbc d532 693a 4296 833d
00000150: 6dd8 523d ffe1 683d d19e d53c a0a9 a1bc
00000160: b870 fe3c 508d 943c c0a3 56bc 206a 843b
00000170: 129d 953d 1e4e 95b9 a3da 4ebc 87eb a63d
00000180: 144b 1cbd 9952 a43d df18 c4bc 5851 d53c
00000190: bb41 1b3d 388e bebc 2c2a 3e3d f6ec 11bc
000001a0: 5a60 623c 72f7 07bd 4f6b 433d 6e23 7c3d
000001b0: e5a8 1b3d 29ad 41bc 131f 4bbd 4b36 0f3d
000001c0: 5307 103b a88c 71bd 691d 793d 8379 ac3d
000001d0: a489 9b3b aa96 593d adba 4cbc 47bc 07bd
000001e0: 2e0f 1fbd 29f4 f8bc 88ec 493d f577 d33b
000001f0: a7ac 3cbc 9fe9 d73c e207 3fbd 9799 5f3c
00000200: 56f4 733d e61a 55bd edb4 11bd 60f9 2b3c
00000210: 8173 2c3d 4428 13bd 4126 b03c c0b9 9f3d
00000220: dcad 7d3d 916c ce3c c2bc 44bd 9288 143d
00000230: 61ec 363b 9f55 863d 746f a63c a327 7cbd
00000240: b7c6 68bc 963d 1fbd b31f 41bc 8ac8 f03c
00000250: 0a17 383d f9cb dd3c 8f95 533d b487 ee3b
00000260: 8dd2 1abd f31b fc3b 30b0 173d f029 bb3b
00000270: a36a 3c3d 0b91 67bc 6279 503d 455a 1bbd
00000280: 9869 823c 5236 69bd 4163 703b 01a5 4dbd
00000290: 3346 9cbc c3d3 cf3c 737a 803c 9db7 d6bc
000002a0: ee5e 9b3d 46f3 85bd 6136 48ba 0dc4 45bd
000002b0: 064a 2ebd 532c 033d fa3b 8e3d b0be 833c
000002c0: a042 d93b 440c 40bd 8ca1 40bb 6caf 24bd
000002d0: 4228 1abc 7706 cc3c 4216 60bd 81a5 f23b
000002e0: 33c7 0dbd 2923 87bc 2305 54bd e8bc 0e3d
000002f0: afd6 b2bc 88cf a7bb f4f0 2d3d a354 48bc
00000300: cd32 09bd c27d a4bc bee5 dbbc 6be4 d83b
00000310: f185 9e3c 19bf a23a d438 233d 6020 473d
00000320: 912b 96bd 3a8c 8abd 3f88 543d 2c06 88bc
00000330: f4c7 683c 4733 66bd c0dc 4a3a 57f9 a23b
00000340: bd6a 35bd aec1 82bd fb62 f8bc bfe6 a2bc
00000350: 583e 87bd f443 2f3c 3434 95bd 3fb9 55bd
00000360: f612 50bb b6f8 a23c 99ca 59bd 71fa 063d
00000370: 74ad cabc 8479 58bd 1fc0 e4bb c71f 3cbc
00000380: 7a1d c73c 00b5 80bd 9848 0fbd 4a53 ae3c
00000390: 4cc7 9fbc 0043 c9bc 6160 c83c 09d4 d5bb
000003a0: fb56 b33c 8eae 13bd dc1d 493c 8a72 27bd
000003b0: 29ca 81bd d1be 76bd 5519 ed3c cc08 5f3c
000003c0: 53f7 96bd 21c3 a8bc badf 273d 8b0a 383d
000003d0: ab1e 98bd 4c68 953c 622a 9abc f610 163c
000003e0: 84b5 683d 4e2f 573c eee0 163d 2084 d13b
000003f0: 3f4a 12bd 527d 493d 7e65 063d dfdd 8cbb
0.016324366 0.019116038 -0.0024010143 0.030846827 0.044926718 0.08613286 -0.047469642 0.020147545
-0.059159532 0.03522385 0.035348248 -0.04926667 0.0496156 -0.003154498 -0.009311294 0.052463178
0.013568946 0.03661096 -0.027960625 -0.05041738 0.06940817 -0.018918032 0.067281514 0.02775867
0.054204084 -0.048040424 -0.025378073 -0.069568835 -0.009691912 -0.042731855 0.0278667 0.016813792
0.050797924 -0.05929877 0.0147572 0.045533463 -0.018162582 -0.019839386 0.074345194 0.05499645
0.06023797 -0.0035744251 0.061382663 -0.023808902 -0.011805603 0.022572841 -0.04850897 -0.018073196
-0.028115958 -0.06515341 0.026867617 0.008844084 0.0040872064 0.05886486 -0.0487069 -0.021679139
0.059151523 -0.019876897 0.019420873 -0.037333358 0.03902467 -0.017137062 -0.0016107231 0.047379587
-0.03194307 -0.06201635 0.04552547 0.044534978 0.062939495 0.009236883 0.062010527 0.04252052
0.042968325 0.03407038 -0.018201593 0.04455503 -0.005464223 -0.013962765 -0.014791643 0.007642766
0.05721858 -0.017062034 0.0008895819 0.06425144 0.05147593 0.05685615 0.026076706 -0.019734204
0.031059608 0.01813379 -0.0131005645 0.0040409714 0.073053494 -0.00028477696 -0.012625369 0.08150392
-0.038157538 0.08023567 -0.02393764 0.026039764 0.037904482 -0.023261175 0.046426937 -0.008906594
0.013816917 -0.033194967 0.04770976 0.061557226 0.038002867 -0.01182107 -0.04959018 0.034963887
0.0021977022 -0.05897203 0.060819063 0.08421614 0.0047466327 0.0531222 -0.012495679 -0.03313854
-0.038832836 -0.030389862 0.04929784 0.006453509 -0.011515773 0.026356516 -0.046638377 0.0136474585
0.05955919 -0.052027605 -0.035572935 0.010496467 0.04210234 -0.035927072 0.021502616 0.07799101
0.061933383 0.025198253 -0.048031576 0.036263056 0.002791189 0.065593 0.020316817 -0.061561238
-0.014207534 -0.038877092 -0.011787343 0.0293925 0.044943847 0.0270748 0.051656302 0.0072793607
-0.037798453 0.0076937615 0.03703326 0.0057117864 0.046000134 -0.014133702 0.05089701 -0.037927885
0.015919492 -0.05693657 0.0036680254 -0.050206188 -0.019076442 0.02536953 0.015683388 -0.0262106
0.07586466 -0.06540541 -0.00076374976 -0.04828267 -0.042551063 0.032024693 0.06945033 0.016082138
0.006630257 -0.046886697 -0.0029393164 -0.040206358 -0.009409012 0.024905426 -0.054708727 0.0074049835
-0.0346138 -0.016496258 -0.05176271 0.034848124 -0.021830885 -0.005121175 0.04246612 -0.01222721
-0.033495713 -0.020079497 -0.026842948 0.0066190264 0.019350978 0.0012416571 0.039849117 0.04861486
-0.073325284 -0.06765027 0.051887747 -0.016604505 0.014207829 -0.056201246 0.0007738583 0.0049735713
-0.044291247 -0.06384598 -0.030320635 -0.019885419 -0.06603688 0.010697354 -0.072853476 -0.052178618
-0.0031749583 0.019893985 -0.053171728 0.032953683 -0.024740912 -0.05285026 -0.0069809104 -0.011482186
0.024306048 -0.06284523 -0.03498134 0.02127995 -0.019504212 -0.02456808 0.02446002 -0.0065255207
0.021892061 -0.03605514 0.012275185 -0.040880717 -0.06337387 -0.06024057 0.028942743 0.013612937
-0.07371392 -0.020600857 0.040984847 0.04493193 -0.074277245 0.01823821 -0.018819038 0.009159317
0.05681373 0.013133837 0.036835603 0.0063939244 -0.035715338 0.04919178 0.032811634 -0.00429891

bn2.running_mean f4 [4]
00000000: d53c 383f 11e2 5bbf 8265 ccbe bded bfbe
0.7196782 -0.85891825 -0.39921194 -0.37486067

bn2.running_var f4 [4]
00000000: 6643 953f 4ba4 803f cd1f 373f 0358 ff3f
1.1661193 1.0050138 0.715329 1.9948734

fc1.weight f4 [32, 196]
00000000: 1734 773d 2ac7 773c 939f 543d b66e 49bc
00000010: 1b29 8c3c 6668 1f3c 190b 88bb fc25 81bd
00000020: 0142 843d 412e c3bc a97d 82bd 0f35 5fbd
00000030: 0230 35bd d35a 5f3a 317e abbb b384 25bd
00000040: b558 013c a2c3 333d aa0b 533c aefe 09bd
00000050: 5d84 083d 0030 6abb a4ab 803d 024f 6abd
00000060: c512 28bc 82b6 ad3c 37af 853d 3013 153d
00000070: 9dce 72b9 2e5e 093c 4aa4 863d 9533 823d
00000080: 4a95 b6bc 50fd 593d 2f3a 413d 2ae6 76bc
00000090: cad2 8f3d 85a2 01bd 0476 d73c 92e5 aabb
000000a0: 6591 6c3c 6957 5abd e9d4 7e3b 243c 2dbd
000000b0: ac3a 8b3c c79f 14bc c99c 3cbd f366 97bb
000000c0: 59d4 503d d793 ac3c ebbb 01bd b1a3 36bd
000000d0: 0aea e43c 7267 0c3d 8692 453d 2ec0 903d
000000e0: 50e9 d8bc 28ea 963d 0786 da3a 3523 ccbc
000000f0: 5db9 763d 9da4 a5bd c4fd 18bc 97e7 63bb
00000100: 11dc dfbc ca43 8c3d b09e 86bd 0718 283d
00000110: c5ac 89bc 6175 dcbb 0b2f 693d b162 b5bb
00000120: cb85 883d 4069 6bbd b7e5 e93c 1fcc 463d
00000130: 5359 46bd d153 99bc 8a74 2e3d 354d 303d
00000140: c52f 4abc 20a6 b4bc 8054 783c 17e8 71bd
00000150: 2293 54bd e0dd db3c e96c 293d 904e 6dbd
00000160: bf63 e43c cc8a b73b 5e59 223d 7238 9cbc
00000170: 7b5c 2dbd 9a20 463c 0506 6abd 0fc9 b13a
00000180: c25b 593a 001c c7bc 1645 4abd fca5 413d
00000190: 76f9 433d 5b10 b13c 6ca6 653d 7691 bf3d
000001a0: 4254 63bd 3daf 473d 3ae5 7cbd c96e 5f3d
000001b0: 759b 923a e6f6 2e3c e31f c53d 1864 62bc
000001c0: 3388 98bc 1ae8 19bd f510 29bd 11fd c93b
000001d0: e086 893c 20ae 82bc 3746 67bc e337 91bb
000001e0: 4780 b43d 38d2 21bd 7c8d 62bd e6aa 003d
000001f0: 8ee1 97bd 67ac abbc 9325 a0bc df92 49bc
00000200: 5d0e 393d f847 493d df65 f9bc 129a c63c
00000210: 5b25 983d e105 b6bc ebf9 cabc c691 10bd
00000220: d54a 8bbd 7743 17bd 07d8 2dbc 6145 223d
00000230: 9e1a b13c d073 5dbb 39a2 503d be52 52bd
00000240: 6253 d83c 236b f43b 7d28 7abd bf19 6739
00000250: eb4e 1ebd a25b 5b3d f6db 483d f02f 773d
00000260: 8368 8a3b e180 0ebd 9ec0 84bd 7e50 8e3d
00000270: e845 62bc c529 78bd 9fdc 963d 119b bebb
00000280: 9d42 083d 3442 7a3d 0cef b83d 1677 3b3d
00000290: a8df 2ebd 10e8 d53d 5061 ac3c 6734 acbc
000002a0: deea 45bd 86cd c2bc b5d6 8abc 8ed7 513c
000002b0: 0e28 c0bb 6336 52bd 0087 993d fefd 993d
000002c0: d908 aa3d eaee c7bc eeba 7c3b e38d 3e3d
000002d0: a762 9fbd 1edd 5bbd 3fac a93d ff56 083d
000002e0: e66c 993c 8ff6 16bc 3561 a33c 2bb4 42bd
000002f0: 6289 6a3d 0fcc 8d3d a7ec 993c be50 043d
00000300: 60ef a63b 75ec 193d 2377 513d e6e9 3b3d
00000310: b3ae 4d3d 42de 523d 2249 5c3d 519b 55bb
00000320: 738d 323d 1642 48bd 2346 0fbd 79de 57bd
00000330: 751e 883d 9e17 1cbd 183c 443d 4b3a 1abd
00000340: 8934 94bd 81bc 193d 4210 773d 68a1 edba
00000350: b06a 5d3d e841 523d 4b29 4bbc 19a4 86bd
00000360: a8bc 6dbd 67f8 12bd e575 863d 3551 15bd
00000370: dea6 6ebd 1023 b43c 3055 843d 19f2 4d3d
00000380: 6e56 73bd 6c62 9aba 81ce 39bd 929b d3bb
00000390: 6ba0 02bd 840b 86bd 8233 38bd 1da7 f4bc
000003a0: 230b 733d 82d1 213a e4e5 653c 3115 c5bb
000003b0: a39a 8c3b b856 803d 2a7f 853d a80a ed3c
000003c0: 12cd 623d 8101 01bd b2b7 eebc b6e0 8d3d
000003d0: 63fa 4dbd d3b9 9d3c 39c6 69bd d0b7 31bd
000003e0: e597 783c 3409 a5bb 0532 973c c1a7 8ebd
000003f0: 5ed3 d73b c155 bc3c 1881 87bd 19cc 773d
0.06035241 0.015123168 0.051909994 -0.012294462 0.017109444 0.00972948 -0.0041517136 -0.06306073
0.06457902 -0.023825767 -0.06371624 -0.05449396 -0.044235237 0.0008520309 -0.005233549 -0.040409755
0.007894685 0.043887742 0.012881199 -0.033690147 0.033329356 -0.0035734177 0.06282738 -0.057204254
-0.010258381 0.02120519 0.0652756 0.03639525 -0.00023155888 0.008384271 0.065743044 0.06357495
-0.022287983 0.053220093 0.04717463 -0.015069524 0.07022627 -0.03164913 0.026301391 -0.005215355
0.014438962 -0.053306017 0.0038884229 -0.042293683 0.01699575 -0.009071297 -0.04604796 -0.004620427
0.05098376 0.02106659 -0.031673353 -0.044589702 0.02794363 0.03427834 0.04823544 0.07067905
-0.02647844 0.073688805 0.0016672023 -0.024919132 0.06023537 -0.08088038 -0.009337846 -0.003477549
-0.027326616 0.06848867 -0.06573236 0.04103854 -0.016806016 -0.00672786 0.05692963 -0.0055354466
0.06666144 -0.05747342 0.02855192 0.04853451 -0.04842503 -0.018716725 0.04259161 0.04304238
-0.012340491 -0.02205187 0.015156865 -0.05905923 -0.05189813 0.026839197 0.04136363 -0.05793625
0.027879594 0.0056012627 0.03963601 -0.019069884 -0.042324524 0.012092734 -0.057134647 0.0013563948
0.0008291566 -0.024305344 -0.04938229 0.047277436 0.047845326 0.021614244 0.056066915 0.09353916
-0.055500276 0.048751105 -0.061742045 0.054549012 0.0011185246 0.010678982 0.096252225 -0.0138178095
-0.018619632 -0.037574865 -0.041275937 0.006164201 0.016787946 -0.01595217 -0.014115862 -0.004431711
0.088135295 -0.03950712 -0.05531071 0.03141298 -0.07416068 -0.020956231 -0.019549167 -0.012303083
0.045179714 0.0491409 -0.030444084 0.024243388 0.07429 -0.0222196 -0.024777373 -0.03529527
-0.068013825 -0.036929574 -0.010610587 0.039616946 0.021619137 -0.0033790953 0.050935958 -0.05134844
0.026406948 0.0074590608 -0.06107377 0.00022039468 -0.03864948 0.053554185 0.049037896 0.06034845
0.0042238845 -0.034790877 -0.06482051 0.069489464 -0.013810612 -0.06058671 0.07366299 -0.005816825
0.033266652 0.061098292 0.090299696 0.045767866 -0.042693764 0.10444653 0.021042496 -0.021021081
-0.04831969 -0.023779642 -0.016948083 0.01280774 -0.00586415 -0.0513214 0.07496452 0.07519148
0.08302469 -0.024405915 0.0038563567 0.046522032 -0.07782488 -0.05367767 0.082848065 0.03328609
0.018728685 -0.009214058 0.019943813 -0.047535103 0.057259925 0.06923687 0.018789602 0.032303564
0.0050944537 0.03757902 0.05113901 0.04587736 0.050215434 0.051481493 0.053780682 -0.0032593796
0.043591928 -0.04889115 -0.034978997 -0.0527024 0.06646434 -0.03810846 0.047908872 -0.03765325
-0.07236583 0.037533287 0.06031824 -0.0018129768 0.054056823 0.051332384 -0.012399982 -0.06574268
-0.058041245 -0.035881426 0.06565455 -0.0364544 -0.058264606 0.021989375 0.06461561 0.05027971
-0.059408598 -0.00117786 -0.045362953 -0.0064577544 -0.031891268 -0.06545165 -0.044970997 -0.029864842
0.059336793 0.00061728817 0.014031861 -0.006014489 0.004290895 0.0626654 0.06518395 0.028935745
0.05537135 -0.031495575 -0.029140327 0.06927626 -0.050287616 0.019253647 -0.057073805 -0.043388188
0.015172933 -0.0050364975 0.018456468 -0.0696559 0.006586476 0.02299011 -0.066164196 0.060497377

deconv1.weight f4 [2, 4, 5, 5]
00000000: ccbc b5bc 32dd 9f3c ea94 643d a907 8b3c
00000010: 55ba c23d 9264 bcbd ec24 21bd f1c9 6c3d
00000020: 2a85 3dbd ded5 8cbd 1ad8 723d 76e0 0abd
00000030: 59a7 153d b3e8 a93d bb58 973d a817 a33d
00000040: 6635 b1bd ac3c 7abd a79c fabb 13a2 afbd
00000050: 32ae d43c b54b b33b 0819 2a3c 9a9b 05bd
00000060: db62 08bd 0950 c13c a81a 763d fa42 3fbd
00000070: a7fd 7a3d 68f1 cf3c 341c cfbc 57db 45bd
00000080: 9061 9a3d 35cc 1f3d 54ba b83c 3a9a 8c3c
00000090: 5c38 91bd f018 223d d5a8 173d 5a11 b03d
000000a0: 88fc c63d ddc4 e5bd 73ae b6bc baa2 473d
000000b0: 6529 933d e1c5 1e3d 5b32 013b c918 be3c
000000c0: add7 97bd 1917 b2bd 3511 63bd 89ed 0d3d
000000d0: e767 90bd e3b4 1ebb c1c8 1e3d 76f0 1bbd
000000e0: ade5 d2bc 7f18 bfbc f6e9 8c3c f1ff 6bbd
000000f0: 752e e9bc a9b1 793d ec04 a53b 6487 2b3d
00000100: 0cbe 803d 65ff 14bd cfa5 a83d 297e 0a3d
00000110: 5c3b 8cbd 82e1 e8bb dbcd bd3a 82ea ad3d
00000120: 689f f23c f0f6 9db8 b21e 463d 2854 883d
00000130: a7c2 6abd 797b 4c3d 3540 e6bc daf4 c73d
00000140: b1db 37bc 4f8c 4cbd 8786 4e3d 8931 283d
00000150: 5758 cabd 2639 123e ec9c c13d ac27 02bd
00000160: 8e30 2fbd afba b73c 00a4 4d3d f445 62bd
00000170: 4cc7 85bd 6aaa c2bc a477 893d 6ee8 1cbd
00000180: 3029 903c 0c88 363d 27be 8fbd 8e8e ec3d
00000190: d37a cb39 ef94 8a3c 5752 a8bd 6c37 8a3d
000001a0: 869d 913d e2c3 183d 70a1 08bd 9efb 39bd
000001b0: 17e6 3cbd 3d1b 913d 9ddd 1e3e d163 c63b
000001c0: 9bff 7abc e775 953d df26 01bb d966 2dbd
000001d0: 03fb 253d c01f b83c 7b63 2dbd 497b 80bc
000001e0: 1383 c43d 77ad 6dbd 8d78 50bc 3ef8 aebd
000001f0: 9d44 edbb a50d 4b3c ec70 fdbd 6478 90bc
00000200: 6710 1ebc fa43 b63c 6575 bc3d 3871 5e3d
00000210: 3765 003d 68f7 1c3d e8ae 06bb 83ae b23d
00000220: 11b1 ccbd 5c13 53bd 7745 4c3d 515f 493c
00000230: 54ff 813b 96f0 22bd 6b9f 213d 4452 953d
00000240: e718 b1bd 5fad dc3d eb2d 80bd 9b98 a3bc
00000250: 9f1d a43d eea2 f83d 7066 733d 70ea 9dbc
00000260: 8bc9 7a3d c193 103b 3f19 063d e61f f43c
00000270: cc4c 853d f9cf fcbc cda5 b53d 3015 62bd
00000280: 37cf 083b e775 543c 3323 773d 8f12 91bd
00000290: 84ac 3c3d 8cb6 4b3d 5eaa f3bc a4e9 543d
000002a0: c86a 5f3b d048 563d ed86 ab3d de9b 64bc
000002b0: f28e 413c db52 683d 07f3 f73d 2708 f9bc
000002c0: c040 fbbc afcf 4cbd 7cc2 843d 73af b63c
000002d0: 5f8f aebd b903 793c 2779 9c3c 269f 06bd
000002e0: 162e 813d bd55 633c a592 283d ec48 983c
000002f0: 70bd 853c be4e 643c ebed 31bc 8d81 e8bc
00000300: 3c3c 50bd 2991 7fbd 9cc3 acbc 3161 fdbd
00000310: 24d9 323d 6e62 1d3d 37f3 cdbc e8f3 bebc
-0.022184752 0.019514654 0.055806078 0.016971426 0.09508196 -0.0919887 -0.039341852 0.057809774
-0.046269573 -0.068767294 0.05928812 -0.03390547 0.03653655 0.08296337 0.07389971 0.079634964
-0.08652763 -0.061093017 -0.007648069 -0.08575835 0.025961969 0.0054716715 0.0103819445 -0.032619096
-0.0332974 0.023597734 0.060084015 -0.046694733 0.061277058 0.025383666 -0.025282003 -0.048304882
0.0753814 0.039013106 0.022549786 0.017163385 -0.07090828 0.039574564 0.037026245 0.085970595
0.09716135 -0.11219189 -0.02229998 0.048739173 0.0718563 0.03876293 0.0019713852 0.023205178
-0.07414184 -0.08695812 -0.05543633 0.03465036 -0.07051068 -0.0024216704 0.038765673 -0.03807112
-0.025744284 -0.02332711 0.017201405 -0.05761713 -0.028464535 0.060960446 0.005035987 0.041877165
0.062862486 -0.036376376 0.082347505 0.033811722 -0.068472594 -0.0071069608 0.0014480905 0.084919944
0.029617026 -7.532339e-05 0.048369117 0.066566765 -0.05731454 0.04992244 -0.028106788 0.097634986
-0.011221812 -0.049938496 0.050421264 0.041062865 -0.09880131 0.14279613 0.094537586 -0.031776115
-0.042770915 0.022427885 0.05020523 -0.055242494 -0.065321535 -0.0237629 0.06712273 -0.0383076
0.017597765 0.04456334 -0.070186906 0.11550628 0.00038810688 0.01691672 -0.0821883 0.06748852
0.07110123 0.037296183 -0.033357084 -0.045405976 -0.04611787 0.070852734 0.15514226 0.0060543795
-0.01531973 0.07297879 -0.0019707007 -0.04233441 0.040522587 0.022476077 -0.0423312 -0.015683787
0.09595313 -0.058026757 -0.012724054 -0.08543442 -0.0072408454 0.01239339 -0.12375054 -0.017635532
-0.009647465 0.02224921 0.09202079 0.054307193 0.031346526 0.038321882 -0.002055103 0.08724692
-0.0999471 -0.051532134 0.049870934 0.012290792 0.003967205 -0.039780222 0.039458673 0.072910815
-0.08647328 0.107752554 -0.06258758 -0.019970229 0.08013462 0.12140451 0.059423864 -0.019276828
0.061227363 0.0022060724 0.03273892 0.029800367 0.065087885 -0.030860888 0.088695146 -0.055195987
0.0020875463 0.012967563 0.060336303 -0.07083618 0.04606296 0.049734637 -0.029744323 0.05198063
0.0034090746 0.052315533 0.083753444 -0.013953177 0.011813866 0.056719642 0.12106901 -0.030399395
-0.030670524 -0.05000275 0.064824075 0.022300458 -0.085234396 0.015198641 0.019100739 -0.03286662
0.06307618 0.013875422 0.041155476 0.01858946 0.016325682 0.013934789 -0.010859947 -0.028382087
-0.050838694 -0.062394295 -0.021089368 -0.123720534 0.043664113 0.038423948 -0.025140388 -0.023309663

bn3.running_mean f4 [4]
00000000: 635a 593d f303 703e a4e6 793e c346 c63d
0.053064715 0.23439007 0.24404389 0.096814655

bn3.running_var f4 [4]
00000000: 473f 743d 3526 c63d 0be4 7b3d 58c5 df3c
0.05963066 0.09675256 0.061496776 0.02731578

deconv2.weight f4 [4, 8, 5, 5]
00000000: 8079 203d 5661 73bc 3a90 6a3d bf3b a33c
00000010: f094 7c3d 2ea0 d13c 89a9 c3bc 3e31 06bd
00000020: f617 993c 9e26 86ba eda5 e4bc 3bc5 d33c
00000030: 4736 e23c 1eff c83a 6869 44bd 56e2 fdbc
00000040: 782f 0dbd 7356 b43d cc1a 8d3c 975d 05bd
00000050: e9ac 9bbc 1fa5 493c b53a 093d d88f 0fbd
00000060: 09c2 123c 1790 23bb e3f7 103d 8830 623d
00000070: 88f1 68bc c8c8 403d 48a6 853d 960c 9bbb
00000080: c337 d03c 3bbf 393d 00bd 1e3d 3980 d3bc
00000090: 524c 68bd 1df5 bc3c 02f7 003b 82a5 34bd
000000a0: 0a44 063c 07eb cf3c 2f9a 3d3d ac9d 3fbc
000000b0: 522a 033d 340f 573d bfa9 03bd 5cd2 8e3d
000000c0: 0c49 b43d 2165 87bd 9989 22bd efa6 d2bd
000000d0: f588 e23b 695d da3b e46d 69bc 37c5 403d
000000e0: e744 aebc b5f5 78bd 58c0 283d 2095 72bc
000000f0: 3c1c 853c c29e 49bc 2a48 d83c afff 023d
00000100: a7bd 2abd 17c5 3abc bc4c 2cbd 370e f03c
00000110: e857 17bd 0197 2dbd bb8b 8b3a de06 a13c
00000120: 1b60 6f3d 1cb5 0bbd e9ee 0dbd 3472 c43c
00000130: 1624 0c3d cd29 253d bc39 123d 6b22 dfbc
00000140: 01fa 8b3c 5676 1e3d 5e12 e8bc 2782 993c
00000150: c0b7 5abd 6720 193d 3497 6fbd 07f7 103d
00000160: 0b77 77bc 8278 93bb 13bc df3c 044d f4bc
00000170: 5c96 ec3c a84b abbd ca63 813c a48e 593c
00000180: c5a5 24bd b1e8 643d 2528 5a3c ab67 3fbd
00000190: 6a5f af3d 94c8 ce3c ba3d ff3c 8641 ed3a
000001a0: 934d 513d 6c87 9b3c 3765 66bd 7d52 38bd
000001b0: dfcb 36bd 0575 5ebc 96f6 893c bb05 7fbd
000001c0: 8a42 91bc fb33 5c3d 9d1d d13d a00a 563d
000001d0: 0f69 263d 77ee ffbc a819 b03a 2023 b43d
000001e0: 6bd3 02bd 3fb3 363c d256 c23c 429f 683c
000001f0: 8c09 1cbb 589c 3fbd 3fd8 25bd ccd6 323d
00000200: 98c9 393d 8894 99bc 5fce 3e3d 1c6a c3bb
00000210: 1931 85bd baaa c7bc be30 90bd 172d 9cbd
00000220: 4a87 dc3b 9d90 973c 7469 5bbd c536 1abd
00000230: ffc7 ac3c acf7 92bb 7e63 5fbc 1ba4 3a3d
00000240: 6e36 bfbc 0080 43bd fb5f f2bc 73a6 5f3d
00000250: 3f3d e6bb aa7d 63bd 7cd3 de3c e988 c63c
00000260: 8c7c d7bb 246a e7bb 2529 d53c 7592 223d
00000270: 1680 e2bb 5a25 923d 01b5 16bd b0cc 353d
00000280: 5e41 89bd e4d0 bb3c 7dbc 0b3d 4423 433d
00000290: 92a2 603d cf4f 463d eb3d cf3b adfd acbd
000002a0: f1f9 9bbd db1c 6a3d 7f2a 91bd a514 53bd
000002b0: d35d 91bc 6b7c 1ebd ffdb 7dbc fb86 20bd
000002c0: 5743 ea3c a07a 14bd 22f7 8e3d 54d8 4d3d
000002d0: 33da 943d 140a 983c aa33 303d 8a81 a43c
000002e0: c3f0 a7bc c7f9 613a 2ce7 8a3d 4b99 853b
000002f0: 49ea 5d3b 1f88 9ebc 0fd3 cdbc 6f34 9e3d
00000300: d667 bfbc 0011 7abd 8ef9 a03c aadf d03c
00000310: d438 f2bc e4c2 243d ac9e e73c 9b6c 45bc
00000320: 1fa1 793d 81c2 9b3d e837 aebc 7e82 e93c
00000330: be9b 49bc 5450 13bd f669 773d 8a0f 5cbd
00000340: 2b3f 8e3b c003 8ebd 61d4 4dbc 8924 943d
00000350: 6184 1c3c 6f2e 09bc 876d 1d3c 635c 123d
00000360: fdca bcbc 6542 2abd 1d2d 67bd 73d0 153d
00000370: fd03 01bc c572 45bd bdcb f43c 79d8 b4bb
00000380: 9527 5c3d 90b3 31bd 19e4 af3c 960a 7b3d
00000390: 105e 17bd 0a5c f93c e1e2 04bd 83b6 8d3d
000003a0: 389d 833d c0c2 9c3d dfca 263d 78c4 3fbd
000003b0: aece 9dbc 79fe 4abd 4153 c13d 1872 3ebd
000003c0: 2c62 7fbd 7e98 51bd a49d edbb 7930 ce3a
000003d0: bdba 2a3d 7d3a d6bc 5653 bbbc 4560 853c
000003e0: b0ac 203c 2e3e 2d3d 1a53 a1bc f2ae 04bd
000003f0: 4071 babc b402 03bd fc5b 47bd 53fb 333d
0.03917837 -0.01485475 0.05726645 0.01992595 0.061665475 0.025589075 -0.023884552 -0.032761805
0.018688183 -0.0010234897 -0.02791115 0.025850883 0.027613772 0.001533482 -0.047952086 -0.030991714
-0.034469098 0.088055514 0.017224692 -0.032559957 -0.019003348 0.012307434 0.033503253 -0.03504929
0.008957394 -0.002495771 0.035392653 0.055222064 -0.014217742 0.04706648 0.06525856 -0.004731725
0.025417214 0.045348387 0.038754463 -0.025817977 -0.05671341 0.023066098 0.0019678478 -0.044103153
0.008194933 0.025380624 0.04628962 -0.011695307 0.03202278 0.052504733 -0.032144304 0.069737166
0.08802995 -0.06611086 -0.039682005 -0.10285746 0.006913299 0.0066639674 -0.014247391 0.04706308
-0.02127309 -0.0607812 0.04119906 -0.014806062 0.016248815 -0.012305917 0.026401598 0.03198212
-0.041684773 -0.011399529 -0.042065367 0.029303653 -0.03694907 -0.042380337 0.0010646501 0.019656595
0.058441263 -0.034108266 -0.03465167 0.023980238 0.0342141 0.040323067 0.03569959 -0.027238091
0.017086985 0.038687073 -0.02832907 0.01873882 -0.053397894 0.037384417 -0.058493808 0.035391834
-0.015104066 -0.0045004496 0.02731136 -0.02982188 0.02888029 -0.0836404 0.015794653 0.013278637
-0.040197153 0.055885974 0.013315235 -0.046729725 0.08563121 0.025242127 0.031157363 0.0018101193
0.05109937 0.018985473 -0.05624887 -0.045000542 -0.04462802 -0.013577704 0.016841214 -0.062261324
-0.017731924 0.05376051 0.102107264 0.052256227 0.040627535 -0.031241639 0.001343538 0.08795762
-0.031939905 0.011151134 0.02372304 0.014198126 -0.0023809401 -0.04677996 -0.04048943 0.043661878
0.04535827 -0.018747583 0.04658353 -0.005963577 -0.06503505 -0.024373401 -0.07040547 -0.07625788
0.006729995 0.018501574 -0.053567365 -0.03764989 0.02109146 -0.004485091 -0.013634561 0.04556666
-0.023341384 -0.047729492 -0.029586783 0.054602098 -0.007026344 -0.055539764 0.027200453 0.024235206
-0.0065761264 -0.0070622135 0.026020596 0.039690454 -0.0069122417 0.071360305 -0.036793713 0.04438466
-0.06701921 0.022926755 0.034115303 0.047641054 0.05484254 0.048415955 0.00632452 -0.08446822
-0.07616032 0.057156425 -0.070881836 -0.05153336 -0.017744934 -0.038692873 -0.015494346 -0.039191227
0.028596563 -0.036249757 0.069807306 0.050255135 0.07268181 0.018559493 0.04301802 0.0200813
-0.020500546 0.00086202886 0.06782374 0.004077112 0.0033861569 -0.019352017 -0.025125055 0.07724845
-0.023364943 -0.06105137 0.019650247 0.025497276 -0.029568113 0.040224925 0.028273903 -0.012049819
0.060944673 0.07605458 -0.021266893 0.028504606 -0.012305198 -0.03596528 0.060403787 -0.053725757
0.0043410263 -0.06934309 -0.012562842 0.07233531 0.009553046 -0.008372887 0.009608633 0.035732638
-0.023046011 -0.041567225 -0.056439508 0.036575746 -0.007874486 -0.048205156 0.029882306 -0.0055189696
0.053748686 -0.043384135 0.02147107 0.061289392 -0.03695494 0.030439395 -0.03244293 0.06919577
0.064264715 0.07654333 0.040720817 -0.046818227 -0.019263592 -0.04955909 0.094397075 -0.046495527
-0.062349483 -0.05117082 -0.0072514582 0.0015730999 0.041681994 -0.026150936 -0.022866886 0.016281256
0.009806797 0.042295627 -0.019692946 -0.032393403 -0.02275908 -0.031985 -0.048671708 0.043940853

bn4.running_mean f4 [8]
00000000: 60c6 163e 5f3f f23e d119 01bf fcb4 ba3d
00000010: 8081 42be 6ca6 d4be 4216 a43d 2527 913e
0.14724112 0.47313973 -0.5043002 0.09116551 -0.18994713 -0.4153322 0.08012058 0.28350177

bn4.running_var f4 [8]
00000000: ccc7 dd3c 4398 433e 90cb 053e 0e9d 303d
00000010: fe16 8d3d c8a2 ab3d 1e25 e03d bc58 d33d
0.02707281 0.19101052 0.13065934 0.04311853 0.06889151 0.083806574 0.109445795 0.10319659
