log/mnist_test_class_2/model.tar (torch, 71258 bytes, 21 tensors)

conv1.weight f4 [8, 1, 5, 5]
0	0xbdc03464	-0.09384993
1	0x3d9c3490	0.07627213
2	0x3e57e6bb	0.2108411
3	0x3e31905a	0.17340222
4	0x3e1a10ad	0.15045424
5	0xbd6e7960	-0.05822122
6	0x3e01be8c	0.12670344
7	0xbd993b43	-0.074820064
8	0x3dbf5606	0.093425795
9	0x3e68dd18	0.2274059
10	0x3e613763	0.21993785
11	0xbd4b8dd5	-0.04969581
12	0x3e36bf97	0.17846523
13	0x3d6b40f0	0.057434976
14	0x3e195785	0.14974792
15	0xbdc5e25c	-0.09662315
16	0x3e3855e4	0.18001515
17	0x3d0eb3b7	0.03483936
18	0x3e045894	0.12924415
19	0x3df9e788	0.12202364
20	0xbdab4e44	-0.08364537
21	0xbc966bac	-0.018361889
22	0x3c08f21a	0.008358503
23	0xbdcb027a	-0.09912582
24	0xbc8ee78c	-0.017444395
25	0x3e39e747	0.18154632
26	0x3cad9c87	0.021192802
27	0xbd74bda4	-0.059751168
28	0x3e5c64cd	0.21522827
29	0xbd5fa845	-0.054603834
30	0xbba6036c	-0.005066326
31	0x3e2c202b	0.16809146
32	0x3d97cfcf	0.07412683
33	0x3dd09532	0.10184707
34	0xbdfe93da	-0.12430544
35	0x3e1afe01	0.15135957
36	0x3d2cb36f	0.04216331
37	0x3dfc81c9	0.12329442
38	0x3d781078	0.06056258
39	0xbd61b23f	-0.05510163
40	0xbdb2c3cc	-0.087287515
41	0x3e353211	0.1769488
42	0xbd47640e	-0.048679404
43	0x3c41903b	0.011814172
44	0x3e1d972f	0.15389703
45	0x3e0ac544	0.13551813
46	0xbdb74377	-0.08948415
47	0xbd2995f1	-0.04140276
48	0x3d106396	0.035251223
49	0x3ce9162c	0.028452955
50	0xbdc6fd5e	-0.09716295
51	0xbd7739e3	-0.06035794
52	0x3dd142a0	0.10217786
53	0xbd77eb43	-0.060527097
54	0xbe5a4f04	-0.21319205
55	0x3d528ef8	0.051405877
56	0xbe36c0a9	-0.17846932
57	0xbd448a1a	-0.047983266
58	0xbe2a8cef	-0.16655324
59	0x3daf33f1	0.08554829
60	0xbe1a3565	-0.15059431
61	0x3d58faba	0.052973486
62	0xbcafec03	-0.021474844
63	0x3e25dc0c	0.16197222
64	0xbe0c3a4d	-0.13694115
65	0x3e28d51e	0.16487548
66	0xbe211a10	-0.15732598
67	0x3dfffa96	0.12498967
68	0xbde7aa15	-0.113117374
69	0xbd7d7dea	-0.06188766
70	0x3d095d8e	0.033536486
71	0x3d5494f1	0.051899854
72	0x3e30a81c	0.17251629
73	0x3db2f5ad	0.08738265
74	0xbda69591	-0.08133996
75	0x3df082af	0.11743676
76	0x3d633e19	0.055479143
77	0x3e383b6f	0.17991422
78	0x3e362bc8	0.17790139
79	0xbe11a82d	-0.1422431
80	0xbcedf90b	-0.029049417
81	0x3dc4ef75	0.09615985
82	0xbb0e30dd	-0.0021696605
83	0xbdf86377	-0.121283464
84	0x3d30c71b	0.04315863
85	0xbd595117	-0.05305585
86	0x3d3421e6	0.04397764
87	0x3dd53954	0.10411325
88	0x3e2e4d90	0.17021775
89	0x3e13c14d	0.14429207
90	0x3d3e7db8	0.046506613
91	0x3e4faa13	0.20279722
92	0xbccfb057	-0.02535264
93	0x3d3c3753	0.0459512
94	0x3e32ba2c	0.17453831
95	0xbd3352dd	-0.043780196
96	0x3dabbe60	0.083859205
97	0x3b8a2ac7	0.0042165252
98	0x3e36a645	0.17836864
99	0x3ded62aa	0.11591084
100	0x3e31ec07	0.17375194
101	0x3d9bd5f6	0.07609169
102	0x3e4b1c18	0.19834936
103	0x3d103177	0.035203423
104	0x3db4d49a	0.08829613
105	0xbb72bb55	-0.0037037928
106	0xbde282b5	-0.11060087
107	0x3d9bbbb3	0.0760416
108	0x3da6a4c8	0.08136898
109	0x3e37c3f3	0.17945842
110	0x3e32b455	0.17451604
111	0x3d096103	0.033539783
112	0xbcb060cf	-0.021530537
113	0x3e02f573	0.12788944
114	0x3d7d8f6a	0.06190435
115	0x3de542a0	0.11194348
116	0x3ad4bc96	0.0016230519
117	0x3dfff6fe	0.12498282
118	0x3d9121b5	0.07086507
119	0xbe02d4e1	-0.1277652
120	0x3de50ef6	0.11184494
121	0xbc157eed	-0.0091245
122	0x3e251236	0.16120228
123	0x3d4ad00b	0.04951481
124	0x3d3ce8a6	0.04612031
125	0x3e37de24	0.17955834
126	0x3d7dbbe2	0.061946757
127	0xbdc9a7b6	-0.098464414
128	0x3cd0baa9	0.025479631
129	0x3e0c0167	0.1367241
130	0x3d6001c0	0.05468917
131	0x3dd4f281	0.103978164
132	0x3e1f21aa	0.15540186
133	0xbd7ffbbf	-0.062495943
134	0x3d64fcbf	0.0559051
135	0xbd34ca96	-0.044138514
136	0x3d92818b	0.071536146
137	0xbbd60451	-0.0065312763
138	0x3d823d7b	0.06359383
139	0x3e2f33e0	0.17109632
140	0x3dc8a866	0.097977445
141	0x3d6a5f4a	0.05721978
142	0x3dc22964	0.09480551
143	0xbcb9cb0a	-0.022679824
144	0x3e1313a6	0.14362964
145	0x3d847d15	0.0646917
146	0x3d00b2d3	0.03142054
147	0xbb3b63ad	-0.0028593347
148	0x3e278eee	0.16363117
149	0xbdbe761a	-0.0929987
150	0x3dbf672b	0.093458496
151	0xbe5dd54b	-0.21663396
152	0xbde9d9c6	-0.1141849
153	0x3d8af021	0.06784082
154	0xbdefa603	-0.11701586
155	0xbe0110d8	-0.12604082
156	0xbd396335	-0.045260627
157	0xbe050514	-0.12990218
158	0xbe663993	-0.224829
159	0x3d127946	0.035760187
160	0xbc2f67d9	-0.010705912
161	0xbd032337	-0.032016005
162	0xbd2608ef	-0.040535863
163	0x3dcc40c8	0.099732935
164	0xbe304315	-0.1721309
165	0xbd89662f	-0.06708943
166	0x3d8155bc	0.06315181
167	0xbe2e1fb8	-0.17004287
168	0x3d53784f	0.051628407
169	0xbcbfc570	-0.023409575
170	0x3df47a91	0.1193744
171	0x3c4568c6	0.012048906
172	0x3e381fbc	0.17980856
173	0x3da001c9	0.078128405
174	0x3d6ba855	0.05753358
175	0x3dfd878c	0.12379369
176	0x3e016b9a	0.12638703
177	0x3d91ce73	0.07119455
178	0x3e053edd	0.13012262
179	0x3d9a7c57	0.07543247
180	0xbd95ffb2	-0.07324161
181	0xbd533ef9	-0.051573727
182	0x3ddb4a92	0.107075825
183	0x3d5047e4	0.05084981
184	0x3d9fe2ad	0.07806907
185	0xbd76e951	-0.0602811
186	0xbc4d21c3	-0.012520256
187	0x3d8361df	0.06415152
188	0xbbb843b9	-0.0056233075
189	0x3e32084b	0.17385976
190	0x3dd5a6d7	0.10432213
191	0x3d59d9af	0.053186115
192	0xbddf9851	-0.10917724
193	0x3e019336	0.12653813
194	0xbd47f582	-0.04881812
195	0xbd55dd8d	-0.05221324
196	0x3e0e8064	0.13916165
197	0x3d7f89ce	0.06238728
198	0xbdee65ef	-0.11640536
199	0x3e4918fd	0.19638439

bn1.running_mean f4 [8]
0	0x3dc449de	0.095844015
1	0x3d8d3b46	0.06896071
2	0xbce5bc8c	-0.028044008
3	0x3dc6850a	0.09693344
4	0x3dd86a7b	0.105671845
5	0x3db14403	0.0865555
6	0xbd20bf00	-0.03924465
7	0x3d9177e8	0.071029484

bn1.running_var f4 [8]
0	0x3c9b1e93	0.018935477
1	0x3c0d3730	0.008619115
2	0x3b6dc98b	0.003628346
3	0x3c768868	0.01504717
4	0x3c86e040	0.016464353
5	0x3c380c4b	0.0112334
6	0x3be33149	0.0069333655
7	0x3bff28e7	0.0077868584

conv2.weight f4 [4, 8, 5, 5]
0	0xbbdbc2aa	-0.0067065554
1	0x3b7ba741	0.0038399252
2	0xbbb23ae9	-0.0054391515
3	0x3cf9986e	0.030468192
4	0x3d2ec278	0.04266593
5	0x3d3ba098	0.04580745
6	0xbd9d392e	-0.07676922
7	0x3c142a3d	0.0090432735
8	0xbd47fc92	-0.048824854
9	0x3cc18a06	0.023625385
10	0xbd098f40	-0.03358388
11	0xbdf4c284	-0.119511634
12	0x3aa2d827	0.0012424038
13	0x3b8a6b4f	0.004224218
14	0xbcd36b45	-0.025807986
15	0x3bd90bd4	0.0066237245
16	0xbd6ede49	-0.058317456
17	0x3c25d6a3	0.010121974
18	0x3bb5b009	0.0055446667
19	0xbd0094e8	-0.031392008
20	0x3d6d0a95	0.05787142
21	0xbce5addb	-0.028037002
22	0x3d39a178	0.045320004
23	0x3d068e7a	0.03285072
24	0x3d23c56b	0.039983194
25	0xbd187cf0	-0.037228525
26	0xbb190c37	-0.0023353228
27	0xbd25aabe	-0.040446036
28	0xb9c18153	-0.00036908183
29	0xbd4f7251	-0.05064613
30	0x3cc7ebc8	0.024404421
31	0x3c21d295	0.009876867
32	0x3ccd37dc	0.02505105
33	0xbd8a86e0	-0.067640066
34	0x3c0b8cab	0.008517425
35	0x3c9f8dae	0.019476738
36	0xbd45cb68	-0.048289686
37	0xbdbaaefc	-0.09115407
38	0x3cdfb78a	0.027309198
39	0x3d52a013	0.05142219
40	0x3d362acb	0.044474404
41	0xbc833d0b	-0.016020318
42	0x3d09b9b5	0.03362437
43	0xbd14e4d7	-0.03635105
44	0x3b94bc56	0.004539053
45	0x3cd8092c	0.026371561
46	0xbd23f000	-0.040023804
47	0xbd0be874	-0.03415723
48	0xbd51e09e	-0.051239602
49	0xbd5df0e6	-0.054184817
50	0xbb2956b4	-0.0025839033
51	0xbd02202c	-0.031768963
52	0xbd1a84b2	-0.037724204
53	0x3c1ef390	0.0097016245
54	0xbd980ce3	-0.07424333
55	0xbd4f3698	-0.050589174
56	0x3d1ff8d3	0.039055657
57	0xbd80c7d1	-0.06288112
58	0xbd2aadfa	-0.041669823
59	0xbcf8fbe1	-0.030393543
60	0x3c467d7f	0.012114882
61	0xbc31c044	-0.010849062
62	0x3c6fafb5	0.014629294
63	0x3d77ba05	0.060480136
64	0x3c4b1f26	0.012397563
65	0xbd3e15cd	-0.04640751
66	0x3d3de873	0.04636426
67	0x3d5a2108	0.053254157
68	0x3cbf907d	0.023384327
69	0x3d0a3ea9	0.033751164
70	0x3cbff2de	0.023431238
71	0x3bef3b4f	0.0073007713
72	0x3d1726ec	0.036902353
73	0x3be90966	0.007111716
74	0xbc01ce91	-0.007922784
75	0x3c431ef4	0.011909235
76	0xbcf799e3	-0.030224746
77	0xbc9f3453	-0.01943413
78	0xbc6a49de	-0.014299838
79	0xbb4a546b	-0.003087307
80	0xbc8c2422	-0.017107073
81	0xbdb5411c	-0.08850309
82	0xbd4e6944	-0.050393358
83	0x3d6b2529	0.057408486
84	0x3d10dfb3	0.035369586
85	0x3c67a259	0.014137828
86	0xbd2b8280	-0.0418725
87	0xbda2d7d0	-0.07951319
88	0x3d0ccd8d	0.034375716
89	0x3cac83be	0.021058913
90	0xbccfa147	-0.025345458
91	0xbc2b2011	-0.010444657
92	0x3cb75a2f	0.02238187
93	0xbb8bea7e	-0.004269897
94	0xbba55d59	-0.0050465283
95	0x3d642339	0.055697653
96	0xbd613e9d	-0.054991353
97	0x3ca8ff79	0.020629631
98	0xbce92120	-0.028458178
99	0x3ca43fd3	0.020049965
100	0x3c1b217f	0.009468435
101	0xbd5e0f31	-0.054213706
102	0x3c472d04	0.012156729
103	0xbc280780	-0.010255694
104	0x3c21b7b1	0.009870456
105	0xbd88645e	-0.066597685
106	0x3a82d34c	0.0009981184
107	0x3cb4d5be	0.022074576
108	0x3b805d3a	0.0039173635
109	0xbc81ff0d	-0.015868688
110	0xbddb6d34	-0.10714188
111	0xbd370200	-0.04467964
112	0xbd5f5ecb	-0.05453376
113	0xbdb1a345	-0.08673719
114	0x3d38467a	0.044989087
115	0x3d2d3699	0.042288397
116	0xbceabc96	-0.028654378
117	0xbadf0e56	-0.0017017822
118	0xbcfceb79	-0.030874
119	0xbd15fac1	-0.03661609
120	0xbd0d9121	-0.034562234
121	0xbd21046e	-0.039310865
122	0x3cee15fd	0.02906322
123	0xbc196ba7	-0.009364045
124	0xbcafc83c	-0.021457784
125	0x3bf89f88	0.007587377
126	0xbd609a4d	-0.054834653
127	0x3bcadb92	0.0061907256
128	0x3d540d06	0.051770233
129	0xbd52850b	-0.05139641
130	0xbd7d8f33	-0.061904144
131	0xbd2f7804	-0.042839065
132	0xbaae0f5f	-0.0013279727
133	0xbd399d32	-0.04531593
134	0x3c214757	0.009843669
135	0xbc134bbd	-0.008990225
136	0xb719d163	-9.168262e-06
137	0xbd0c098c	-0.034188792
138	0xbd92bc35	-0.07164804
139	0x3ca15661	0.019694509
140	0xbd16c318	-0.03680715
141	0x3d24f167	0.04026928
142	0xbac8950f	-0.0015303212
143	0xbd93a7d0	-0.07209742
144	0xbc5d537c	-0.013508674
145	0xbd880b50	-0.06642783
146	0xbcd2618e	-0.025681283
147	0x3b4ceffe	0.0031270976
148	0x3d08510d	0.03328042
149	0x3c51f7e6	0.012815451
150	0xbb9f6cbc	-0.004865257
151	0xbd32212e	-0.043488674
152	0xbdb2ddb5	-0.087336935
153	0xbd0147cd	-0.031562615
154	0x3b6ca2d9	0.0036107807
155	0xbca8a554	-0.020586647
156	0x3c33f867	0.010984517
157	0xbc4d5e64	-0.0125347115
158	0x3d2dae66	0.042402647
159	0xbcad2f15	-0.021140615
160	0x3c947022	0.018119875
161	0xbd1e20fc	-0.038605675
162	0x3d3f461d	0.046697725
163	0xbc9e197e	-0.019299265
164	0x3cecf8c3	0.028927213
165	0x3d23746d	0.039905954
166	0x3c725e71	0.014793024
167	0xbcb71210	-0.02234748
168	0x3d192729	0.03739086
169	0xbd3d493d	-0.046212424
170	0xbc3f61ff	-0.011681079
171	0xbd84d023	-0.064850114
172	0xbd0a946c	-0.033832952
173	0xb962dd02	-0.00021635371
174	0x3d43c114	0.047791556
175	0xbc7be970	-0.01537548
176	0xbc0982d6	-0.00839301
177	0xbd64bf6d	-0.05584662
178	0xbb2b4544	-0.0026133815
179	0xbd6759e3	-0.056482207
180	0xbc4711d4	-0.012150247
181	0xba0055a7	-0.00048955757
182	0xbd4d4bfc	-0.050121292
183	0x3d271ebb	0.04080079
184	0xbd1504c3	-0.036381494
185	0xbd502179	-0.050813172
186	0xbdd7b6c0	-0.10532904
187	0x3b8ffb9d	0.0043940083
188	0xbc118208	-0.0088810995
189	0xbcdc04d9	-0.02685778
190	0x3cbe50a7	0.023231817
191	0xbd09d1e3	-0.03364743
192	0xbd92b8b0	-0.071641326
193	0xbcac6c5e	-0.021047767
194	0xbd19b9d8	-0.03753075
195	0xbbc87db2	-0.0061184997
196	0x3c8b3160	0.016991317
197	0x3ab8ac5a	0.0014089451
198	0x3d13737c	0.035998806
199	0x3d035039	0.03205893
200	0xbdb0dcad	-0.086358406
201	0xbd83d73c	-0.06437537
202	0x3d7a61be	0.06112837
203	0x3b17e26d	0.0023175732
204	0x3d0c69f0	0.034280717
205	0xbd8971e3	-0.06711175
206	0xbc9408b2	-0.018070552
207	0x3ce37ad9	0.02776854
208	0xbc90759e	-0.01763421
209	0xbd28abe1	-0.04117954
210	0xbda6f211	-0.08151639
211	0xbd9160fd	-0.07098577
212	0xbd53a138	-0.051667422
213	0x3c92c78a	0.017917413
214	0xbd3217ff	-0.043479916
215	0xbd9cf5f2	-0.07664098
216	0xbd1738a1	-0.03691924
217	0x3c7cb926	0.015425002
218	0xbd28a597	-0.041173544
219	0x3d647630	0.055776775
220	0xbc528f71	-0.012851582
221	0xbd142c6d	-0.03617518
222	0xbc7c59f7	-0.015402309
223	0xbbe6eb51	-0.007047095
224	0x3d50546e	0.05086177
225	0xbda2ae31	-0.079433806
226	0xbcde1366	-0.02710886
227	0x3ce4e717	0.027942223
228	0xbcf34637	-0.029696567
229	0x3903daaa	0.00012574592
230	0xbbd259fb	-0.006419418
231	0xbd16a4a1	-0.036778096
232	0x3b9ca23f	0.0047800834
233	0xbd1a0b5f	-0.0376085
234	0x3c90fb88	0.017698064
235	0xbd65484d	-0.055977155
236	0xbdf0b648	-0.117535174
237	0xbdd433ca	-0.103614405
238	0x3d4bbc85	0.049740333
239	0x3c31a1b8	0.010841779
240	0xbd75e1d8	-0.060029835
241	0xbcde29c5	-0.027119527
242	0x3c84daa7	0.016217543
243	0x3ce2bf8c	0.027679227
244	0xbd3be3f8	-0.045871705
245	0xbb9c19ab	-0.004763802
246	0x3bd8ab0e	0.006612188
247	0x3c9c2b7b	0.019063702
248	0x3cec8c42	0.028875474
249	0x3cb9056d	0.022585595
250	0xbbc9d5f3	-0.006159538
251	0xbd26b382	-0.040698536
252	0xbd52a332	-0.051425166
253	0x3d2a2337	0.04153749
254	0x3c6a06e6	0.014283871
255	0x3b5f448c	0.0034067957

bn2.running_mean f4 [4]
0	0xbf8ef68f	-1.1168994
1	0xbfc4d28b	-1.5376753
2	0xbfe13adb	-1.7596086
3	0xbf95da44	-1.1707234

bn2.running_var f4 [4]
0	0x3feff5f6	1.8746936
1	0x4054df24	3.3261194
2	0x40747189	3.8194296
3	0x4018d62c	2.388072

fc1.weight f4 [32, 196]
0	0x3d651e52	0.05593712
1	0xba944574	-0.0011312203
2	0x3ce40dde	0.027838644
3	0xbcf8ca01	-0.03036976
4	0x3c1654b0	0.0091754645
5	0xbc2ae29f	-0.010430007
6	0xbd37a91f	-0.04483902
7	0xbd96b1d4	-0.07358137
8	0x3d403527	0.04692569
9	0xbcee5566	-0.029093456
10	0xbcc8c202	-0.024506573
11	0xbcbd03d7	-0.02307312
12	0xbd22e51e	-0.039769284
13	0xbd438381	-0.047732834
14	0xbb9cded6	-0.0047873063
15	0xbd05033a	-0.03247378
16	0x3a5b8b99	0.00083749887
17	0x3d2370e3	0.03990258
18	0xbd029d48	-0.031888276
19	0xbbcd943f	-0.006273776
20	0xbbb36635	-0.0054748305
21	0xbc182053	-0.00928505
22	0x3d203bd1	0.039119545
23	0xbd064fb1	-0.032790843
24	0x3bb8da6b	0.005641272
25	0xbbc72d8a	-0.0060784267
26	0x3d7c15df	0.061544295
27	0x3ce98cd6	0.028509539
28	0xbc7f59af	-0.015585347
29	0x3c1d42f8	0.009598486
30	0x3c36fae4	0.011168215
31	0x3d111d4f	0.03542834
32	0xbc8fbfb9	-0.017547475
33	0x3d4bae74	0.04972692
34	0x3d521c32	0.05129642
35	0xbcae17f5	-0.021251658
36	0x3cc76250	0.024338871
37	0xbb3674ec	-0.0027840687
38	0x3db8d304	0.09024623
39	0x3c843383	0.016137844
40	0xbb14fbf2	-0.002273318
41	0xbd61bf4f	-0.055114087
42	0xbc9cf557	-0.019159956
43	0xbd728868	-0.05921212
44	0xbbff6422	-0.007793919
45	0xbc677b03	-0.014128449
46	0xbb627794	-0.0034556137
47	0xbcb559b7	-0.022137506
48	0x3ce7536f	0.028238026
49	0x3a9340b3	0.0011234492
50	0xbd53d949	-0.05172089
51	0xbd5607db	-0.052253585
52	0x3c9d48d2	0.019199762
53	0x3c61e6c2	0.013787927
54	0x3d42f0f5	0.047593076
55	0x3d37141d	0.044696916
56	0xbd32a65e	-0.04361569
57	0x3d501ba2	0.050807603
58	0xbbf0e5b6	-0.0073516024
59	0xbc471fca	-0.012153575
60	0x3c9ca94a	0.019123692
61	0xbd22cd24	-0.03974642
62	0xbcd83384	-0.026391752
63	0xbcae6f41	-0.021293284
64	0xbce1e37a	-0.02757429
65	0x3d101403	0.035175335
66	0xbc1a2d2d	-0.009410185
67	0x3d083ce8	0.03326121
68	0x3c291fcd	0.010322523
69	0xbc8966ba	-0.016772617
70	0x3d145076	0.036209546
71	0xbcbd67de	-0.023120817
72	0x3d09064b	0.033453267
73	0xbc16847a	-0.009186858
74	0x3bf389fe	0.0074322214
75	0x3d124346	0.03570869
76	0xbd1e8b09	-0.038706813
77	0xbd126f4b	-0.03575067
78	0x3d19154a	0.03737382
79	0x3cd63599	0.026148604
80	0xbd0353ec	-0.032062456
81	0xbd78c65c	-0.060736045
82	0x3c486b23	0.012232575
83	0xbd71e570	-0.0590567
84	0xbd86bd7d	-0.06579111
85	0x3d2859b5	0.041101176
86	0x3d2a6c0f	0.04160696
87	0xbc8baab2	-0.017049167
88	0x3c12e95d	0.008966771
89	0x3c7d0b3d	0.015444574
90	0x3cc33ca8	0.023832634
91	0xbd10cb83	-0.035350334
92	0xbd0c4f21	-0.03425515
93	0x3c0983b8	0.008393221
94	0xbd4376c8	-0.0477207
95	0xbb42c4d7	-0.0029719376
96	0xbc27c372	-0.010239469
97	0xbd2e9cec	-0.04263012
98	0xbd8602ce	-0.06543504
99	0x3d18fa68	0.03734818
100	0x3d102108	0.03518775
101	0x3c442440	0.011971533
102	0x3cb73d74	0.02236817
103	0x3d224dce	0.03962498
104	0x3bf33572	0.0074221427
105	0x3d2044c4	0.03912808
106	0xbd2c4537	-0.042058196
107	0x3d4b314d	0.049607564
108	0x3d0b5e91	0.034025732
109	0x3c695db1	0.014243529
110	0x3d6cf78a	0.05785326
111	0x3d30d4de	0.043171756
112	0xbcb4fa2a	-0.022091944
113	0xbd3de9f5	-0.046365697
114	0x3b20e0ad	0.002454798
115	0xbb8c6893	-0.004284927
116	0xbcabff28	-0.020995691
117	0xbcb4178a	-0.02198388
118	0xbd1f49c1	-0.038888697
119	0xbc6515ad	-0.013982219
120	0x3ce6520f	0.0281153
121	0xbaeba68c	-0.0017978712
122	0xbd5a4181	-0.053285126
123	0x3c43b0f9	0.011944049
124	0xbd25f022	-0.04051221
125	0xbd5927c9	-0.053016458
126	0xbd5a6345	-0.053317327
127	0xbd076349	-0.03305367
128	0xbb2bc32b	-0.0026208858
129	0x3cd9e658	0.026599094
130	0xbc489844	-0.012243334
131	0x3c9d4204	0.019196518
132	0x3d2e50c4	0.042557493
133	0xbd8978a2	-0.06712462
134	0xbd9361fe	-0.07196425
135	0xbd1b8ed7	-0.03797802
136	0xbd6ee55a	-0.058324195
137	0xbca494c7	-0.020090474
138	0xbcd21edf	-0.025649486
139	0x3d256930	0.040383518
140	0xbccd0e47	-0.025031222
141	0xba8b8926	-0.0010645732
142	0x3d4d8693	0.050177168
143	0xbd0b43af	-0.034000095
144	0x3c35fdc9	0.01110787
145	0xbc18b448	-0.009320326
146	0xbd93c4ca	-0.07215269
147	0xbca794d6	-0.020456713
148	0xbd80d240	-0.06290102
149	0x3d06a19d	0.03286897
150	0x3d37f854	0.04491456
151	0x3d00291c	0.031289205
152	0xbd63bd63	-0.055600535
153	0xbd6cf44f	-0.05785018
154	0xbda4f0e4	-0.08053759
155	0x3d39b396	0.045337282
156	0xbc83755b	-0.01604717
157	0xbd73a762	-0.0594858
158	0xba048837	-0.0005055698
159	0xbcb1355c	-0.021631889
160	0x3d11c548	0.035588533
161	0x3d407544	0.046986833
162	0x3d2cffd1	0.042236153
163	0x3d109e3b	0.03530715
164	0xbd0d159d	-0.03444444
165	0x3c617807	0.013761527
166	0x3d01559e	0.03157579
167	0xbcecc467	-0.028902246
168	0xbd847318	-0.06467265
169	0xbd5ebc01	-0.054378513
170	0xbc1d128b	-0.0095869405
171	0x3c4592cb	0.012058924
172	0xbca2dbb2	-0.01988015
173	0xbd02abcb	-0.031902116
174	0x3d9fadb3	0.07796802
175	0x3d38d414	0.04512413
176	0x3cc31145	0.023811946
177	0xbcc2c5ba	-0.023775924
178	0x3b131604	0.0022443542
179	0x3cf4cc7a	0.029882658
180	0xbd820f34	-0.06350556
181	0xbd1c902b	-0.038223427
182	0x3d146b2a	0.036235012
183	0x3b01b293	0.0019790276
184	0x39466212	0.00018919286
185	0xbcec2cb0	-0.028829902
186	0x3c4fc6ec	0.012681704
187	0xbd0d6122	-0.03451646
188	0x3d0d602f	0.034515556
189	0x3d096c06	0.033550285
190	0xb9ac1b92	-0.00032826938
191	0x3cbc533e	0.022988912
192	0x3c4229b9	0.011850768
193	0x3992580f	0.000279129
194	0x3cfa5b76	0.03056119
195	0x3ca24c88	0.019811884
196	0x3d413c78	0.047176808
197	0x3d2fc5e2	0.042913325
198	0x3d318aed	0.04334538
199	0xbc47aaff	-0.012186765
200	0x3d235997	0.03988036
201	0xbd44d1bd	-0.048051585
202	0xbd2afbad	-0.041743923
203	0xbd889b4a	-0.06670244
204	0x3d6204d7	0.055180397
205	0xbc4cb034	-0.012493182
206	0x3ca2fb7b	0.019895306
207	0x3b4206cb	0.00296061
208	0xbcda6b44	-0.026662476
209	0x3d86a2f0	0.065740466
210	0x3d719880	0.058983326
211	0x3bcfbf1e	0.0063399216
212	0x3c9de759	0.019275354
213	0x3ca97e52	0.020690117
214	0xbc32a745	-0.010904138
215	0xbd48500a	-0.048904456
216	0xbd00b36c	-0.03142111
217	0xbd3d6f40	-0.046248674
218	0x3d87dde2	0.06634118
219	0xbc60527c	-0.013691541
220	0xbc829ee7	-0.015944911
221	0x3cc3c2a4	0.023896523
222	0x3cb48548	0.02203621
223	0x3d264cd7	0.040600624
224	0xbd81a62c	-0.06330523
225	0x3bd75e70	0.006572537
226	0xbc14e9a2	-0.0090889055
227	0x3c88fc00	0.016721725
228	0x3c8736ec	0.016505681
229	0xbcfc9835	-0.030834297
230	0xbd02d9e0	-0.031946063
231	0xbcff7daf	-0.03118786
232	0x3d07c007	0.033142116
233	0x3b6d03e8	0.0036165658
234	0xbc6b56d2	-0.014363961
235	0xbb4597a5	-0.0030150202
236	0x3c8a1ab1	0.01685843
237	0x3d5aa2fe	0.053378098
238	0x3d9f0c5f	0.077660315
239	0x3d0606f9	0.032721493
240	0x3d6336fe	0.055472367
241	0xbc0b1748	-0.008489437
242	0xbced0359	-0.02893226
243	0x3d561006	0.052261375
244	0xbd70bf2d	-0.05877607
245	0x3c91556a	0.017740924
246	0xbd6517a3	-0.055930745
247	0xbd43a2dc	-0.047762737
248	0x3c20e0e6	0.009819245
249	0xbb4f8a3c	-0.0031668087
250	0x3d020f8a	0.0317531
251	0xbd88e55b	-0.06684371
252	0x3baa0484	0.0051885266
253	0x3cc480bc	0.023987167
254	0xbd5424e5	-0.051792998
255	0x3ca08d68	0.019598678

conv1.weight f4 [8, 1, 5, 5]
0	0xbdf8141d	-0.12113211
1	0x3d74d4a3	0.0597731
2	0x3e55c895	0.20877297
3	0x3e3d11bc	0.18463796
4	0x3e10c23b	0.14136593
5	0xbdbb3fa3	-0.09142997
6	0x3dc6fdb4	0.09716359
7	0xbdec9e38	-0.11553615
8	0x3d060025	0.03271498
9	0x3e456192	0.19275501
10	0x3e449de9	0.19200863
11	0xbd6ff89f	-0.058586713
12	0x3e3d8157	0.1850637
13	0x3cdd18e3	0.026989406
14	0x3e01b097	0.1266502
15	0xbe08b43c	-0.13350004
16	0x3e259420	0.16169786
17	0x3cf1ef27	0.029532982
18	0x3de4cfab	0.11172422
19	0x3deb0777	0.11476033
20	0xbe03c62e	-0.12868568
21	0xbd1e28ec	-0.038613245
22	0xbc43edd6	-0.01195856
23	0xbe0c7a38	-0.13718498
24	0xbd5c90aa	-0.0538489
25	0x3e1f71b7	0.15570723
26	0xbc85f78f	-0.016353397
27	0xbddf4d6a	-0.109034374
28	0x3e435764	0.19076306
29	0xbd46c96c	-0.048531935
30	0xbd40f127	-0.04710498
31	0x3e3cfced	0.18455859
32	0x3d99c3d0	0.075080514
33	0x3ddbe022	0.10736109
34	0xbe1512a5	-0.14557894
35	0x3dd6e2f0	0.10492504
36	0x3d794a87	0.06086209
37	0x3e0bbb52	0.13645676
38	0x3d7ee583	0.0622306
39	0xbd948884	-0.07252601
40	0xbe0b9676	-0.13631615
41	0x3e1dc15e	0.15405795
42	0xbd9ac674	-0.07557383
43	0x394ce91a	0.00019541793
44	0x3e228f15	0.15874894
45	0x3dc352c1	0.095372684
46	0xbe09a3da	-0.1344141
47	0xbdb9f70a	-0.09080322
48	0xbb4013a4	-0.0029308582
49	0xbc1d25e8	-0.009591557
50	0xbd9b69b9	-0.07588524
51	0xbd216ac9	-0.03940848
52	0x3e003683	0.12520795
53	0xbd1c9123	-0.03822435
54	0xbe43c002	-0.19116214
55	0x3d9596e6	0.07304172
56	0xbe23831a	-0.1596798
57	0xbcf1a5c2	-0.029497985
58	0xbe134d40	-0.14384937
59	0x3df8de26	0.121517465
60	0xbe12bca0	-0.14329767
61	0x3d4ef77d	0.050528992
62	0xbcc03b9d	-0.023465926
63	0x3e43b533	0.19112091
64	0xbdd18966	-0.10231285
65	0x3e38593f	0.18002795
66	0xbe31d863	-0.17367701
67	0x3e0690b0	0.13141131
68	0xbdd455a6	-0.10367899
69	0xbd4f3390	-0.050586283
70	0x3d55482d	0.052070785
71	0x3d7fbe6e	0.062437467
72	0x3e3fc79d	0.1872849
73	0x3dcf68f4	0.1012744
74	0xbd8fd00c	-0.07022104
75	0x3da2784c	0.07933101
76	0x3d19ebfa	0.03757856
77	0x3e28dbda	0.16490117
78	0x3e237925	0.15964182
79	0xbe2ea841	-0.17056371
80	0xbd1d8164	-0.038453475
81	0x3deacd41	0.1146493
82	0xbb9d98be	-0.004809468
83	0xbe191224	-0.14948326
84	0x3c81fed8	0.01586859
85	0xbd82642a	-0.06366761
86	0x3d814961	0.06312824
87	0x3dcb1467	0.09916001
88	0x3e266b46	0.16251859
89	0x3e2538cd	0.16134949
90	0x3c993411	0.018701585
91	0x3e43b86f	0.19113325
92	0xbd5a6eea	-0.053328432
93	0x3d1b6e06	0.037946723
94	0x3e49afac	0.1969592
95	0xbdc1bde5	-0.09460048
96	0x3d441a4c	0.04787664
97	0xbd1ba1b6	-0.037996016
98	0x3e0b1f87	0.13586245
99	0x3d5d701d	0.054061998
100	0x3de9e463	0.114205144
101	0x3d497c74	0.049190953
102	0x3e58774f	0.21139263
103	0x3c6fa7a9	0.014627376
104	0x3d4989d7	0.04920372
105	0xbd82c8b2	-0.06385936
106	0xbdece2ad	-0.115666725
107	0x3df332c8	0.1187492
108	0x3df5c5f3	0.120006464
109	0x3e2a6185	0.16638763
110	0x3e2050ea	0.15655866
111	0x3d61ab53	0.055095028
112	0x3c9d1ec8	0.019179717
113	0x3e12e7ce	0.14346239
114	0x3d214d62	0.03938044
115	0x3daca041	0.084290035
116	0x3c975b5d	0.018476183
117	0x3e19bbc4	0.15013033
118	0x3d3ed422	0.046589024
119	0xbe276300	-0.16346359
120	0x3db80069	0.08984453
121	0xbc6b1594	-0.014348406
122	0x3e2e60bc	0.17029089
123	0x3d009119	0.031388376
124	0x3c856344	0.016282685
125	0x3e1d607f	0.15368842
126	0x3d03d75e	0.032187812
127	0xbe13993a	-0.1441392
128	0x3d093e08	0.033506423
129	0x3e201b05	0.15635307
130	0x3cc102be	0.023560878
131	0x3e02182e	0.12704536
132	0x3e43a88a	0.19107261
133	0xbd7ab265	-0.061205287
134	0x3d5bfd8a	0.05370859
135	0xbdcff935	-0.10154954
136	0x3d1d19c7	0.03835466
137	0xbd16bab6	-0.036799155
138	0x3cfbae8f	0.030722884
139	0x3e21de9d	0.15807576
140	0x3d88db58	0.066824615
141	0x3daca128	0.084291756
142	0x3dc2e9a7	0.09517222
143	0xbd718e6e	-0.058973722
144	0x3db939b6	0.090442106
145	0x3d1bee25	0.03806891
146	0x3cc7b626	0.024378847
147	0xbcfcdf10	-0.030868083
148	0x3df95f03	0.12176325
149	0xbe227840	-0.15866184
150	0x3dea8bf3	0.114524744
151	0xbe50e284	-0.20398909
152	0xbda06d16	-0.078333065
153	0x3dcc9971	0.09990204
154	0xbdf59831	-0.11991919
155	0xbdce0323	-0.10059192
156	0xbc890f4c	-0.016730927
157	0xbda73c5d	-0.0816581
158	0xbe3fbedb	-0.1872515
159	0x3c9391ca	0.018013854
160	0x3c9270c0	0.017876029
161	0x3c3f52db	0.011677469
162	0x3c9702c8	0.018433943
163	0x3df5b54a	0.11997469
164	0xbe45ea31	-0.19327618
165	0xbd37f2b1	-0.044909183
166	0x3db8e662	0.09028317
167	0xbe278299	-0.16358413
168	0x3d887218	0.06662387
169	0xbc88d6b8	-0.016703948
170	0x3e08320f	0.13300346
171	0x3c8978b7	0.016781194
172	0x3e4617ff	0.19345091
173	0x3de3ff61	0.11132694
174	0x3da01c6b	0.0781792
175	0x3dc040e9	0.09387381
176	0x3ddc8e1e	0.10769294
177	0x3d39ad6f	0.045331415
178	0x3d8cb008	0.06869513
179	0x3ce71896	0.028209966
180	0xbde4f86d	-0.11180196
181	0xbdb45359	-0.0880496
182	0x3dc676bb	0.09690615
183	0x3d45a880	0.048256397
184	0x3d7c3f04	0.061583534
185	0xbdc3528d	-0.0953723
186	0xbd20f04a	-0.039291658
187	0x3d2359ac	0.03988044
188	0xbc73ae01	-0.014873029
189	0x3e2fa3f3	0.17152385
190	0x3dbcb249	0.09213693
191	0x3d499734	0.049216464
192	0xbe04ed4a	-0.12981144
193	0x3de085ad	0.10962997
194	0xbda63aab	-0.08116659
195	0xbd9640f8	-0.073366106
196	0x3e067df0	0.13133979
197	0x3d226922	0.039651044
198	0xbe19b794	-0.15011436
199	0x3e378617	0.17922245

bn1.running_mean f4 [8]
0	0x3d782a1c	0.060587034
1	0x3d17b840	0.03704095
2	0xbb860158	-0.0040895157
3	0x3d8f1a50	0.069874406
4	0x3dbf188c	0.09330854
5	0x3d6a3f64	0.05718936
6	0xbbf291d2	-0.007402637
7	0x3d11ec83	0.035625946

bn1.running_var f4 [8]
0	0x3c2c661c	0.010522392
1	0x3b85cb4b	0.0040830723
2	0x3b0879fa	0.0020824657
3	0x3c11fa3d	0.008909759
4	0x3c69d7e4	0.014272664
5	0x3bb686df	0.005570277
6	0x3b721c0c	0.0036942987
7	0x3b2adb59	0.0026070683

conv2.weight f4 [4, 8, 5, 5]
0	0xbc3b63e0	-0.011437386
1	0xbc9228bb	-0.017841687
2	0xbcc90f04	-0.024543293
3	0x3c516a0b	0.01278163
4	0x3d1f0ed0	0.038832486
5	0x3d4add57	0.049527492
6	0xbda49445	-0.08036093
7	0x3a9da53e	0.0012027395
8	0xbd97c5f2	-0.07410802
9	0x3cef4a31	0.029210182
10	0xbbed1faf	-0.007236443
11	0xbda53e7b	-0.08068558
12	0x3ce02782	0.027362589
13	0xbbed1214	-0.007234821
14	0xbc789eda	-0.015174592
15	0x3c8f5b91	0.017499717
16	0xbc8d1d77	-0.017225964
17	0x3c2fd490	0.010731831
18	0xbce482e1	-0.02789444
19	0xbd49fc31	-0.049312774
20	0x3d1a9d89	0.037747893
21	0xbd3cb971	-0.04607529
22	0x3d3d8a5a	0.04627452
23	0x3d0447c0	0.03229499
24	0x3d5e9aa8	0.05434671
25	0xbd194c40	-0.037426233
26	0xbc851b31	-0.016248317
27	0xbda08160	-0.07837176
28	0xbca42f9e	-0.020042237
29	0xbd8b86cf	-0.06812822
30	0x3cb546ab	0.022128424
31	0x3c9cf918	0.019161746
32	0x3d21ad75	0.039472062
33	0xbda49c3d	-0.080376126
34	0xbbcbcd9d	-0.0062195794
35	0x3cc59671	0.024119588
36	0xbd0dd77f	-0.03462934
37	0xbd51497a	-0.051095463
38	0x3d5111b5	0.051042277
39	0x3d2b377f	0.041800972
40	0x3d4fe96c	0.050759718
41	0xbca966ce	-0.020678904
42	0x3d327b9a	0.043574907
43	0xbd8dcd56	-0.0692393
44	0xbcb508b2	-0.022098873
45	0x3d1f99a9	0.0389649
46	0xbd7f8ed3	-0.062392067
47	0xbd2f2cdb	-0.042767387
48	0xbd7c04f6	-0.06152817
49	0xbd81525d	-0.06314538
50	0x3c0405ec	0.0080580525
51	0xbb9c87cf	-0.004776932
52	0xbc58fe9b	-0.013244296
53	0x3d5edea6	0.054411553
54	0xbd804672	-0.062634364
55	0xbd669aad	-0.056299854
56	0x3d4842ac	0.04889171
57	0xbd3ca4ab	-0.046055477
58	0x3c0788e5	0.008272384
59	0xbd3d9348	-0.046283036
60	0x3d0e0126	0.034669064
61	0xbcb4f578	-0.022089705
62	0xbc624147	-0.013809509
63	0x3d2cea83	0.042215835
64	0xbcb29fb6	-0.021804672
65	0xbd53041e	-0.0515176
66	0x3d6ba733	0.0575325
67	0x3d307df0	0.043088853
68	0x3d65fedf	0.056151267
69	0x3c9f6aac	0.019460045
70	0x3d3d81ec	0.04626648
71	0x3cc16165	0.023606012
72	0x3cf016e4	0.02930779
73	0x3c86b7b8	0.016445026
74	0xbc8a0dc6	-0.01685227
75	0x3c29983d	0.010351238
76	0xbd227b31	-0.039668266
77	0xbd151301	-0.036395077
78	0xbd0a0448	-0.03369549
79	0x3b1bdae8	0.0023781601
80	0x3c4b19fd	0.012396333
81	0xbd55af7f	-0.05216932
82	0xbd02ac2c	-0.031902477
83	0x3d506317	0.05087575
84	0x3d4648b3	0.048409175
85	0x3c4f45a1	0.012650878
86	0xbc28b67d	-0.010297415
87	0xbd65d3aa	-0.05611006
88	0x3cc3ef9a	0.023917962
89	0x3c8b5963	0.017010396
90	0xbd381f03	-0.04495145
91	0xbcc58cce	-0.024114992
92	0x3d32f2dd	0.043688644
93	0xbc1d647d	-0.009606478
94	0xbc5ad82a	-0.013357202
95	0x3d77a072	0.060455747
96	0xbd860725	-0.065443315
97	0x3d23cea0	0.039991975
98	0xbcefe353	-0.029283201
99	0x3cf531ae	0.029930916
100	0x3bf4474d	0.007454789
101	0xbd57e0e1	-0.052704696
102	0x3ca2e97b	0.019886723
103	0xbceaed87	-0.028677715
104	0x3a38c3d0	0.00070482213
105	0xbd931769	-0.071821995
106	0x3c1eb165	0.009685849
107	0x3d181483	0.037128936
108	0x3c96e346	0.01841892
109	0xbc996980	-0.018727064
110	0xbdb84162	-0.08996846
111	0xb843da1d	-4.6694757e-05
112	0xbcc3ccef	-0.02390143
113	0xbda8966a	-0.08231814
114	0x3d6425f2	0.05570025
115	0x3d560cbb	0.052258234
116	0xbcf27830	-0.029598325
117	0x3c8da5a9	0.017290907
118	0xbcc6529a	-0.02420931
119	0xbd064a37	-0.03278562
120	0xbd847faf	-0.06469666
121	0xbd7f2b5a	-0.062297203
122	0x3cbda0e5	0.02314801
123	0x3b99ab7e	0.004689633
124	0xbbf788fc	-0.0075541716
125	0xbbea2814	-0.007145891
126	0xbd9e522d	-0.077305175
127	0xbbfd7cb7	-0.0077358144
128	0x3d13e79d	0.036109556
129	0xbd740258	-0.059572548
130	0xbd9010ef	-0.0703448
131	0xbcd0b209	-0.025475519
132	0x3cb38222	0.021912638
133	0xbd852e34	-0.06502953
134	0x3c921dd0	0.017836481
135	0x3d1d0141	0.038331274
136	0x3cf2e8b7	0.029651983
137	0xbb368625	-0.0027850952
138	0xbd8df90e	-0.06932269
139	0x3d04f38d	0.03245883
140	0xbce5eb89	-0.028066413
141	0x3d01fd17	0.031735506
142	0xbc3fb9ec	-0.011702042
143	0xbda32cd5	-0.079675354
144	0xbc681e8d	-0.01416744
145	0xbd6dc0d9	-0.058045242
146	0xbd302063	-0.042999636
147	0x3a880d2c	0.0010379902
148	0x3d3589f1	0.044321004
149	0x3ce5edba	0.028067458
150	0x3ce04d60	0.027380645
151	0xbc118a0d	-0.0088830115
152	0xbd5ccfca	-0.0539091
153	0x3bf8e5a8	0.0075957365
154	0x3d03daa2	0.032190926
155	0xbc618fff	-0.0137672415
156	0x3d09b2b7	0.0336177
157	0xbc9b3f5c	-0.01895111
158	0x3d2ce5b9	0.042211268
159	0xbd2d8d27	-0.04237094
160	0x3d19fbdb	0.037593704
161	0xbd698450	-0.05701095
162	0x3c9b14f3	0.018930888
163	0xbd283a4f	-0.041071232
164	0xbae2a8b5	-0.001729271
165	0x3d730166	0.059327506
166	0x3cb8620c	0.02250769
167	0xbccc106d	-0.024910176
168	0x3d7a0dd2	0.061048336
169	0xbd92a10a	-0.07159622
170	0x3bf496c8	0.0074642636
171	0xbd5b180d	-0.053489733
172	0xbd5d46a7	-0.054022457
173	0xbb46c283	-0.003032834
174	0x3d2cd323	0.042193543
175	0xbacfe08b	-0.0015859766
176	0xbc8326a5	-0.016009638
177	0xbd70c5c0	-0.05878234
178	0xbb95e284	-0.004574122
179	0xbd45caf9	-0.048289273
180	0xbd0302ab	-0.031984966
181	0x3c1f7a15	0.0097336965
182	0xbd85d69f	-0.06535076
183	0x3c339687	0.0109611815
184	0xbd268cd7	-0.04066166
185	0xbd18519a	-0.037187196
186	0xbd84a0bc	-0.0647597
187	0x3cf276e4	0.029597707
188	0xbcbf80c2	-0.023376826
189	0xbc2f5e29	-0.010703602
190	0x3c8e6a2b	0.01738461
191	0xbcd52c12	-0.02602199
192	0xbd280f49	-0.041030202
193	0xbcb235cb	-0.021754166
194	0xbd03ec28	-0.032207638
195	0xbc9f918d	-0.019478584
196	0x3c4275b0	0.011868879
197	0x3b544a41	0.0032392892
198	0x3d2d0fb9	0.042251322
199	0x3d3a6d3f	0.04551434
200	0xbda25f03	-0.07928278
201	0xbd76bace	-0.060236745
202	0x3d8cc916	0.068742916
203	0xbbe4e37a	-0.006985125
204	0x3c591b9e	0.013251213
205	0xbd9206e7	-0.07130223
206	0xbbbe3b83	-0.005805434
207	0x3c97fd3b	0.018553367
208	0xbd255ac5	-0.040369768
209	0xbd84bf86	-0.06481843
210	0xbd555f7b	-0.05209301
211	0xbd2a425a	-0.041567184
212	0xbd6c5646	-0.057699464
213	0x3c94bd26	0.0181566
214	0xbd890539	-0.06690449
215	0xbd76ccbf	-0.060253855
216	0xbc3c92e4	-0.011509631
217	0x3ca9e994	0.020741262
218	0xbd4444e8	-0.047917277
219	0x3d2c2656	0.042028747
220	0xbd0348fe	-0.032052033
221	0xbd4dbc48	-0.050228387
222	0xbbb9bd78	-0.0056683384
223	0xbc45be04	-0.012069229
224	0x3cfe93ec	0.031076394
225	0xbd70b453	-0.05876572
226	0xbcd6ea12	-0.02623466
227	0x3d32f7b1	0.04369325
228	0xbcad15e9	-0.021128612
229	0xbc9bb3ee	-0.019006696
230	0x3b4377fb	0.0029826153
231	0xbcd4eebd	-0.025992746
232	0x3ca8737c	0.02056288
233	0xbd3a4d66	-0.04548397
234	0x3b9f8321	0.0048679267
235	0xbd52610c	-0.051362082
236	0xbdaac5ff	-0.08338546
237	0xbd9d523d	-0.07681701
238	0x3d11805e	0.03552281
239	0x3ca3c95c	0.019993477
240	0xbda49c9e	-0.08037685
241	0xbd0e1f58	-0.03469786
242	0x3d10ce13	0.035352778
243	0x3d357611	0.04430205
244	0xbd834fb4	-0.064116865
245	0x3a107257	0.0005510202
246	0xbc5f0f57	-0.013614497
247	0x3bdaa96e	0.0066730296
248	0x3d5bfe59	0.05370936
249	0x3c6697d0	0.014074281
250	0x3c8748ea	0.01651426
251	0xbc8d45ee	-0.01724526
252	0xbd390060	-0.045166373
253	0x3d72c8ac	0.059273407
254	0x3d2c2fc4	0.04203774
255	0xbc6db648	-0.014508791

bn2.running_mean f4 [4]
0	0xbf6abb8b	-0.9169242
1	0xbfa26643	-1.2687458
2	0xbf87c4c5	-1.0606924
3	0xbe59fdae	-0.21288177

bn2.running_var f4 [4]
0	0x3f8ea934	1.1145387
1	0x3fc76de5	1.5580412
2	0x3fb049ac	1.3772483
3	0x3f8949f0	1.0725689

fc1.weight f4 [32, 196]
0	0x3d7ff046	0.062485002
1	0x3c05b8f6	0.008161774
2	0x3d26b092	0.040695734
3	0xbc8340fa	-0.016022194
4	0x3cad3140	0.021141648
5	0xbb54d7ec	-0.0032477332
6	0xbd1a47da	-0.03766618
7	0xbd88fdfb	-0.06689068
8	0x3d6f5130	0.058427036
9	0xbd1016e9	-0.0351781
10	0xbd85ee13	-0.0653955
11	0xbd65a73d	-0.056067694
12	0xbd54c446	-0.051944993
13	0xbd2d7b6b	-0.04235403
14	0xba9dc651	-0.0012037252
15	0xbd3a1965	-0.045434374
16	0xbb5c9033	-0.0033655285
17	0x3d555e9d	0.052092183
18	0x3c79e28d	0.015251768
19	0xbd455ebb	-0.048186045
20	0xbad4eba3	-0.0016244542
21	0xbb7e1f70	-0.0038776062
22	0x3d5c521e	0.05378925
23	0xbd84edd6	-0.06490676
24	0xbc678d46	-0.014132803
25	0x3cecba77	0.028897507
26	0x3d87cdd4	0.066310555
27	0x3cae8978	0.021305785
28	0xbc0122fa	-0.007881874
29	0x3bb023e1	0.005375371
30	0x3d3e500f	0.04646307
31	0x3d66d4e7	0.056355383
32	0xbc99ca05	-0.018773088
33	0x3d8b5ca8	0.06804782
34	0x3d5b57d8	0.05355057
35	0xbc967e52	-0.018370781
36	0x3d7fc047	0.06243923
37	0xbd8600a3	-0.0654309
38	0x3ca400a6	0.02001984
39	0xba412e63	-0.0007369278
40	0x3c2b03da	0.01043793
41	0xbd75f2f4	-0.06004615
42	0xbc66a175	-0.01407658
43	0xbd846b90	-0.064658284
44	0xbb3cf17a	-0.0028830455
45	0xbce821f0	-0.028336495
46	0xbcb9e3f3	-0.022691702
47	0xbc876a49	-0.016530173
48	0x3d165e8b	0.036711257
49	0x3c13525f	0.008991807
50	0xbd37f08e	-0.044907145
51	0xbd510075	-0.051025826
52	0x3ccf25e4	0.025286622
53	0x3cc0d420	0.02353865
54	0x3d4ed3c6	0.05049493
55	0x3d50cf8d	0.050979186
56	0xbd1d6a92	-0.03843171
57	0x3d6e2d4b	0.058148663
58	0xbca15644	-0.019694455
59	0xbd0b8b88	-0.034068614
60	0x3d48f948	0.049065858
61	0xbd933c28	-0.07189208
62	0xbcb6934a	-0.02228703
63	0xbc78909d	-0.015171197
64	0xbd26008e	-0.040527873
65	0x3d48e679	0.04904792
66	0xbd9087bb	-0.070571385
67	0x3d2e2d90	0.04252392
68	0xbb71b810	-0.0036883391
69	0xbca5e461	-0.020250501
70	0x3d358c68	0.044323355
71	0xbc3d57b4	-0.011556555
72	0x3d718d16	0.05897244
73	0xbd77fc52	-0.060543366
74	0x3bf92f57	0.0076045203
75	0x3d4ea7e3	0.050453078
76	0xbd6fade7	-0.058515456
77	0xbcfaf324	-0.030633517
78	0x3d671fb2	0.05642671
79	0x3d481ee9	0.048857603
80	0xbc8b43b8	-0.017000064
81	0xbd21e9cb	-0.039529603
82	0x3c07b727	0.008283413
83	0xbd91385e	-0.07090829
84	0xbd7b9e0c	-0.061430022
85	0x3d3934e2	0.04521645
86	0x3d537b2b	0.051631134
87	0xbd84e322	-0.06488635
88	0xbabebf25	-0.0014552815
89	0xbbaf75f1	-0.005354636
90	0x3ce961c6	0.028489005
91	0xbcfd178c	-0.030895017
92	0xbd1825e5	-0.037145514
93	0x3c9931b2	0.018700454
94	0xbd790d8d	-0.06080394
95	0xbce9e7f1	-0.028552981
96	0xbc5497e7	-0.0129756695
97	0xbd1422ef	-0.036166128
98	0xbd6e78bf	-0.05822062
99	0x3d4192bf	0.04725909
100	0x3d352299	0.044222448
101	0x3cb55479	0.022135006
102	0x3d21a6f3	0.039465856
103	0x3cfca1d8	0.030838892
104	0x3c443753	0.011976081
105	0x3d39c288	0.045351535
106	0xbd62f4f1	-0.055409376
107	0x3d8130ae	0.06308113
108	0xbb502ebc	-0.0031766137
109	0x3c81e17d	0.015854592
110	0x3d7f8719	0.0623847
111	0x3d43f505	0.04784109
112	0xbcb35083	-0.021888977
113	0xbd5a1edd	-0.05325209
114	0xbd2c8264	-0.042116538
115	0xbc201ff6	-0.009773245
116	0x3cc89286	0.02448393
117	0xbd0364d5	-0.032078583
118	0xbd1dfaea	-0.03856937
119	0xbb544a04	-0.003239275
120	0x3d8afcf4	0.06786528
121	0xbd6a57bb	-0.057212573
122	0xbd80401f	-0.0626223
123	0x3d05997a	0.03261707
124	0xbd885d53	-0.06658425
125	0xbd583f74	-0.05279489
126	0xbd1e702e	-0.0386812
127	0xbd72e802	-0.05930329
128	0x3d227d0e	0.039670043
129	0x3d43632c	0.047702
130	0xbd135273	-0.0359673
131	0x3c9a763e	0.01885521
132	0x3d58a225	0.052889008
133	0xbd948d93	-0.07253566
134	0xbd9bda12	-0.07609953
135	0xbd8718b1	-0.065965064
136	0xbd923d52	-0.07140602
137	0xbd37fc7c	-0.044918522
138	0xbcb1d1db	-0.021706512
139	0x3d30f45c	0.04320179
140	0xbcad9e82	-0.021193746
141	0x3c63ce50	0.013904169
142	0x3d43a441	0.047764067
143	0xbd5a6059	-0.05331454
144	0x3caaa448	0.020830289
145	0xba8ae35b	-0.0010596322
146	0xbd8a1283	-0.06741812
147	0xbc4220da	-0.011848653
148	0xbd5f82f0	-0.05456823
149	0x3d33aa1a	0.043863393
150	0x3d61db06	0.055140518
151	0x3d46c46d	0.04852717
152	0xbd4e8318	-0.05041799
153	0xbd453740	-0.048148394
154	0xbd9762dd	-0.073919035
155	0x3d5b353d	0.05351757
156	0xbc37215d	-0.011177388
157	0xbd77e457	-0.060520496
158	0x3cc91ea2	0.02455074
159	0xbcda1743	-0.02662242
160	0x3d36acda	0.044598438
161	0x3d5602ce	0.05224877
162	0x3d69dd67	0.05709591
163	0x3d3e8a45	0.046518583
164	0xbd6f27d5	-0.058387596
165	0x3d056091	0.032562796
166	0x3b5321d5	0.003221621
167	0xbcd92757	-0.026508017
168	0xbd82b8a8	-0.06382877
169	0xbd774614	-0.060369566
170	0xbcdf2c9c	-0.027242951
171	0xb902a116	-0.00012457775
172	0xbc9fb7c2	-0.019496802
173	0xbd00ff0a	-0.031493224
174	0x3d8b48e0	0.06801009
175	0x3d4af58f	0.04955059
176	0x3d3974b0	0.045277297
177	0xbd28f40a	-0.04124836
178	0x3b241f91	0.002504323
179	0x3d292b92	0.041301318
180	0xbd90496e	-0.070452556
181	0xbd840f8d	-0.064482786
182	0x3d37a47a	0.04483459
183	0xbaa3ba31	-0.0012491402
184	0x3c6e6d4c	0.014552426
185	0xbcc4c5e5	-0.024020145
186	0x3cc3d2ce	0.02390423
187	0xbd558ca1	-0.052136067
188	0x3d4a3e55	0.04937585
189	0x3d1f5221	0.038896684
190	0x3b941dcd	0.004520154
191	0x3d032c40	0.032024622
192	0x3b1d50a2	0.002400436
193	0xbc88a778	-0.016681418
194	0x3d14197f	0.036157127
195	0x3d138b39	0.036021445
196	0x3d558618	0.052129835
197	0x3d411a66	0.047144316
198	0x3d533725	0.05156626
199	0xbb59d88d	-0.0033240647
200	0x3d320da6	0.043470047
201	0xbd512ceb	-0.051068228
202	0xbd2537fe	-0.0403366
203	0xbd84a0b2	-0.06475963
204	0x3d802723	0.06257465
205	0xbd165d88	-0.036710292
206	0x3d4d661a	0.0501462
207	0xbd14b588	-0.036305934
208	0xbd9266e1	-0.07148529
209	0x3d846c1a	0.06465931
210	0x3d75f303	0.060046207
211	0xbbe263d6	-0.006908874
212	0x3d6613ee	0.05617135
213	0x3d5e5429	0.05427948
214	0xbc18a32a	-0.009316245
215	0xbd800f07	-0.06252866
216	0xbcfd48e4	-0.030918546
217	0xbd4b94eb	-0.049702566
218	0x3d822d4d	0.06356297
219	0xbd1847c4	-0.037177816
220	0xbd68833f	-0.05676579
221	0x3cc0b446	0.023523461
222	0x3d90db74	0.07073107
223	0x3d550f6f	0.05201667
224	0xbd8ab2cb	-0.06772383
225	0xb92dc502	-0.00016571957
226	0xbd36c5c1	-0.044622187
227	0xbb8dae98	-0.0043237917
228	0xbd011fea	-0.031524576
229	0xbd89448b	-0.06702527
230	0xbd5b08bc	-0.053475127
231	0xbcd89c94	-0.02644185
232	0x3d82e0b2	0.063905135
233	0x3b47f477	0.0030510703
234	0x3c8114e9	0.015757041
235	0xbbb3458b	-0.0054709367
236	0x3a051953	0.0005077321
237	0x3d7667cd	0.060157586
238	0x3da8b853	0.08238282
239	0x3d3dfdca	0.04638461
240	0x3d95f1d5	0.073215164
241	0xbc01416e	-0.007889135
242	0xbc83009e	-0.015991505
243	0x3d93ea63	0.0722244
244	0xbd5de5e1	-0.054174308
245	0x3ca992bb	0.02069985
246	0xbd5fad97	-0.054608908
247	0xbd30ec26	-0.04319396
248	0x3c9819e5	0.018567035
249	0xbb60ab57	-0.0034281814
250	0x3c9a1b31	0.018811794
251	0xbd8b195e	-0.06791948
252	0x3be75d11	0.007060655
253	0x3cd32e23	0.025778836
254	0xbd8c797c	-0.06859109
255	0x3d829d7f	0.06377696

deconv1.weight f4 [2, 4, 5, 5]
0	0xbd0c2143	-0.03421141
1	0x3cdffd5c	0.02734249
2	0x3d77a275	0.060457665
3	0x3d06069a	0.03272114
4	0x3da0aada	0.07845087
5	0xbdc43725	-0.095808305
6	0xbd4d3def	-0.050107893
7	0x3d2e9deb	0.04263107
8	0xbd30e7af	-0.0431897
9	0xbdaa0fd8	-0.08303803
10	0x3d574744	0.0525582
11	0xbd023116	-0.031785093
12	0x3cae6a78	0.021291003
13	0x3da7980b	0.08183297
14	0x3d4a15a4	0.049337044
15	0x3d7db919	0.0619441
16	0xbdaecc3e	-0.0853505
17	0xbd9137dc	-0.070907325
18	0x3c055b1b	0.008139397
19	0xbd7c6e70	-0.06162876
20	0x3d3cd47b	0.046101075
21	0xbcad4ff7	-0.021156294
22	0x3d124a1f	0.03571522
23	0xbd4f9dcc	-0.050687596
24	0xbd7ee141	-0.062226538
25	0x3d804ea3	0.06264999
26	0x3d5a05c4	0.053228155
27	0xbccf9a12	-0.025342021
28	0x3cea61e7	0.028611137
29	0x3bf25e9e	0.007396533
30	0xbcc769ae	-0.024342384
31	0xbd3e291e	-0.04642593
32	0x3d7945f8	0.060857743
33	0x3cbfc544	0.023409493
34	0x3d5c0593	0.053716253
35	0xbbdff58b	-0.006834691
36	0xbd6bb68a	-0.05754713
37	0x3c954c65	0.018224904
38	0xbafc6d43	-0.0019258637
39	0x3d9eb212	0.07748808
40	0x3dfaf7cd	0.122542955
41	0xbd817403	-0.063209556
42	0xbd7ad047	-0.061233785
43	0x3d27b873	0.04094739
44	0x3dc0bfef	0.094116084
45	0x3dc016ea	0.093793705
46	0x3d8006c7	0.06251293
47	0xbd6a0efa	-0.05714319
48	0xbdc0b5a0	-0.09409642
49	0xbd94c6f3	-0.07264509
50	0xbd5e16aa	-0.054220833
51	0x3cb8d20e	0.0225611
52	0xbda26a5c	-0.07930443
53	0xbc24f7fb	-0.010068889
54	0x3d41fd03	0.04736043
55	0xbcb6d48e	-0.02231815
56	0xbd2bde96	-0.04196032
57	0xbc720bbd	-0.014773306
58	0x3c4d2d50	0.01252301
59	0xbd1cea45	-0.038309354
60	0xbd125a7f	-0.035730835
61	0x3d2b7aa1	0.041864995
62	0x3be28d93	0.0069138496
63	0x3d1e1485	0.038593788
64	0x3d4d7bdd	0.050166953
65	0xbd81bfa8	-0.06335384
66	0x3d546574	0.051854566
67	0x3d8684a9	0.06568272
68	0xbd805871	-0.06266869
69	0x3ce4c771	0.027927132
70	0xbb8b595e	-0.0042525968
71	0x3d8561c2	0.065127864
72	0x3d8ac378	0.06775564
73	0xbb9dd279	-0.00481635
74	0x3d55039a	0.052005388
75	0x3d0df5a5	0.034658093
76	0xbd6fe834	-0.058571056
77	0x3d75f53b	0.060048323
78	0x3c9e05d7	0.019289894
79	0x3dbfd5d8	0.09366959
80	0xbd2069c6	-0.039163373
81	0xbd16d745	-0.03682639
82	0x3dbbc216	0.09167878
83	0x3db843b4	0.08997288
84	0xbdae4bbd	-0.0851054
85	0x3dcfe36e	0.10150801
86	0x3d9ddb39	0.07707829
87	0xbccea0c2	-0.02522314
88	0xbc032a9b	-0.008005763
89	0x3c57d5d2	0.013173537
90	0x3bb42b49	0.005498324
91	0xbd99f339	-0.07517094
92	0xbd322755	-0.04349454
93	0x3aad59c5	0.0013225606
94	0x3c64025e	0.01391658
95	0xbd735c7b	-0.059414368
96	0x3ca5e645	0.020251403
97	0x3d80e3c2	0.06293441
98	0xbbf2dfb5	-0.007411922
99	0x3db47a02	0.08812334
100	0xbc4c055f	-0.012452452
101	0xbbf74efb	-0.007547257
102	0xbdb07afa	-0.08617206
103	0x3da3ba9d	0.07994578
104	0x3da08ad0	0.078389764
105	0xbcd043a3	-0.025422877
106	0xbd289121	-0.04115403
107	0xbd407c1c	-0.04699336
108	0xbd6f6b4c	-0.058451936
109	0x3d661b48	0.05617836
110	0x3d8ea3b3	0.06964817
111	0x39fa556b	0.00047747357
112	0x3c705e30	0.014670894
113	0x3d3dcf07	0.046340015
114	0xbca28850	-0.01984039
115	0xbd2912b2	-0.041277595
116	0x3d342306	0.043978713
117	0x3ca57abe	0.02020013
118	0xbd173e17	-0.036924448
119	0xbc8f210e	-0.017471816
120	0x3b1a034f	0.0023500507
121	0xbdc35430	-0.09537542
122	0x3cc82534	0.024431802
123	0xbcd42603	-0.025897032
124	0xbc91eff7	-0.01781462
125	0x3d3dcdbc	0.04633878
126	0xbdcd6e72	-0.100308314
127	0x3c42071a	0.011842513
128	0xbb854f06	-0.004068258
129	0xbc466b35	-0.012110521
130	0x3da6c800	0.08143616
131	0x3d843219	0.06454868
132	0xba951e0d	-0.0011376754
133	0x3c8b6518	0.017015979
134	0xbd075f17	-0.03304967
135	0x3c9a68d0	0.018848807
136	0xbe1e3377	-0.1544932
137	0xbd7c7caa	-0.061642326
138	0x3d4693d4	0.048480824
139	0x3c73a3af	0.014870568
140	0xbd9b5787	-0.07585054
141	0xbdb92c13	-0.090416096
142	0x3d416c77	0.04722258
143	0x3d8f860d	0.0700799
144	0xbd966787	-0.07343965
145	0x3dc54010	0.096313596
146	0xbc7fb888	-0.0156079605
147	0xbc10b762	-0.008832784
148	0x3d3c278c	0.045936152
149	0x3db74685	0.089489974
150	0x3db13d11	0.086542256
151	0xbc81bc75	-0.015836934
152	0x3d5a0fa1	0.05323756
153	0xbac47eac	-0.0014991364
154	0x3d23bcd6	0.03997501
155	0x3c039ebf	0.0080334535
156	0x3d92e521	0.07172609
157	0xbac4085e	-0.0014956107
158	0x3da01f21	0.07818437
159	0xbd18675a	-0.03720794
160	0xbcd4f707	-0.025996698
161	0x3ce632d2	0.028100405
162	0x3d7b35bf	0.061330553
163	0xbdb912d7	-0.090367965
164	0x3d2e9571	0.042622987
165	0x3d65e96f	0.056130823
166	0x3cbb41ae	0.022858467
167	0x3c8f9b55	0.017530123
168	0xbc08d94b	-0.008352588
169	0x3d8dc97d	0.069231965
170	0x3dca6708	0.09882933
171	0x3d0bf312	0.034167357
172	0x3d421c11	0.047390047
173	0x3d286653	0.04111321
174	0x3dfdd720	0.123945475
175	0xbc5a3b75	-0.01331984
176	0xbdc6f652	-0.097149506
177	0xbd5df98c	-0.054193065
178	0x3de44695	0.11146275
179	0x3c9d0860	0.019169033
180	0xbdbf43d8	-0.09339112
181	0x3d0ba99e	0.034097306
182	0x3bfbd27f	0.007685005
183	0xbd9064a1	-0.070504434
184	0x3d1ed8ae	0.03878086
185	0x3b67c70a	0.003536644
186	0x3d049713	0.032370638
187	0xbc87440f	-0.016511945
188	0x3b1c9f08	0.00238985
189	0xbb428a7b	-0.0029684592
190	0x3b16ca1f	0.0023008657
191	0xbd1556c8	-0.036459714
192	0xbd4e463f	-0.05035996
193	0xbd37cd89	-0.044873748
194	0xbc9e8aaf	-0.019353239
195	0xbdeb748a	-0.114968374
196	0x3d7bb42f	0.061451133
197	0x3d63fbf2	0.055660196
198	0xbcc11b51	-0.023572596
199	0xbc9bfc14	-0.019041099

bn3.running_mean f4 [4]
0	0xbce822b2	-0.028336857
1	0x3dc0ff5d	0.09423707
2	0x3e7aa7d6	0.24478087
3	0x3e02920a	0.12751022

bn3.running_var f4 [4]
0	0x3d74a873	0.05973096
1	0x3d610925	0.05494036
2	0x3daa0f18	0.0830366
3	0x3d1c7c0f	0.03820425
