log/mnist_test_class_5/model.tar (torch, 71258 bytes, 21 tensors)

conv1.weight f4 [8, 1, 5, 5]
-0.11535274 0.06426867 0.21262224 0.18766914 0.15095192 -0.08540273 0.11271383 -0.074206434
0.08853023 0.19211946 0.19503011 -0.039683413 0.2198529 0.056159 0.1335021 -0.11698286
0.16772604 0.031977747 0.107447505 0.09609558 -0.08146382 -0.006693571 0.021457484 -0.10641366
-0.04868633 0.21084626 0.03883852 -0.073493615 0.18751055 -0.04559141 0.019578377 0.161697
0.058319867 0.092445485 -0.12854563 0.157453 0.063025765 0.12571208 0.053307384 -0.073288105
-0.10861839 0.16377445 -0.071091644 0.0008737483 0.13524316 0.11435729 -0.113808475 -0.07108994
0.018542837 0.0051701376 -0.10612279 -0.0804696 0.077914484 -0.08359626 -0.2274878 0.036268365
-0.19739732 -0.07145916 -0.18983585 0.065132014 -0.15320656 0.049867805 -0.031595185 0.15693544
-0.13246866 0.18098891 -0.1712514 0.119513184 -0.11531386 -0.05644182 0.04581494 0.039742865
0.15177238 0.094007455 -0.0409715 0.12691954 0.057406552 0.2152476 0.20990701 -0.13052733
-0.02175143 0.096782856 0.04235121 -0.096650936 0.04947226 -0.07076865 0.041563407 0.09235251
0.18961045 0.17524889 -0.0019822335 0.16397092 -0.066924326 0.03198679 0.19172661 -0.11610056
0.02994484 -0.033628345 0.15366516 0.070567675 0.14585754 0.07067424 0.21275918 0.023875294
0.06980356 -0.004082983 -0.115485445 0.08427606 0.068424575 0.15825759 0.15686597 0.03847303
-0.0075929426 0.123421386 0.06447494 0.14120638 0.030611316 0.123651244 0.025019709 -0.120026186
0.13879092 0.017194629 0.16510339 0.012009888 0.013564469 0.16722903 0.060754772 -0.07530232
0.045553308 0.14532557 0.052761182 0.093672365 0.16646197 -0.060237285 0.043571208 -0.046573296
0.0450402 -0.048502296 0.02872453 0.15386394 0.075018965 0.0735899 0.09616506 -0.04213005
0.121879175 0.0517815 0.04526674 0.0030974832 0.14825702 -0.12666115 0.1523495 -0.16040206
-0.031122986 0.15404806 -0.055259768 -0.079438634 0.019036418 -0.02542679 -0.12822768 0.076175645
0.052802727 0.041454513 0.04371362 0.14417356 -0.14387423 0.002599861 0.12573163 -0.13341635
0.08895276 0.003035038 0.19085243 0.06913057 0.2305806 0.10406545 0.05453588 0.09641643
0.115991816 0.0855358 0.08458388 0.042653464 -0.10424788 -0.07433044 0.13311757 0.058017626
0.057079628 -0.10317959 -0.024170207 0.0689954 0.026665118 0.15724948 0.086045 0.04931306
-0.10258535 0.13045159 -0.090295576 -0.058377426 0.15079165 0.07609046 -0.11511093 0.16069911
00000000: 0f3e ecbd 4b9f 833d a5b9 593e 572c 403e
00000010: 2493 1a3e a0e7 aebd 82d6 e63d 8bf9 97bd
00000020: 564f b53d f7ba 443e f9b5 473e 138b 22bd
00000030: 1e21 613e fb06 663d c6b4 083e b694 efbd
00000040: 60c0 2b3e 19fb 023d 700d dc3d c2cd c43d
00000050: 81d6 a6bd be55 dbbb 9bc7 af3c 68ef d9bd
00000060: 516b 47bd 15e8 573e 2415 1f3d d283 96bd
00000070: c402 403e 0fbe 3abd d562 a03c e693 253e
00000080: d0e0 6e3d 0f54 bd3d 77a1 03be 5c3b 213e
00000090: a713 813d abba 003e d858 5a3d 1318 96bd
000000a0: 5273 debd 7db4 273e 7f98 91bd 410c 653a
000000b0: 2f7d 0a3e 2834 ea3d 6b14 e9bd 9a97 91bd
000000c0: 26e7 973c 426a a93b e856 d9bd 3fcd a4bd
000000d0: a191 9f3d 8434 abbd 90f2 68be 238e 143d
000000e0: 8622 4abe 2e59 92bd 5464 42be ef63 853d
000000f0: 2ee2 1cbe 2f42 4c3d f469 01bd afb3 203e
00000100: dda5 07be 2855 393e 875c 2fbe 54c3 f43d
00000110: ac29 ecbd 8a2f 67bd 72a8 3b3d 6ac9 223d
00000120: 386a 1b3e fb86 c03d bbd1 27bd 32f7 013e
00000130: 2223 6b3d de69 5c3e ddf1 563e f5a8 05be
00000140: 0e30 b2bc 1736 c63d 7678 2d3d edf0 c5bd
00000150: 6da3 4a3d 27ef 90bd 643e 2a3d 5023 bd3d
00000160: 3e29 423e 7274 333e 5ce8 01bb fee7 273e
00000170: 9f0f 89bd 9504 033d fb53 443e 21c6 edbd
00000180: e24e f53c e0bd 09bd 665a 1d3e c985 903d
00000190: ae5b 153e a8bd 903d 8bdd 593e 1f96 c33c
000001a0: 2bf5 8e3d 8bca 85bb a283 ecbd ed98 ac3d
000001b0: 2f22 8c3d 470e 223e 79a1 203e e595 1d3d
000001c0: 38ce f8bb 5ac4 fc3d 700b 843d 6898 103e
000001d0: 95c4 fa3c dd3c fd3d 22f6 cc3c 4ad0 f5bd
000001e0: 351f 0e3e c0db 8c3c dd10 293e 1fc5 443c
000001f0: 823d 5e3c 163e 2b3e ffd9 783d 1a38 9abd
00000200: 1b96 3a3d 3ad0 143e 1c1c 583d 4cd7 bf3d
00000210: 0275 2a3e 5fbb 76bd b977 323d a4c3 3ebd
00000220: 137c 383d 58aa 46bd b54f eb3c 828e 1d3e
00000230: 8ba3 993d 4db6 963d 30f2 c43d 8f90 2cbd
00000240: ca9b f93d d718 543d 9e69 393d 25ff 4a3b
00000250: b0d0 173e 76b3 01be 8201 1c3e 7040 24be
00000260: a2f5 febc c6be 1d3e 1158 62bd b9b0 a2bd
00000270: 43f2 9b3c d84b d0bc 1e4e 03be fa01 9c3d
00000280: ac47 583d 35cc 293d 0e0d 333d 3ca2 133e
00000290: c453 13be 6e62 2a3b cbbf 003e 4c9e 08be
000002a0: dd2c b63d 7de7 463b d26e 433e 5494 8d3d
000002b0: 521d 6c3e 4420 d53d 0461 5f3d fa75 c53d
000002c0: 1e8d ed3d 652d af3d 503a ad3d 66b5 2e3d
000002d0: ea7f d5bd 8f3a 98bd f94f 083e e4a3 6d3d
000002e0: 54cc 693d d24f d3bd 9900 c6bc 764d 8d3d
000002f0: ce70 da3c 0206 213e 5c38 b03d 7efc 493d
00000300: 4518 d2bd 1a95 053e e3ec b8bd 2b1d 6fbd
00000310: 2069 1a3e 51d5 9b3d 47bf ebbd 4f8e 243e

bn1.running_mean f4 [8]
0.07470272 0.050272465 -0.034680944 0.07651475 0.089240365 0.06630604 0.043247644 0.04941793
00000000: bdfd 983d 80ea 4d3d 9b0d 0ebd c4b3 9c3d
00000010: a7c3 b63d 76cb 873d 7124 313d 756a 4a3d

bn1.running_var f4 [8]
0.01362801 0.0060364837 0.005239001 0.010711533 0.012485425 0.0068044025 0.0049701273 0.004533544
00000000: 0448 5f3c b2cd c53b edab ab3b 6d7f 2f3c
00000010: ab8f 4c3c 77f7 de3b 73dc a23b 208e 943b

conv2.weight f4 [4, 8, 5, 5]
0.006998027 -0.023764033 -0.054213054 -0.026044106 0.03256116 0.050320502 -0.09786046 -0.035299614
-0.07997427 0.022937356 -0.0057583856 -0.090322405 0.003848756 0.00026174402 -0.022067355 0.0074349935
-0.019728875 0.016292669 -0.016397709 -0.03842375 0.053696692 -0.028832965 0.05242245 0.027021138
0.04635388 -0.049091384 0.0035495705 -0.09021921 -0.05180108 -0.079336755 0.016133714 0.042518485
0.025208225 -0.11854576 -0.02755523 0.021602625 -0.035458475 -0.052689116 0.03182919 0.04939777
0.052295376 -0.028774876 0.03660408 -0.05217812 -0.006992858 0.010948731 -0.04096739 -0.018884894
-0.031896457 -0.04909921 -0.012262285 -0.020749442 -0.008806917 0.019888882 -0.06721661 -0.05074616
0.041012745 -0.043604385 -0.005469085 -0.036457907 0.023007326 -0.01563421 0.024851171 0.041238498
-0.005763566 -0.0514612 0.06421464 0.053836342 0.045270063 0.03605399 0.06416769 0.03280058
0.039984275 0.00944612 -0.0045726583 0.028403241 -0.056515064 -0.069792576 -0.040991385 -0.011721736
0.01625706 -0.05174402 -0.0628445 0.023254199 0.024632342 0.010540609 -0.014111052 -0.0663478
0.022404954 0.020544238 -0.04768113 -0.023679536 0.041295223 -0.0070423107 -0.0127778435 0.05063511
-0.06577039 0.025577236 -0.024539925 0.015134742 0.010749098 -0.053026926 -0.0067361663 -0.07226624
-0.010269743 -0.07624069 -0.006519843 0.0027489907 -0.012471119 -0.011415118 -0.0880494 -0.012951432
-0.048313394 -0.08553044 0.047193114 0.035528805 -0.032282945 0.024616357 -0.019822875 -0.027204838
-0.07015925 -0.0399428 0.020495806 -0.0075335475 -0.009040729 0.005098486 -0.08139145 -0.036404144
-0.0018374423 -0.061514415 -0.077793926 -0.043580566 -0.01249515 -0.09525283 -0.011965171 0.038122643
0.017084736 -0.022963028 -0.07062937 0.00744074 -0.03477156 0.025282715 -0.009776146 -0.06773406
-0.01980717 -0.07136826 -0.01746979 -0.0028092545 0.03250032 0.019198408 0.017467272 -0.0023046944
-0.065021865 -0.030455645 0.012329557 -0.01336978 0.02862918 -0.021429198 0.043184586 -0.028190473
0.0034372497 -0.051164918 0.033572398 -0.042238332 0.002957757 0.032537654 0.035083983 -0.016607206
0.060768742 -0.06159886 0.01961733 -0.03128455 -0.036950447 -0.0026766388 0.038715187 -0.007119426
-0.031740267 -0.08625465 -0.0016381592 -0.048012756 -0.029662719 -0.017493043 -0.100035906 0.0022945264
-0.037720803 -0.058289677 -0.08089667 0.0055393036 -0.021294214 -0.026563097 -0.00010129914 -0.026418734
-0.037241895 -0.011631782 -0.027954714 0.00971703 0.01097548 -0.0040816907 0.043767147 0.03257029
-0.05845349 -0.04230897 0.06975005 0.004502125 0.021674106 -0.04162062 0.012501327 0.04253451
-0.027152224 -0.050978065 -0.0148540335 -0.023726417 -0.044935025 0.017264226 -0.04998217 -0.09471853
-0.036707822 0.020951955 -0.038428463 0.04809914 -0.08444842 -0.06301355 -0.010345592 -0.005807709
0.059530295 -0.054918796 -0.028658208 0.044366084 -0.006416523 0.0017617568 0.00034686897 0.006134776
0.033538133 -0.02376822 0.0149962185 -0.06556076 -0.0485269 -0.055465 0.040640224 0.016559098
-0.097624466 -0.06728654 0.0096291425 0.051943325 -0.05440407 -0.020807322 -0.07907651 -0.007966374
0.033321287 -0.0025742808 -0.000109735636 -0.0011379621 -0.013739644 0.061892968 0.026765972 -0.0259152
00000000: b54f e53b caac c2bc 820e 5ebd 735a d5bc
00000010: da5e 053d df1c 4e3d 116b c8bd 5496 10bd
00000020: 8dc9 a3bd 1fe7 bb3c d7b0 bcbb f4fa b8bd
00000030: 693b 7c3b b03a 8939 99c6 b4bc 3fa1 f33b
00000040: 739e a1bc 3478 853c 7d54 86bc 3962 1dbd
00000050: 10f1 5b3d 1c33 ecbc ecb8 563d 6f5b dd3c
00000060: 91dd 3d3d 0c14 49bd e99f 683b d9c4 b8bd
00000070: 5f2d 54bd 4f7b a2bd da2a 843c dd27 2e3d
00000080: 7b81 ce3c 1fc8 f2bd 81bb e1bc fdf7 b03c
00000090: e83c 11bd 8bd0 57bd 535f 023d 5155 4a3d
000000a0: ad33 563d 4ab9 ebbc 29ee 153d b9b8 55bd
000000b0: 5824 e5bb 4e62 333c 6ccd 27bd 7eb4 9abc
000000c0: dca5 02bd 411c 49bd c0e7 48bc bcfa a9bc
000000d0: e34a 10bc 02ee a23c dda8 89bd 35db 4fbd
000000e0: fbfc 273d 839a 32bd 0336 b3bb e354 15bd
000000f0: dc79 bc3c 5113 80bc af94 cb3c b3e9 283d
00000100: 4cdc bcbb fbc8 52bd f782 833d 7f83 5c3d
00000110: 1a6d 393d 59ad 133d 5a6a 833d e759 063d
00000120: 8dc6 233d e6c3 1a3c 3dd6 95bb eaad e83c
00000130: 577c 67bd 69ef 8ebd 95e6 27bd 860c 40bc
00000140: 872d 853c 8af1 53bd 9eb4 80bd 977f be3c
00000150: c4c9 c93c 85b2 2c3c 0b32 67bc 5be1 87bd
00000160: 988a b73c 644c a83c 4a4d 43bd 96fb c1bc
00000170: 2e25 293d 2fc3 e6bb 295a 51bc c366 4f3d
00000180: a0b2 86bd 5a87 d13c f407 c9bc b5f7 773c
00000190: fc1c 303c c332 59bd 0fbb dcbb 5300 94bd
000001a0: 6d42 28bc 1424 9cbd 68a4 d5bb 6928 343b
000001b0: aa53 4cbc 7a06 3bbc 3e53 b4bd 3e32 54bc
000001c0: 44e4 45bd 952a afbd 914d 413d a786 113d
000001d0: 1f3b 04bd 3ea8 c93c 9563 a2bc aedc debc
000001e0: a7af 8fbd 109b 23bd d2e6 a73c fadb f6bb
000001f0: 911f 14bc 3311 a73b 8fb0 a6bd 831c 15bd
00000200: 55d6 f0ba 8af6 7bbd 6c52 9fbd 8981 32bd
00000210: 75b8 4cbc ea13 c3bd 9109 44bc 7d26 1c3d
00000220: 4af5 8b3c f61c bcbc 22a6 90bd 73d1 f33b
00000230: a06c 0ebd b21d cf3c 212c 20bc 28b8 8abd
00000240: a542 a2bc 8629 92bd ce1c 8fbc 781b 38bb
00000250: 0e1f 053d fb45 9d3c 8617 8f3c 5b0a 17bb
00000260: 2f2a 85bd 1e7e f9bc e901 4a3c ec0c 5bbc
00000270: be87 ea3c 498c afbc 52e2 303d b5ef e6bc
00000280: 7b43 613b 4e92 51bd 3683 093d 1a02 2dbd
00000290: eed6 413b 3446 053d 39b4 0f3d d60b 88bc
000002a0: a5e8 783d 164f 7cbd 86b4 a03c 3a24 00bd
000002b0: 5a59 17bd 8c6a 2fbb d193 1e3d 134a e9bb
000002c0: 1502 02bd 47a6 b0bd 80b7 d6ba 06a9 44bd
000002d0: 3bff f2bc 924d 8fbc a0df ccbd c45f 163b
000002e0: 2181 1abd 28c1 6ebd 27ad a5bd 0c83 b53b
000002f0: 3471 aebc da9a d9bc 9070 d4b8 1a6c d8bc
00000300: f58a 18bd 3b93 3ebc 4901 e5bc 2e34 1f3c
00000310: 80d2 333c b4bf 85bb 2e45 333d 6d68 053d
00000320: ed6c 6fbd 2c4c 2dbd 1dd9 8e3d 9086 933b
00000330: e58d b13c 627a 2abd 5ed2 4c3c ab38 2e3d
00000340: 576e debc 60ce 50bd 555e 73bc e75d c2bc
00000350: ca0d 38bd b56d 8d3c 1bba 4cbd cafb c1bd
00000360: f15a 16bd 6fa3 ab3c 2a67 1dbd 9b03 453d
00000370: 4bf3 acbd 400d 81bd 8f80 29bc 984e bebb
00000380: 0ad6 733d 88f2 60bd 9ec4 eabc 36b9 353d
00000390: b241 d2bb c0ea e63a f7db b539 3b06 c93b
000003a0: 485f 093d 92b5 c2bc b3b2 753c b844 86bd
000003b0: 25c4 46bd 452f 63bd 5d76 263d f2a6 873c
000003c0: 56ef c7bd 87cd 89bd 8dc3 1d3c 86c2 543d
000003d0: cdd6 5ebd 1e74 aabc def2 a1bd 6585 02bc
000003e0: e77b 083d 44b5 28bb df21 e6b8 ac27 95ba
000003f0: 3e1c 61bc 7b83 7d3d 5044 db3c 1d4c d4bc

bn2.running_mean f4 [4]
-1.4454942 -1.3367139 -1.7898147 -1.3108923
00000000: f405 b9bf 7119 abbf a618 e5bf 52cb a7bf

bn2.running_var f4 [4]
3.4714732 2.8943956 3.8796074 3.3478303
00000000: 9e2c 5e40 c73d 3940 7d4b 7840 da42 5640

fc1.weight f4 [32, 196]
0.06840014 0.00858552 0.03690784 -0.012743156 0.020926824 0.009450062 -0.015823994 -0.050339777
0.06300522 -0.032461375 -0.041822758 -0.03345764 -0.043280125 -0.03668101 0.00573792 -0.044612564
0.022700513 0.045026787 -0.008293961 -0.01596427 -0.011530191 0.009869297 0.032224536 -0.00055008975
-0.008179018 0.012306751 0.04851259 0.021765592 0.011130347 0.008595057 0.025938079 -0.009605233
0.012350045 0.047576893 0.061574996 -0.0076378733 0.043786027 -0.017882556 0.037290394 0.021195842
-0.008880473 -0.039008897 0.011139515 -0.065157555 -0.0084568 -0.025844477 0.00904901 -0.019190498
0.067366675 0.017043099 -0.03990455 -0.043440644 0.014517383 0.0056570773 0.033428434 0.034911107
-0.029284867 0.057388104 -0.033369694 0.001035834 0.013096219 -0.021828882 -0.010253129 -0.0055750795
-0.03552085 0.01578761 -0.0055095456 -0.0016554032 0.0017849649 -0.026173782 0.04951153 -0.0079594115
0.039010096 -0.023134386 -0.0026510083 0.056151424 -0.045624483 -0.026102921 0.03454998 0.024638353
0.03550073 -0.018063668 0.02929919 -0.06824757 -0.05456637 0.03582623 0.039959725 -0.029176801
0.008572069 -0.0028129958 0.025821907 -0.024237772 -0.027495068 0.03493531 -0.03329565 -0.006644381
-0.0075101075 -0.031904545 -0.04786217 0.05487132 0.061487723 0.042432204 0.055443823 0.042149354
0.018060628 0.057533912 -0.05153486 0.045915745 -0.00067061424 0.03017498 0.04239271 0.03338981
-0.016119802 -0.04992635 -0.008037491 -0.011141304 -0.01687703 -0.0019638478 -0.03297703 -0.0021117555
0.038676575 0.012074859 -0.056458823 0.023982894 -0.05990596 -0.04371413 -0.024688032 -0.040072586
0.019400956 0.022718892 -0.017443882 0.015404138 0.04883269 -0.06861416 -0.065766126 -0.029722912
-0.05633164 -0.016358325 -0.037463587 0.049312897 -0.016490165 0.01682817 0.047811076 -0.024858925
0.012175744 -0.0017980362 -0.05988797 -0.00693219 -0.052093014 0.039564427 0.06084694 0.05267811
-0.04912485 -0.043372445 -0.06592383 0.05615645 -0.003137943 -0.047386702 0.01696133 -0.037348602
0.04137274 0.05966155 0.060030177 0.04007935 -0.015691996 0.0038670702 0.032246027 -0.004295536
-0.047183562 -0.04793916 -0.020969175 0.031065825 -0.05267576 -0.014611355 0.081552066 0.06332512
0.045542672 -0.040879395 -0.024923746 0.002338622 -0.06183714 -0.046356183 0.059763603 0.0030802682
0.012684168 0.0196227 0.015435809 -0.039265957 0.056524098 0.04539386 0.0016493958 0.021095354
-0.0044549145 0.03463035 0.022324149 0.040883984 0.027097823 0.038842853 0.043698236 -0.017889023
0.02641745 -0.060171418 -0.05923237 -0.081839345 0.05787659 -0.029911848 0.043828495 -0.010082185
-0.029910887 0.06799695 0.045149945 -0.00061442214 0.04051018 0.042500664 -0.02110871 -0.04408776
-0.036237117 -0.05288369 0.06842807 -0.027517676 -0.07268634 0.014805889 0.0479665 0.027213393
-0.071868286 0.010616221 0.0015688209 0.004997763 -0.032063227 -0.036911495 -0.055699144 -0.05840511
0.04375088 0.0032706114 0.01196511 -0.0013956586 0.016606232 0.0497517 0.029915486 0.01593161
0.049629565 0.002027902 -0.013220855 0.048171643 -0.08951989 0.012681747 -0.06289232 -0.043469694
0.011191324 0.0003112344 0.042569827 -0.03180317 -4.3072592e-05 0.023693617 -0.053712673 0.035086893
00000000: 5f15 8c3d 48aa 0c3c ad2c 173d acc8 50bc
00000010: bb6e ab3c 6fd4 1a3c 52a1 81bc 1531 4ebd
00000020: e108 813d 38f6 04bd 574e 2bbd e10a 09bd
00000030: 8046 31bd d43e 16bd 2905 bc3b aabb 36bd
00000040: 6df6 b93c 026e 383d 65e3 07bc 80c7 82bc
00000050: 20e9 3cbc d5b2 213c e0fd 033d e633 10ba
00000060: 4a01 06bc 41a2 493c 23b5 463d c14d b23c
00000070: 0f5c 363c 48d2 0c3c 187c d43c 445f 1dbc
00000080: d857 4a3c fddf 423d 1036 7c3d 2047 fabb
00000090: fa58 333d 707e 92bc d0bd 183d e7a2 ad3c
000000a0: 677f 11bc cbc7 1fbd 8382 363c 5371 85bd
000000b0: 648e 0abc ccb7 d3bc 4d42 143c 6435 9dbc
000000c0: 8af7 893d f89d 8b3c f472 23bd d1ee 31bd
000000d0: 51da 6d3c 015f b93b 41ec 083d f3fe 0e3d
000000e0: d1e6 efbc ca0f 6b3d a9ae 08bd d2c4 873a
000000f0: 8691 563c 7cd2 b2bc bdfc 27bc 28af b6bb
00000100: 507e 11bd 0555 813c 6b89 b4bb 1dfa d8ba
00000110: 7cf5 e93a 666a d6bc 9acc 4a3d 3168 02bc
00000120: 0dc9 1f3d 5384 bdbc 8abc 2dbb 09ff 653d
00000130: bde0 3abd cbd5 d5bc 4884 0d3d 5fd6 c93c
00000140: 3769 113d 42fa 93bc db04 f03c 62c5 8bbd
00000150: fc80 5fbd 86be 123d cfac 233d 3004 efbc
00000160: dd71 0c3c 3d5a 38bb 7788 d33c 4b8e c6bc
00000170: 563d e1bc 5418 0f3d 0561 08bd 1cb9 d9bb
00000180: 5917 f6bb 57ae 02bd 1f0b 44bd c0c0 603d
00000190: 8dda 7b3d 64cd 2d3d 1019 633d cda4 2c3d
000001a0: e2f3 933c aea8 6b3d 3816 53bd 2612 3c3d
000001b0: 29cc 2fba 8531 f73c faa3 2d3d c1c3 083d
000001c0: ad0d 84bc 937f 4cbd aeaf 03bc 048a 36bc
000001d0: b241 8abc e6b3 00bb ec12 07bd 6165 0abb
000001e0: 546b 1e3d a1d5 453c 5e41 67bd c677 c43c
000001f0: f45f 75bd 960d 33bd 8e3e cabc 2723 24bd
00000200: c1ee 9e3c f81c ba3c 79e6 8ebc a361 7c3c
00000210: c904 483d 9585 8cbd 64b0 86bd 777d f3bc
00000220: 01bc 66bd e501 86bc 6b73 19bd 52fc 493d
00000230: 6216 87bc 3bdb 893c 8cd5 433d f2a4 cbbc
00000240: c67c 473c 15ac ebba 174d 75bd 6d27 e3bb
00000250: 7c5f 55bd 4f0e 223d a43a 793d 00c5 573d
00000260: 2437 49bd 4ea7 31bd 1303 87bd 4e04 663d
00000270: f3a5 4dbb 8f18 42bd 7df2 8a3c d9fa 18bd
00000280: 7676 293d ab5f 743d 34e2 753d 3f2a 243d
00000290: 808c 80bc ac6e 7d3b 6914 043d 91c1 8cbb
000002a0: 8d43 41bd da5b 44bd 8cc7 abbc c27d fe3c
000002b0: 8ac2 57bd 7764 6fbc c504 a73d 9ab0 813d
000002c0: f48a 3a3d 2771 27bd e22c ccbc 9143 193b
000002d0: f148 7dbd fbdf 3dbd aeca 743d 53de 493b
000002e0: 42d1 4f3c c9bf a03c 7ae6 7c3c 57d5 20bd
000002f0: d085 673d eaee 393d 8a30 d83a 2ad0 ac3c
00000300: 88fa 91bb 8ed8 0d3d 22e1 b63c f775 273d
00000310: 41fc dd3c af19 1f3d ecfc 323d 008c 92bc
00000320: 6869 d83c 4e76 76bd a49d 72bd 639b a7bd
00000330: 0110 6d3d b109 f5bc 8285 333d c02f 25bc
00000340: ad07 f5bc fc41 8b3d 26ef 383d 2c11 21ba
00000350: 01ee 253d 2d15 2e3d 2cec acbc 5e95 34bd
00000360: 5f6d 14bd 919c 58bd 0424 8c3d c06c e1bc
00000370: 93dc 94bd 6694 723c 8578 443d 9fee de3c
00000380: ae2f 93bd a9ef 2d3c e5a0 cd3a 46c4 a33b
00000390: bb54 03bd 8230 17bd c924 64bd 323a 6fbd
000003a0: 1f34 333d c157 563b 4f09 443c 88ee b6ba
000003b0: cb09 883c 70c8 4b3d 5211 f53c 0283 823c
000003c0: 5f48 4b3d 8de6 043b 499c 58bc a14f 453d
000003d0: 3456 b7bd 1ac7 4f3c b0cd 80bd 470d 32bd
000003e0: d15b 373c 2d2d a339 b35d 2e3d 0a44 02bd
000003f0: d8a8 34b8 1e19 c23c d201 5cbd 46b7 0f3d

conv1.weight f4 [8, 1, 5, 5]
-0.12052114 0.06413125 0.21702115 0.17391543 0.10353281 -0.09331959 0.09578614 -0.11346021
0.031390812 0.1685207 0.20362787 -0.050360832 0.20033817 0.03141749 0.1213483 -0.11663813
0.17777112 0.044436716 0.11121227 0.10482439 -0.10813506 -0.01976485 -0.0074844006 -0.14744234
-0.07232227 0.17156368 0.00047027585 -0.10535956 0.17917566 -0.074199565 -0.03366858 0.17586015
0.0492659 0.08063782 -0.16990793 0.10960079 0.051722836 0.117177136 0.045531254 -0.084874354
-0.13647841 0.15164277 -0.085308336 -0.0074819895 0.14330584 0.0885657 -0.14568107 -0.102202155
-0.0093276305 -0.02923688 -0.071393594 -0.036437612 0.12674785 -0.03865384 -0.19239242 0.06321225
-0.16575982 -0.032805342 -0.1503398 0.11134433 -0.14588007 0.05096586 -0.021088513 0.18644589
-0.100044124 0.18906066 -0.17005357 0.1300994 -0.10109603 -0.044247262 0.059375677 0.06548194
0.18545647 0.11216361 -0.055364154 0.1001396 0.04610486 0.17617914 0.15854591 -0.18385565
-0.024505233 0.115326025 0.004138899 -0.15659472 0.0022056834 -0.05436277 0.06992855 0.101019405
0.15905628 0.15611896 0.019410504 0.18934979 -0.05566829 0.030318346 0.18541725 -0.10645877
0.040336996 -0.03780378 0.13172519 0.039859243 0.11793851 0.049639408 0.19838122 -0.0023855057
0.038472164 -0.048581533 -0.10826806 0.10998255 0.107504904 0.1783757 0.16251692 0.054682493
0.012867773 0.14627172 0.04778212 0.08622919 0.020243375 0.15668951 0.04403116 -0.16624229
0.08512884 -0.011003768 0.18247561 0.032379325 0.010477326 0.15411925 0.036390737 -0.12882826
0.043719098 0.16205285 0.028972356 0.11679836 0.18963838 -0.045317188 0.056785405 -0.103021
0.015755294 -0.04773784 0.032728713 0.1604974 0.045124598 0.05763769 0.08969027 -0.052424505
0.09396876 0.02452907 0.023673963 -0.016170083 0.12725073 -0.1685241 0.16163215 -0.18350181
-0.055525262 0.12710999 -0.09922169 -0.084648 -0.00062896824 -0.056966033 -0.1721616 0.03051368
0.02075257 0.01621779 0.01983752 0.12071689 -0.1926577 -0.041870147 0.09255193 -0.16465467
0.07264649 -0.023665205 0.14435358 0.024432309 0.19367918 0.118149266 0.06543224 0.092877194
0.10441925 0.046619512 0.07448598 0.034439445 -0.12956174 -0.11675763 0.080510944 0.047661327
0.055299442 -0.12851699 -0.05849994 0.031430904 -0.012461273 0.16115671 0.07685044 0.039507315
-0.11958165 0.11921495 -0.08817597 -0.07182382 0.13968326 0.0610188 -0.13812621 0.17204791
00000000: cad3 f6bd 3f57 833d cb3a 5e3e e316 323e
00000010: 0309 d43d 571e bfbd 862b c43d d45d e8bd
00000020: a793 003d b190 2c3e d383 503e 2947 4ebd
00000030: 7325 4d3e a0af 003d 7585 f83d f9df eebd
00000040: a209 363e 4603 363d 42c3 e33d 2bae d63d
00000050: ea75 ddbd e5e9 a1bc b43f f5bb 20fb 16be
00000060: b31d 94bd 64ae 2f3e 5b8f f639 c1c6 d7bd
00000070: d379 373e f1f5 97bd 11e8 09bd af14 343e
00000080: 0acb 493d 7125 a53d 58fc 2dbe 6176 e03d
00000090: 53db 533d 91fa ef3d fb7e 3a3d 9bd2 adbd
000000a0: ffc0 0bbe 3e48 1b3e 23b6 aebd 7a2b f5bb
000000b0: c4be 123e ef61 b53d 6b2d 15be 5d4f d1bd
000000c0: ebd2 18bc 2e82 efbc ce36 92bd 9b3f 15bd
000000d0: 30ca 013e 7d53 1ebd 8502 45be 6d75 813d
000000e0: f1bc 29be e55e 06bd adf2 19be 7f08 e43d
000000f0: 9661 15be 94c1 503d d1c1 acbc aceb 3e3e
00000100: efe3 ccbd 1e99 413e 8622 2ebe c738 053e
00000110: 6f0b cfbd 9e3c 35bd e933 733d 651b 863d
00000120: 4de8 3d3e 09b6 e53d 86c5 62bd fe15 cd3d
00000130: 73d8 3c3d 4e68 343e dc59 223e a844 3cbe
00000140: 33bf c8bc 0d30 ec3d 9a9f 873b 5e5a 20be
00000150: 3a8d 103b 7fab 5ebd b336 8f3d 43e3 ce3d
00000160: a6df 223e a6dd 1f3e c702 9f3c e9e4 413e
00000170: 6f04 64bd 2e5e f83c 05de 3d3e 0e07 dabd
00000180: 6838 253d 23d8 1abd f8e2 063e 7243 233d
00000190: bf89 f13d b152 4b3d 7224 4b3e 2556 1cbb
000001a0: fd94 1d3d 6efd 46bd a5bb ddbd 883e e13d
000001b0: 882b dc3d 1fa8 363e d66a 263e c0fa 5f3d
000001c0: 5ad3 523c 41c8 153e 2fb7 433d ee98 b03d
000001d0: 6fd5 a53c 3773 203e 055a 343d 6b3b 2abe
000001e0: 0758 ae3d 2649 34bc e3da 3a3e 2fa0 043d
000001f0: 17a9 2b3c 70d1 1d3e 740e 153d 8eeb 03be
00000200: cc12 333d 2ff1 253e 6f57 ed3c fb33 ef3d
00000210: 9030 423e 849e 39bd d097 683d adfc d2bd
00000220: 3f11 813c c188 43bd 8b0e 063d 6e59 243e
00000230: 92d4 383d 8015 6c3d 88af b73d 14bb 56bd
00000240: b172 c03d 30f1 c83c e6ef c13c 1f77 84bc
00000250: 044e 023e 9591 2cbe e682 253e e6e7 3bbe
00000260: 756e 63bd 1f29 023e be34 cbbd ee5b adbd
00000270: 58e1 24ba 3755 69bd 214b 30be d3f7 f93c
00000280: 4b01 aa3c 2cdb 843c 4b82 a23c 6b3a f73d
00000290: 0f48 45be 0880 2bbd de8b bd3d 3c9b 28be
000002a0: afc7 943d 88dd c1bc 6dd1 133e 4426 c83c
000002b0: d653 463e 3ef8 f13d 5701 863d 6636 be3d
000002c0: c2d9 d53d 1af4 3e3d 1b8c 983d 6010 0d3d
000002d0: d5ab 04be a01e efbd ece2 a43d 8638 433d
000002e0: ab81 623d f599 03be a29d 6fbd b1bd 003d
000002f0: 5e2a 4cbc 4406 253e c363 9d3d 6cd2 213d
00000300: 39e7 f4bd f826 f43d 9a95 b4bd 5e18 93bd
00000310: 2109 0f3e d9ee 793d f570 0dbe 542d 303e

bn1.running_mean f4 [8]
0.054891326 0.020859856 -0.0023258112 0.06052376 0.082261026 0.04883647 0.0070333225 0.025654817
00000000: bad5 603d 4ae2 aa3c a36c 18bb c3e7 773d
00000010: 7878 a83d c008 483d c977 e63b 0d2a d23c

bn1.running_var f4 [8]
0.008883881 0.0027686558 0.0023204144 0.007196925 0.0114117935 0.004381693 0.002689812 0.0021026332
00000000: b38d 113c 5672 353b 1812 183b 2fd4 eb3b
00000010: 88f8 3a3c 4e94 8f3b 8f47 303b 55cc 093b

conv2.weight f4 [4, 8, 5, 5]
-0.03158408 -0.02483912 -0.029772637 0.006609582 0.040068366 0.04971358 -0.08147384 -0.0031616131
-0.07609541 0.027230835 0.007034717 -0.07515412 0.026528195 -0.0067483685 -0.01489255 0.021424064
-0.01459963 0.019202983 -0.018260496 -0.036061663 0.035613872 -0.0436776 0.04733599 0.031201754
0.058985304 -0.075571604 -0.03964514 -0.09048973 -0.029539607 -0.07273694 0.0049637416 0.014669627
0.042044144 -0.08521969 -0.0057970546 0.044500843 -0.022025764 -0.039623283 0.05539645 0.04456268
0.07573151 -0.017146671 0.045160625 -0.052511282 -0.003754432 0.034169365 -0.060645368 -0.039103184
-0.05058918 -0.05076303 0.016327048 0.0062946305 0.006802689 0.05735838 -0.057422224 -0.030649994
0.056999132 -0.039872896 0.012769705 -0.03660862 0.03086753 -0.028267164 -0.01211057 0.04084146
-0.009428265 -0.07001972 0.050682914 0.043621294 0.057098873 0.03494279 0.04898258 0.020523995
0.03057382 0.02234487 -0.004595229 -0.0019385668 -0.048743047 -0.046177972 -0.038758673 -0.0042151813
0.020208715 -0.04486409 -0.03547455 0.047980804 0.04504245 0.026536465 -0.0071744975 -0.050206743
0.032580838 0.024127716 -0.03564416 -0.023706025 0.047525547 -0.000485407 -0.009037277 0.05257695
-0.06846795 0.0471901 -0.025676863 0.029785285 -0.013960896 -0.06339995 0.012289412 -0.033351723
0.0038662015 -0.061821457 0.0074677314 0.0285328 0.016799934 -0.018168366 -0.06602764 0.004655944
-0.024354879 -0.07707537 0.05994966 0.057450477 -0.028728722 0.028972266 -0.014820786 -0.021897452
-0.0721351 -0.066782735 0.024328437 0.0070638806 0.0020868303 -0.02756026 -0.08997187 -0.017302984
0.03043289 -0.060039803 -0.0661112 -0.026455618 0.013239043 -0.06665091 0.014992832 0.06118092
0.036056392 -0.00206799 -0.064927734 0.03332533 -0.017112844 0.033110984 -0.005759618 -0.067193806
-0.009451099 -0.06161055 -0.04335006 -0.0010903273 0.047274053 0.031406336 0.039058585 0.011534904
-0.03919749 0.011261978 0.03208836 0.005454241 0.04037831 -0.016214581 0.04845249 -0.03298757
0.027051738 -0.057602614 0.0178708 -0.0407121 0.0069550523 0.04930935 0.02610466 -0.020650433
0.06400393 -0.066682614 0.0066646617 -0.056827426 -0.045863397 0.009262188 0.05529496 -0.009595236
-0.024049446 -0.057920378 0.00012528755 -0.04476176 -0.031673923 -0.0013318559 -0.07311695 0.00920275
-0.041204985 -0.0383005 -0.06512026 0.031848766 -0.016336935 -0.009529864 0.013009629 -0.022771483
-0.034376934 -0.0051081227 -0.020590853 -0.020467777 0.00372723 0.00567482 0.056351382 0.054230057
-0.0683082 -0.051806975 0.06655436 -0.018172428 -0.0023961035 -0.05447759 0.0020036814 0.02139643
-0.04921264 -0.08064838 -0.030014785 -0.02184036 -0.055042822 0.011451765 -0.07033657 -0.053831853
-0.0060768067 0.017506408 -0.056689136 0.04760143 -0.053505693 -0.0564524 -0.008547249 -0.013413117
0.046736576 -0.06574408 -0.0290611 0.0463467 -0.025796007 -0.029565005 0.017516287 -0.007821079
0.028618077 -0.04186099 0.0008572165 -0.045600377 -0.061936304 -0.05973998 0.030817593 0.011588417
-0.07210096 -0.027113745 0.044009168 0.043527074 -0.07922012 0.00043715833 -0.050129957 0.0055036475
0.053958047 0.014830202 0.029338803 -0.0053046853 -0.039640978 0.064256914 0.03448213 0.0016316582
00000000: 4f5e 01bd 697b cbbc bfe5 f3bc 3195 d83b
00000010: ba1e 243d 78a0 4b3d c2db a6bd 1133 4fbb
00000020: e9d7 9bbd 3313 df3c 7c83 e63b 67ea 99bd
00000030: a851 d93c 6b21 ddbb e2ff 73bc 8581 af3c
00000040: 4933 6fbc 934f 9d3c 0997 95bc 65b5 13bd
00000050: dadf 113d 48e7 32bd 62e3 413d d29a ff3c
00000060: 939a 713d 49c5 9abd f162 22bd ae52 b9bd
00000070: 0cfd f1bc 1bf7 94bd e2a6 a23b e058 703c
00000080: 7b36 2c3d a987 aebd 38f5 bdbb 8446 363d
00000090: 606f b4bc 064c 22bd 63e7 623d 5b87 363d
000000a0: 1f19 9b3d 2d77 8cbc 59fa 383d 1216 57bd
000000b0: eb0c 76bb 2df5 0b3d 4767 78bd a92a 20bd
000000c0: 9a36 4fbd e5ec 4fbd 4dc0 853c 3043 ce3b
000000d0: 17e9 de3b 9ff0 6a3d 9133 6bbd b215 fbbc
000000e0: ec77 693d c351 23bd 0638 513c ecf2 15bd
000000f0: e7dd fc3c 8a90 e7bc 6a6b 46bc 6049 273d
00000100: 0279 1abc 8066 8fbd e398 4f3d 3eac 323d
00000110: 82e0 693d 2c20 0f3d f5a1 483d f021 a83c
00000120: f375 fa3c 970c b73c 9393 96bb 8217 feba
00000130: caa6 47bd 1d25 3dbd 6ac1 1ebd 811f 8abb
00000140: bf8c a53c 68c3 37bd c34d 11bd 8587 443d
00000150: 6f7e 383d 0063 d93c 0c18 ebbb 96a5 4dbd
00000160: 7c73 053d 7da7 c53c 9cff 11bd 2333 c2bc
00000170: 26aa 423d 3a7e feb9 1611 14bc ee5a 573d
00000180: ed38 8cbd 684a 413d 4958 d2bc 4500 f43c
00000190: 3ebc 64bc d5d7 81bd 8859 493c d19b 08bd
000001a0: 1960 7d3b 7f38 7dbd dfb3 f43b 9ebd e93c
000001b0: 04a0 893c d3d5 94bc 8039 87bd e490 983b
000001c0: e283 c7bc b1d9 9dbd c68d 753d 3151 6b3d
000001d0: 7f58 ebbc 3f57 ed3c e2d2 72bc 4962 b3bc
000001e0: 91bb 93bd 63c5 88bd 6e4c c73c 2078 e73b
000001f0: 34c3 083b 0ec6 e1bc 2c43 b8bd fdbe 8dbc
00000200: 654e f93c 4cec 75bd 4f65 87bd 74b9 d8bc
00000210: 92e8 583c 4680 88bd 7fa4 753c d898 7a3d
00000220: deaf 133d 1d87 07bb d5f8 84bd 2480 083d
00000230: 3c30 8cbc 629f 073d 2dbb bcbb e89c 89bd
00000240: c8d8 1abc 585b 7cbd d58f 31bd 50e9 8eba
00000250: 70a2 413d eea3 003d e5fb 1f3d e5fc 3c3c
00000260: 8c8d 20bd 2984 383c 166f 033d 7db9 b23b
00000270: ba63 253d 71d4 84bc 1e76 463d f91d 07bd
00000280: 9b9b dd3c b8f0 6bbd c965 923c bbc1 26bd
00000290: 35e7 e33b 9af8 493d 71d9 d53c 192b a9bc
000002a0: 7e14 833d e590 88bd 3c63 da3b e0c3 68bd
000002b0: 42db 3bbd 6fc0 173c f87c 623d 5635 1dbc
000002c0: 5803 c5bc eb3d 6dbd 9f5f 0339 1b58 37bd
000002d0: 84bc 01bd ab91 aeba 57be 95bd 22c7 163c
000002e0: 8fc6 28bd fce0 1cbd c55d 85bd da73 023d
000002f0: 09d5 85bc 2623 1cbc 5726 553c 438b babc
00000300: d4ce 0cbd 0a62 a7bb 26ae a8bc 0aac a7bc
00000310: 8b44 743b d7f3 b93b b5d0 663d 5620 5e3d
00000320: 2be5 8bbd 8d33 54bd a74d 883d 58de 94bc
00000330: f207 1dbb e523 5fbd 3250 033b 9147 af3c
00000340: 3193 49bd fa2a a5bd 91e1 f5bc 8eea b2bc
00000350: 9574 61bd 2fa0 3b3c 9f0c 90bd ca7e 5cbd
00000360: f31f c7bb 9969 8f3c de32 68bd b8f9 423d
00000370: c928 5bbd a23a 67bd c309 0cbc b1c2 5bbc
00000380: da6e 3f3d d5a4 86bd 8b11 eebc 0ad6 3d3d
00000390: 2652 d3bc 4f32 f2bc 517e 8f3c fc23 00bc
000003a0: 7570 ea3c 6e76 2bbd d3b6 603a 76c7 3abd
000003b0: ecb0 7dbd e9b1 74bd 2d75 fc3c 58dd 3d3c
000003c0: aba9 93bd a51d debc f542 343d 7249 323d
000003d0: 293e a2bd 6632 e539 1255 4dbd f157 b43b
000003e0: 1d03 5d3d 60fa 723c ee57 f03c edd2 adbb
000003f0: 945e 22bd 2199 833d 223d 0d3d 5ddd d53a

bn2.running_mean f4 [4]
-0.687553 -1.269386 -1.0346296 -0.88986486
00000000: 7903 30bf 3e7b a2bf be6e 84bf 2fce 63bf

bn2.running_var f4 [4]
1.0908561 1.4136769 1.3174436 1.6184568
00000000: 2ca1 8b3f 5df3 b43f fea1 a83f 9829 cf3f

fc1.weight f4 [32, 196]
0.06357798 0.011487628 0.046862815 -0.010831207 0.018787196 0.0074000214 -0.013800911 -0.06213224
0.054591674 -0.04115496 -0.06341382 -0.042838894 -0.040820014 -0.03302593 0.0018331225 -0.042934645
0.005770433 0.05568904 0.011871896 -0.055827677 -0.0049422723 0.01110432 0.06493771 -0.05212477
0.00083902344 0.0458716 0.0649615 0.029142745 0.015906468 0.021456487 0.043274213 0.05652033
-0.009483837 0.07802103 0.065731786 -0.0074524493 0.050233826 -0.07431535 0.015742317 -0.003914151
0.009037181 -0.035159267 0.0118433945 -0.074916355 -0.015470105 -0.03505438 -0.002484562 -0.007680186
0.07074964 0.016475461 -0.042395845 -0.056772787 0.0024266401 -0.00034620543 0.04271273 0.052286476
-0.028693495 0.0625729 -0.012363368 -0.03138304 0.053619977 -0.055650007 -0.014945495 -0.004331409
-0.028127374 0.057415076 -0.0718024 0.04822425 0.012839265 -0.0148996785 0.052420482 -0.0062098145
0.072154224 -0.059504285 0.009818773 0.04803204 -0.047391113 -0.025784228 0.04572647 0.029195651
-0.018093983 -0.037897006 0.0036675453 -0.059438597 -0.05761399 0.039417423 0.032132972 -0.066563524
0.010625939 -0.0036510099 0.035784148 -0.025420504 -0.03415298 0.027849013 -0.046598617 -0.019625185
-0.006395283 -0.029247597 -0.04845159 0.055811673 0.067029595 0.04367886 0.04305272 0.033442684
0.016374368 0.056301806 -0.06233998 0.052095942 -0.007578127 0.039557654 0.071746305 0.049289837
-0.012039517 -0.049888667 -0.033698797 -0.010653631 0.015574841 -0.022801772 -0.024064552 0.004516271
0.07628591 -0.033620358 -0.050292294 0.038008083 -0.07964673 -0.036184467 -0.021318674 -0.03237744
0.0259883 0.04279129 -0.03418494 0.011940176 0.058653962 -0.06988509 -0.07594925 -0.07816809
-0.07778787 -0.040038884 -0.019964833 0.05336149 -0.01606776 0.01551586 0.046630017 -0.03980313
0.028866762 0.006393306 -0.058662403 -0.012483336 -0.05035219 0.04612928 0.059613325 0.05355808
-0.04754529 -0.041259103 -0.07774238 0.054150976 -0.009586011 -0.06680847 0.0074654096 -0.035664342
0.047485594 0.053564403 0.06431364 0.05248115 -0.04745071 0.03188194 0.03255144 -0.012071485
-0.052451015 -0.043922905 0.005710701 0.006539016 -0.014241812 0.0013036855 0.095499314 0.05968429
0.04854906 -0.034683645 -0.010924133 0.027489653 -0.09153749 -0.042816617 0.05956394 0.0057709683
0.015377815 -0.029487632 0.01324689 -0.070859306 0.070576325 0.044824608 0.003910054 0.0258101
-0.0029909054 0.02194936 0.03498686 0.049217198 0.038507115 0.04645782 0.052542597 -0.0030667228
0.04277057 -0.05317885 -0.05167134 -0.07431035 0.061606325 -0.038464036 0.048352025 -0.036347095
-0.07141587 0.06268931 0.054649137 -0.005012537 0.05484564 0.052765705 -0.012282297 -0.06620858
-0.039968006 -0.053062923 0.06620913 -0.034836017 -0.056381997 0.022592073 0.067494735 0.049804907
-0.07595204 -0.00063220755 -0.043634873 -0.0040506623 -0.030939471 -0.06908602 -0.0558383 -0.060929824
0.059251063 0.0018550463 0.015127704 -0.005695716 0.00076305016 0.05225545 0.040087253 0.030630052
0.056351174 -0.032341298 -0.027097369 0.049673565 -0.083782054 0.019742308 -0.056328237 -0.04460781
0.014721742 -0.0064340956 0.018533146 -0.068713 0.0069676684 0.024567338 -0.068117 0.06130526
00000000: 2c35 823d 9b36 3c3c 39f3 3f3d 6075 31bc
00000010: 9be7 993c e17b f23b 371d 62bc 607e 7ebd
00000020: 859b 5f3d 1a92 28bd 1bdf 81bd d677 2fbd
00000030: e332 27bd 3346 07bd 6245 f03a 3ddc 2fbd
00000040: e715 bd3b 311a 643d 5782 423c 90ab 64bd
00000050: c9f2 a1bb e5ee 353c 10fe 843d c880 55bd
00000060: e9f1 5b3a dce3 3b3d 890a 853d c4bc ee3c
00000070: 484e 823c 84c5 af3c 4d40 313d dd81 673d
00000080: 1862 1bbc 7dc9 9f3d 639e 863d ad33 f4bb
00000090: fcc1 4d3d a532 98bd 08f6 803c 4742 80bb
000000a0: af10 143c 2a03 10bd cc0a 423c bf6d 99bd
000000b0: 5376 7dbc 2e95 0fbd 09d4 22bb 12aa fbbb
000000c0: 30e5 903d 8cf7 863c 44a7 2dbd 958a 68bd
000000d0: 4408 1f3b e882 b5b9 8bf3 2e3d 582a 563d
000000e0: 9f0e ebbc 3826 803d b98f 4abc 818b 00bd
000000f0: 9fa0 5b3d 43f1 63bd f3dd 74bc 7eee 8dbb
00000100: 616b e6bc 122c 6b3d 230d 93bd cb86 453d
00000110: c85b 523c c81d 74bc dcb6 563d b37b cbbb
00000120: 98c5 933d c4ba 73bd ebde 203c 3fbd 443d
00000130: 2f1d 42bd 7239 d3bc ae4b 3b3d b82b ef3c
00000140: d539 94bc e439 1bbd 335b 703b e375 73bd
00000150: a6fc 6bbd 2a74 213d dd9d 033d 7552 88bd
00000160: 6b18 2e3c c845 6fbb 6692 123d a93e d0bc
00000170: ffe3 0bbd 9d23 e43c 31de 3ebd ffc4 a0bc
00000180: 868f d1bb a898 efbc 2d75 46bd c89a 643d
00000190: d046 893d 9be8 323d 0d58 303d 32fb 083d
000001a0: 8a23 863c b99c 663d 3558 7fbd 8e62 553d
000001b0: f051 f8bb 3507 223d baef 923d 24e4 493d
000001c0: 6541 45bc 0f58 4cbd c007 0abd 918c 2ebc
000001d0: 9e2d 7f3c c8ca babc 0623 c5bc 3afd 933b
000001e0: ca3b 9c3d 80b5 09bd 4bff 4dbd 5dae 1b3d
000001f0: d31d a3bd 2a36 14bd 80a4 aebc 359e 04bd
00000200: 6ae5 d43c eb45 2f3d 8205 0cbd baa0 433c
00000210: 233f 703d ea1f 8fbd 488b 9bbd 9716 a0bd
00000220: 3f4f 9fbd d0ff 23bd 4a8d a3bc 9491 5a3d
00000230: 89a0 83bc 3c36 7e3c 1eff 3e3d 9b08 23bd
00000240: fd79 ec3c f07e d13b fd47 70bd e886 4cbc
00000250: 193e 4ebd 0ef2 3c3d 1a2d 743d b85f 5b3d
00000260: dabe 42bd 4eff 28bd 6637 9fbd 6acd 5d3d
00000270: a50e 1dbc e1d2 88bd 65a0 f43b c614 12bd
00000280: 4180 423d 5966 5b3d dfb6 833d 79f6 563d
00000290: ad5b 42bd a396 023d a954 053d 7ac7 45bc
000002a0: e0d6 56bd 81e8 33bd d520 bb3b 3e45 d63b
000002b0: 7d56 69bc 6de0 aa3a 2595 c33d 8477 743d
000002c0: 61db 463d 7010 0ebd 22fb 32bc fb31 e13c
000002d0: 0278 bbbd 7a60 2fbd 51f9 733d 641a bd3b
000002e0: 3bf3 7b3c 0c90 f1bc 7c09 593c af1e 91bd
000002f0: 528a 903d 029a 373d e91f 803b b46f d33c
00000300: 1103 44bb 25cf b33c 624e 0f3d f997 493d
00000310: a3b9 1d3d 8e4a 3e3d e836 573d 12fb 48bb
00000320: 3130 2f3d 11d2 59bd 54a5 53bd 0630 98bd
00000330: ea56 7c3d 778c 1dbd c60c 463d b1e0 14bd
00000340: 7c42 92bd 4163 803d c6d7 5f3d 3540 a4bb
00000350: d2a5 603d da20 583d b03b 49bc 5d98 87bd
00000360: 7eb5 23bd 8258 59bd a798 873d 36b0 0ebd
00000370: cff0 66bd 0313 b93c ae3a 8a3d 3b00 4c3d
00000380: be8c 9bbd bbba 25ba 7bba 32bd 6bbb 84bb
00000390: c674 fdbc f97c 8dbd b4b6 64bd 8d91 79bd
000003a0: 3eb1 723d 0625 f33a 30da 773c 21a3 babb
000003b0: 6e07 483a d009 563d 8832 243d e0eb fa3c
000003c0: 7dd0 663d 4f78 04bd 4dfb ddbc 8276 4b3d
000003d0: ed95 abbd 9fba a13c 70b8 66bd aeb6 36bd
000003e0: 7633 713c 1bd5 d2bb d3d2 973c 67b9 8cbd
000003f0: 0a51 e43b 7141 c93c ed80 8bbd 391b 7b3d

deconv1.weight f4 [2, 4, 5, 5]
-0.0069746524 0.029184287 0.05047052 0.02539065 0.09237802 -0.08045579 -0.036300223 0.053144857
-0.052945852 -0.08373544 0.059874326 -0.01586093 0.023867844 0.081038445 0.08115315 0.072128326
-0.070041254 -0.077842265 0.00017291098 -0.036906004 0.037232373 0.011984861 0.021041831 -0.038997937
-0.026377214 0.053580813 0.10176061 -0.02057851 0.046071634 0.0308729 -0.0044513936 -0.018568711
0.028737457 0.008160349 0.034407865 -0.02614479 -0.068516806 0.009597071 0.015968325 0.07609544
0.06379606 -0.06951055 -0.043294143 0.04203696 0.09634977 0.08825076 0.094590135 -0.009050723
-0.07891739 -0.06832958 -0.03887843 0.026409717 -0.084256254 -0.0034614375 0.05604204 -0.03322693
-0.0030662005 0.0034574044 0.022965679 -0.0393382 -0.028732242 0.06196149 -0.01219829 0.03884293
0.07379049 -0.067794785 0.07150704 -0.018133935 -0.07942269 0.0035742167 -0.02709146 0.0907526
0.058845337 -0.0021754284 0.03975872 0.051483836 -0.05891451 0.048873927 -0.058548324 0.12735566
-0.010862881 -0.019570304 0.05983472 0.021498514 -0.08290229 0.114868276 0.077834554 -0.031477734
-0.04574585 0.024317976 0.019990878 -0.084990785 -0.05306559 0.007655964 0.02659847 0.028293388
0.03982378 0.026732938 -0.02329544 0.09197339 -0.0052836025 0.012454019 -0.075292416 0.082497686
0.08790153 -0.037896056 -0.026874667 -0.05150401 -0.06523088 0.06455916 0.072515585 0.024090862
0.0052542044 0.039174993 0.0029984347 -0.04643602 0.054596514 0.0452161 -0.06455874 0.012162394
0.03304365 -0.076978475 0.02813763 -0.0076002833 0.013072433 0.035424713 -0.116467685 -0.014012447
-0.008942862 0.006329816 0.06968066 0.06438413 0.01804201 0.04868027 -0.0031691156 0.011959587
-0.11691572 -0.033956412 0.07584065 -0.016645635 -0.021595217 -0.016352154 0.07586878 0.079352655
-0.108298585 0.10818474 -0.032472804 -0.02326362 0.06294325 0.11594795 0.09790193 0.019336725
0.058089446 -0.007711904 0.043374747 -0.010209855 0.089057796 -0.009777548 0.07013749 -0.04577013
-0.011067485 0.045826692 0.05061262 -0.0818105 0.049281914 0.050875057 0.04289578 0.013918381
0.0026511676 0.06585873 0.06365179 0.0105726905 0.02762776 0.048644505 0.12080406 -0.017640263
-0.08539721 -0.060612336 0.08680935 0.019802164 -0.026847512 0.041182537 0.028851302 -0.050962377
0.058804806 0.04033409 0.0450366 -0.020043436 -0.026095662 -0.0122691225 -0.039068796 -0.03892066
-0.05904639 -0.0294084 -0.037176345 -0.12501729 0.029884048 0.020643726 -0.03411301 -0.03220004
00000000: a08b e4bb e313 ef3c 2dba 4e3d 0d00 d03c
00000010: b030 bd3d 01c6 a4bd 8baf 14bd 6cae 593d
00000020: c0dd 58bd 7d7d abbd c83e 753d c8ee 81bc
00000030: 7f86 c33c 7cf7 a53d 9f33 a63d 04b8 933d
00000040: ca71 8fbd c46b 9fbd 704f 3539 c02a 17bd
00000050: f980 183d 275c 443c eb5f ac3c 4dbc 1fbd
00000060: 0715 d8bc 8e77 5b3d de67 d03d 4394 a8bc
00000070: 9cb5 3c3d 2ae9 fc3c ffdc 91bb 691d 98bc
00000080: d16a eb3c fcb2 053c 43ef 0c3d 992d d6bc
00000090: 8a52 8cbd 093d 1d3c 01d0 823c edd7 9b3d
000000a0: 82a7 823d 8c5b 8ebd 3355 31bd f32e 2c3d
000000b0: 0753 c53d d1bc b43d 79b8 c13d 7c49 14bc
000000c0: 719f a1bd 61f0 8bbd fd3e 1fbd 3159 d83c
000000d0: 8b8e acbd 49d9 62bb 578c 653d f618 08bd
000000e0: 4ff2 48bb 9f95 623b 8522 bc3c 1821 21bd
000000f0: e15f ebbc 55cb 7d3d 56db 47bc c419 1f3d
00000100: 781f 973d fed7 8abd 4872 923d 9e8d 94bc
00000110: 5da8 a2bd 683d 6a3b e9ee ddbc 80dc b93d
00000120: cf07 713d a291 0ebb 0ada 223d b7e0 523d
00000130: 5750 71bd 0730 483d 5ed0 6fbd 8669 023e
00000140: 3afa 31bc e751 a0bc 4015 753d a71d b03c
00000150: adc8 a9bd 0f40 eb3d b967 9f3d ccee 00bd
00000160: 0060 3bbd 7e36 c73c e9c3 a33c a60f aebd
00000170: 4e5b 59bd e1de fa3b 09e5 d93c 89c7 e73c
00000180: 431e 233d 09ff da3c 14d6 bebc 8b5c bc3d
00000190: 1222 adbb f10b 4c3c e932 9abd 8cf4 a83d
000001a0: b805 b43d e538 1bbd 4328 dcbc def5 52bd
000001b0: c597 85bd 9837 843d 0d83 943d 335a c53c
000001c0: 762b ac3b f575 203d 6381 443b b233 3ebd
000001d0: 98a0 5f3d 8434 393d 5f37 84bd c744 473c
000001e0: c758 073d e4a6 9dbd e380 e63c cc0b f9bb
000001f0: c22d 563c 8119 113d 9c86 eebd 7694 65bc
00000200: 1585 12bc 586a cf3b bcb4 8e3d d4db 833d
00000210: d6cc 933c f664 473d f0b0 4fbb 25f2 433c
00000220: 8271 efbd e115 0bbd 5852 9b3d 6d5c 88bc
00000230: 74e8 b0bc f4f4 85bc 1761 9b3d a583 a23d
00000240: a6cb ddbd f68f dd3d 3402 05bd 5993 bebc
00000250: 64e8 803d 1e76 ed3d cf80 c83d 0d68 9e3c
00000260: 33ef 6d3d 24b4 fcbb b8a9 313d 3c47 27bc
00000270: ef63 b63d 0232 20bc 3fa4 8f3d 7679 3bbd
00000280: 6654 35bc c5b4 3b3d 2e4f 4f3d 438c a7bd
00000290: d5db 493d 5d62 503d 7cb3 2f3d ec09 643c
000002a0: 36bf 2d3b f1e0 863d df5b 823d 1439 2d3c
000002b0: 9d53 e23c 763f 473d 1e68 f73d 5082 90bc
000002c0: bce4 aebd a444 78bd 1ac9 b13d 2638 a23c
000002d0: 50ef dbbc 05af 283d 9159 ec3c edbd 50bd
000002e0: 4fdd 703d 5c35 253d 4c78 383d 2232 a4bc
000002f0: 92c6 d5bc 6e04 49bc 9a06 20bd 456b 1fbd
00000300: a1da 71bd e3e9 f0bc 3946 18bd 8804 00be
00000310: 64cf f43c 081d a93c 15ba 0bbd 30e4 03bd

bn3.running_mean f4 [4]
0.08881489 0.18897402 0.24569431 0.032334562
00000000: 95e4 b53d 6882 413e 4a97 7b3e 3f71 043d

bn3.running_var f4 [4]
0.039684795 0.06246891 0.05151595 0.019760245
00000000: 868c 223d 66df 7f3d 6402 533d 3de0 a13c

deconv2.weight f4 [4, 8, 5, 5]
0.052394595 -0.010981228 0.085422345 0.037449732 0.07519402 0.032037523 0.006266376 -0.02498302
0.0217028 0.005702345 -0.011936009 0.005125738 -0.020458376 0.01405714 -0.03258555 -0.0037633185
-0.032444324 0.04933223 0.031353984 -0.02445432 -0.008468178 -0.007877371 -0.013403763 -0.023090947
0.009693404 -0.009264695 0.037360214 0.047320336 -0.03571656 -0.023500782 0.04410175 0.027134812
0.041497666 0.0361282 0.04269899 0.0011192126 0.02419976 0.07983023 -0.002499221 -0.012988448
0.033543557 0.065958895 0.06402562 -0.025436448 0.043555386 0.031388935 -0.010802193 0.08386805
0.031744882 -0.08287034 -0.042315923 -0.08716787 0.030345527 0.001310383 0.011113943 0.04177194
-0.014083451 -0.055551533 0.035271663 -0.003458064 0.011454925 0.0037269667 0.026041396 0.052257344
-0.02439323 -0.008184023 -0.05061574 0.004130386 -0.06164844 -0.018883085 0.0029803372 0.011908699
0.05093664 -0.010215067 0.010683057 0.02429541 0.029994315 0.04011321 0.028256698 -0.0017147704
0.027469475 0.08173661 -0.041170616 0.0026127088 -0.015908308 0.014107278 -0.05646145 0.014847363
-0.022312772 -0.006442777 -0.016583983 -0.0006425495 0.034765687 -0.050587382 0.054855324 -0.013361511
-0.023287484 0.060452428 0.03441998 -0.0051962812 0.12712778 0.051347803 0.065173104 0.030454574
0.07217818 0.018390177 -0.069301575 -0.03429097 -0.014704721 -0.013084374 -0.011338865 -0.08839018
-0.03407616 0.057311654 0.03637182 0.043127105 0.019105993 -0.016386032 0.048519563 0.035198856
-0.008563649 0.012459508 0.05135814 0.030826414 -0.02220517 -0.043816004 -0.023345942 0.06484067
0.051569596 -0.027401071 0.039890464 -0.0014194517 -0.06495834 -0.03473028 -0.043929137 -0.07927457
0.024610063 0.040341265 -0.064206794 -0.021827888 0.026400479 0.0063568777 -0.058871977 0.018599076
-0.015175956 -0.042980276 -0.0211976 0.068290085 -0.0049707494 -0.029953538 0.025540855 0.012555374
-0.00975594 -0.0040608128 0.0057975873 0.033199385 -0.018463686 0.07816252 -0.022011373 0.026127635
-0.072991125 0.027854245 0.091437854 0.0905938 0.07165087 0.054691333 0.01787496 -0.04610584
-0.03467033 0.058442656 -0.082944214 -0.04524398 -0.008091778 -0.041524764 -0.037430577 -0.031701803
0.031201787 -0.044954658 0.06470101 0.04412566 0.086503364 0.018446274 0.043816898 0.03983677
-0.0066318596 -0.012633655 0.031252418 -0.039418958 -0.00090828247 -0.012920479 -0.03379576 0.025295006
-0.05444795 -0.051984992 0.04534596 0.0017934305 -0.079719126 0.02155135 0.034977563 -0.015144761
0.07968634 0.06089324 -0.0013103576 0.027769892 -0.015832175 -0.034277238 0.028260546 -0.043416582
-0.0012944612 -0.07343575 -0.0030434462 0.068128705 0.03425463 0.0017478263 0.008799945 0.05776973
-0.027328186 -0.044431306 -0.04403629 0.034657195 0.013881217 -0.05381221 0.018292854 0.012693819
0.022080809 -0.036923382 -0.0056692543 0.048955895 -0.040711895 0.04232017 -0.011404312 0.087410845
0.073960274 0.065488055 0.0473142 -0.055471644 0.0117865605 -0.04036432 0.07178227 -0.03491738
-0.037735384 -0.014281028 -0.023450293 -0.05220773 0.04546166 0.0033856619 -0.015151161 -0.00454372
-0.030412134 0.046652157 -0.02312506 -0.0390833 -0.028296212 -0.0065522217 -0.042664483 0.038858786
00000000: b79b 563d 9cea 33bc e9f1 ae3d e464 193d
00000010: 53ff 993d c739 033d 2c56 cd3b 31a9 ccbc
00000020: 12ca b13c bdda ba3b 408f 43bc cff5 a73b
00000030: 5398 a7bc eb4f 663c 6d78 05bd 02a2 76bb
00000040: 57e4 04bd 9810 4a3d 096d 003d 6d54 c8bc
00000050: 1dbe 0abc 1710 01bc 759b 5bbc 3a29 bdbc
00000060: 15d1 1e3c f3ca 17bc 0607 193d f8d2 413d
00000070: 874b 12bd b684 c0bc 09a4 343d d349 de3c
00000080: 75f9 293d 2afb 133d 23e5 2e3d 8bb2 923a
00000090: 933e c63c 087e a33d f8c9 23bb 80cd 54bc
000000a0: f864 093d 7515 873d dd1f 833d 1960 d0bc
000000b0: 2267 323d af91 003d aefb 30bc 03c3 ab3d
000000c0: ec06 023d edb7 a9bd 7653 2dbd 1185 b2bd
000000d0: 2f97 f83c 28c1 ab3a 4117 363c 0e19 2b3d
000000e0: 46be 66bc 018a 63bd 0579 103d b0a0 62bb
000000f0: 70ad 3b3c 2040 743b c454 d53c cc0b 563d
00000100: 50d4 c7bc 4816 06bc 7352 4fbd 3058 873b
00000110: 1383 7cbd b3b0 9abc c351 433b b41c 433c
00000120: f0a2 503d 195d 27bc fd07 2f3c 2b07 c73c
00000130: a3b6 f53c c04d 243d 977a e73c 26c2 e0ba
00000140: aa07 e13c 8665 a73d 85a2 28bd fb39 2b3b
00000150: 2452 82bc 3622 673c 1f44 67bd 5b42 733c
00000160: 46c9 b6bc ee1d d3bb 22db 87bc c470 28ba
00000170: 7766 0e3d b734 4fbd faaf 603d 3dea 5abc
00000180: 65c5 bebc f79c 773d f7fb 0c3d 9145 aabb
00000190: c92d 023e 1352 523d 7a79 853d df7b f93c
000001a0: 27d2 933d ffa6 963c fced 8dbd b074 0cbd
000001b0: 12ec 70bc d85f 56bc a6c6 39bc e905 b5bd
000001c0: 7293 0bbd a0bf 6a3d 9efa 143d 0ca6 303d
000001d0: 2c84 9c3c 003c 86bc 73bc 463d ad2c 103d
000001e0: 8c4e 0cbc f722 4c3c ea5c 523d ad87 fc3c
000001f0: 9ee7 b5bc 6978 33bd fd3f bfbc 2fcb 843d
00000200: a43a 533d 3678 e0bc 2f64 233d e50c baba
00000210: e108 85bd 5741 0ebd 0aef 33bd b55a a2bd
00000220: 0b9b c93c e23c 253d da7e 83bd 66d0 b2bc
00000230: d145 d83c 5b4d d03b be23 71bd 175d 983c
00000240: 93a4 78bc 160c 30bd 97a6 adbc acdb 8b3d
00000250: abe1 a2bb 1f61 f5bc 0e3b d13c 0eb5 4d3c
00000260: 61d7 1fbc 9110 85bb b0f9 bd3b 14fc 073d
00000270: 2841 97bc ac13 a03d 3251 b4bc 9f09 d63c
00000280: 5f7c 95bd 962e e43c c543 bb3d 3e89 b93d
00000290: b1bd 923d 0504 603d 826e 923c 7ad9 3cbd
000002a0: 7a02 0ebd 9161 6f3d a8de a9bd c051 39bd
000002b0: 6093 04bc df15 2abd ce50 19bd c0d9 01bd
000002c0: e49a ff3c 6022 38bd f781 843d 1cbd 343d
000002d0: ad28 b13d a41c 973c 5979 333d e22b 233d
000002e0: 1250 d9bb 64fd 4ebc 8902 003d c675 21bd
000002f0: ce19 6eba 6bb0 53bc 6c6d 0abd 7937 cf3c
00000300: d004 5fbd 37ee 54bd afbc 393d 8b11 eb3a
00000310: c843 a3bd 758c b03c a244 0f3d bb21 78bc
00000320: 9832 a33d 316b 793d 4ec0 abba af7d e33c
00000330: 7ab2 81bc 4a66 0cbd a982 e73c 96d5 31bd
00000340: e9aa a9ba 7c65 96bd 8e74 47bb 1087 8b3d
00000350: 954e 0c3d 5217 e53a a52d 103c f49f 6c3d
00000360: 5cdf dfbc 9afd 35bd 665f 34bd b4f4 0d3d
00000370: 0b6e 633c 316a 5cbd e5da 953c bcf9 4f3c
00000380: d0e2 b43c f93c 17bd 27c5 b9bb fa85 483d
00000390: 84c1 26bd ea57 2d3d 27d9 3abc 7504 b33d
000003a0: 7c78 973d 9a1e 863d 89cc 413d 3c36 63bd
000003b0: 6b1c 413c 0f55 25bd 9502 933d 8705 0fbd
000003c0: 6b90 1abd f9fa 69bc d41a c0bc c6d7 55bd
000003d0: 0136 3a3d fbe1 5d3b 933c 78bc 7ce3 94bb
000003e0: de22 f9bc 5516 3f3d c470 bdbc cf15 20bd
000003f0: 75cd e7bc 05b4 d6bb f4c0 2ebd 642a 1f3d

bn4.running_mean f4 [8]
0.26569343 0.4024702 -0.5634944 0.017155921 0.15252662 -0.46046898 0.009605729 0.19878915
00000000: f808 883e 9310 ce3e 2b41 10bf 938a 8c3c
00000010: f02f 1c3e 97c2 ebbe 5961 1d3c 628f 4b3e

bn4.running_var f4 [8]
0.07639355 0.18383186 0.113790005 0.03408557 0.059935126 0.098618336 0.13275863 0.096924186
00000000: 3974 9c3d 6b3e 3c3e bc0a e93d 509d 0b3d
00000010: 897e 753d 69f8 c93d e1f1 073e 3080 c63d
