log/mnist_test_class_4/model.tar (torch, 71258 bytes, 21 tensors)

conv1.weight f4 [8, 1, 5, 5]
-0.10381705 0.076537065 0.22197758 0.19331063 0.14103933 -0.09008391 0.11654169 -0.06934436
0.0648628 0.17314331 0.18257612 -0.025900131 0.21063055 0.062209595 0.14638369 -0.11715461
0.18080026 0.045441564 0.14328893 0.13346 -0.08217439 -0.004472982 0.02552348 -0.10561285
-0.03496847 0.185079 0.030376796 -0.04536253 0.21597497 -0.018702965 -0.0014821001 0.16848549
0.0678743 0.110350266 -0.12312742 0.16249949 0.05886555 0.13765211 0.06605534 -0.053036705
-0.08025912 0.18795499 -0.04939379 0.0025662042 0.16073234 0.1521256 -0.08419383 -0.053646613
0.00826168 -0.005326901 -0.047014344 0.0120536145 0.17276226 0.021132508 -0.13639207 0.120229624
-0.10084313 0.030601991 -0.08372531 0.15570626 -0.09754355 0.09756691 0.028682673 0.23096979
-0.07092183 0.2127233 -0.12583816 0.16618928 -0.07650377 -0.030807862 0.08165281 0.118341014
0.21211132 0.11960024 -0.050600056 0.11854691 0.037998762 0.18037137 0.2225756 -0.11548956
-0.031624272 0.10129583 0.014867365 -0.08959819 0.052512664 -0.061128568 0.053347126 0.1224033
0.1832679 0.15879427 0.0109453825 0.17467402 0.004482348 0.051404048 0.17611133 -0.07954276
0.09894759 0.019714491 0.16485634 0.09435548 0.12467285 0.056359187 0.20418702 0.011456963
0.053233545 -0.040464684 -0.09355773 0.10613315 0.09207386 0.19094631 0.1736154 0.06180137
0.0106616095 0.12736905 0.060452666 0.10732924 0.027014924 0.13271776 0.054609217 -0.14601994
0.10777507 -0.009043793 0.15912674 0.054371607 0.021203399 0.18068464 0.06520666 -0.08791277
0.030844683 0.12748662 0.058034845 0.12248985 0.18938105 -0.061978623 0.05196145 -0.064411245
0.050323002 -0.037464626 0.030359812 0.16643068 0.087464385 0.060568295 0.09141993 -0.047126938
0.118906364 0.060165282 0.044878542 -0.010957597 0.15105633 -0.12770188 0.10753624 -0.20977755
-0.09024114 0.08978768 -0.14114498 -0.115916625 -0.028264396 -0.09523019 -0.21113536 -0.015330692
-0.0073074563 -0.01711095 -0.02872321 0.06428572 -0.23279399 -0.059471793 0.067895636 -0.20969538
-0.0027976374 -0.056659237 0.116823666 -0.003337719 0.13100144 0.054401256 0.05267399 0.120092176
0.12313783 0.061189182 0.10333251 0.08366302 -0.105164856 -0.07779673 0.1042508 0.051002823
0.063075356 -0.10219844 -0.010035897 0.07496391 0.018095434 0.15161477 0.10484577 0.06875682
-0.081445515 0.14031483 -0.047817394 -0.039992712 0.14494134 0.08290801 -0.097217016 0.21478842
00000000: 099e d4bd 77bf 9c3d 174e 633e 39f3 453e
00000010: 9d6c 103e ea7d b8bd 69ad ee3d 6a04 8ebd
00000020: cad6 843d 7b4c 313e 3cf5 3a3e 832c d4bc
00000030: 89af 573e 7dcf 7e3d 9be5 153e c2ee efbd
00000040: b423 393e ef20 3a3d 55ba 123e bda9 083e
00000050: 0c4b a8bd 1892 92bb 9e16 d13c 8d4b d8bd
00000060: 193b 0fbd 5985 3d3e c2d8 f83c 0fce 39bd
00000070: 8b28 5d3e f636 99bc 0743 c2ba 7687 2c3e
00000080: ae01 8b3d 52ff e13d 3b2a fcbd 4466 263e
00000090: 011d 713d adf4 0c3e 0648 873d 043d 59bd
000000a0: e55e a4bd 4677 403e 2551 4abd c32d 283b
000000b0: 0597 243e d0c6 1b3e d16d acbd 8dbc 5bbd
000000c0: ff5b 073c 498d aebb 1d92 40bd 867c 453c
000000d0: 97e8 303e 151e ad3c 5daa 0bbe f33a f63d
000000e0: d886 cebd 07b1 fa3c 2d78 abbd 7671 1f3e
000000f0: eac4 c7bd 29d1 c73d edf7 ea3c 5883 6c3e
00000100: 773f 91bd 23d4 593e b8db 00be 862d 2a3e
00000110: 02ae 9cbd c560 fcbc 9739 a73d c65c f23d
00000120: b633 593e f8f0 f43d 0142 4fbd b9c8 f23d
00000130: 97a4 1b3d 46b3 383e dcea 633e ca85 ecbd
00000140: 7488 01bd 3074 cf3d 4096 733c 417f b7bd
00000150: 8517 573d f361 7abd 8482 5a3d 95ae fa3d
00000160: 95aa 3b3e f79a 223e 4354 333c bfdd 323e
00000170: a9e0 923b 0d8d 523d 8756 343e 51e7 a2bd
00000180: 09a5 ca3d 4980 a13c 1ad0 283e 723d c13d
00000190: 7b54 ff3d e4d8 663d 6716 513e fcb5 3b3c
000001a0: 6b0b 5a3d 4cbe 25bd 329b bfbd 565c d93d
000001b0: 3891 bc3d 6e87 433e 3cc8 313e 6f23 7d3d
000001c0: 08ae 2e3c 086d 023e 379d 773d 6fcf db3d
000001d0: 674e dd3c 2ae7 073e eaad 5f3d 4086 15be
000001e0: 2db9 dc3d 6b2c 14bc 1ff2 223e c3b4 5e3d
000001f0: c0b2 ad3c 6505 393e 128b 853d 9c0b b4bd
00000200: fdad fc3c da8b 023e f2b5 6d3d f5db fa3d
00000210: 1bed 413e 4cdd 7dbd 88d5 543d 0bea 83bd
00000220: 7e1f 4e3d 8274 19bd 24b5 f83c ce6c 2a3e
00000230: 8720 b33d 7616 783d 5f3a bb3d 2d08 41bd
00000240: 2e85 f33d df6f 763d 90d2 373d 7e87 33bc
00000250: 83ae 1a3e 48c4 02be f63b dc3d edcf 56be
00000260: 59d0 b8bd 9ae2 b73d 4f88 10be b265 edbd
00000270: bc8a e7bc 0c08 c3bd de33 58be 952d 7bbc
00000280: 6373 efbb 432c 8cbc f04c ebbc 3ba8 833d
00000290: 8c61 6ebe b298 73bd de0c 8b3d 63ba 56be
000002a0: 9158 37bb 8413 68bd 3f41 ef3d a2bd 5abb
000002b0: 3e25 063e dad3 5e3d afc0 573d e3f2 f53d
000002c0: b02f fc3d 82a1 7a3d ff9f d33d 8457 ab3d
000002d0: ac60 d7bd e453 9fbd 7281 d53d 56e8 503d
000002e0: a72d 813d 6a4d d1bd 9a6d 24bc ae86 993d
000002f0: e03c 943c e740 1b3e 61b9 d63d 60d0 8c3d
00000300: e8cc a6bd b1ae 0f3e 2cdc 43bd 66cf 23bd
00000310: 816b 143e adcb a93d b719 c7bd 7ff1 5b3e

bn1.running_mean f4 [8]
0.0794261 0.06404998 0.051365502 0.08885643 0.08796963 0.066571295 -0.045007218 0.061164547
00000000: 27aa a23d a32c 833d a264 523d 5cfa b53d
00000010: 6c29 b43d 8856 883d 7d59 38bd ad87 7a3d

bn1.running_var f4 [8]
0.017623343 0.010039585 0.0073827463 0.017275894 0.016190376 0.008641351 0.0061068414 0.008126145
00000000: d45e 903c 127d 243c f7ea f13b 2d86 8d3c
00000010: aea1 843c 7494 0d3c e61b c83b 8623 053c

conv2.weight f4 [4, 8, 5, 5]
-0.0379359 -0.025892612 -0.03816857 0.022121241 0.03678849 0.03585548 -0.08618008 -0.025405219
-0.048523456 0.024842188 -0.02019945 -0.08533045 -0.00460109 -0.0029966976 -0.009724882 0.006485617
-0.006291952 0.009357033 -0.021049628 -0.038180042 0.04492017 -0.03118076 0.03156942 0.03255114
0.05407007 -0.07711427 -0.04700133 -0.103807405 -0.039906453 -0.06260564 -0.007371537 0.008607125
0.011778492 -0.10356384 0.004841931 0.0072100465 -0.04243022 -0.0658975 0.02437206 0.028023878
0.032230362 -0.018891232 0.039258502 -0.065048754 -0.021413894 0.021923581 -0.0460376 -0.03849899
-0.07293865 -0.06581433 -0.0043485183 -0.018272439 -0.017951347 0.014088416 -0.024631262 -0.05979281
0.038821205 -0.057656743 -0.0037583779 -0.027279858 0.013691737 -0.0015805442 -0.007032987 0.032950033
-0.019911036 -0.048524313 0.05971662 0.039591905 0.029508514 0.03252047 0.053478982 0.023043212
0.01609314 0.0016952567 0.0060927602 -0.019752946 -0.053204767 -0.068370864 -0.019947007 -0.008891076
-0.0049541867 -0.05580732 -0.064807795 0.04694933 0.032637026 0.006609047 -0.013038241 -0.07508324
0.021866359 0.0162571 -0.052361846 -0.014661102 0.023626171 -0.0067981505 -0.015429956 0.043876067
-0.064597726 0.021429392 -0.02575196 0.03077132 -0.024708528 -0.071367145 0.012453273 -0.046712425
0.007937116 -0.08724595 -0.0027769888 0.01842911 -0.0012168274 -0.013899819 -0.09722645 -0.013455116
-0.046563577 -0.087101884 0.059961528 0.04608803 -0.026902227 0.016526513 -0.01856448 -0.024675187
-0.04574403 -0.047094774 0.021781668 0.0015419669 -0.0028000372 -0.03774244 -0.09111842 -0.031297576
0.017980687 -0.05691649 -0.09386931 -0.03533309 -0.007450642 -0.07091426 0.010051488 0.019466963
0.017035583 -0.029197024 -0.06026498 0.024785638 -0.037764743 0.016787346 -0.016020674 -0.07223681
-0.011828148 -0.06230978 -0.03787935 -0.012778743 0.034790315 0.030026544 0.030879378 -0.010803534
-0.04835809 0.0043906425 0.01583792 -0.02832875 0.037024938 0.010598254 0.028123256 -0.039689325
0.00533741 -0.055624228 0.03749939 -0.038717862 0.00237141 0.028606564 0.0205175 -0.03439612
0.035871185 -0.06715754 -0.009042785 -0.06187348 -0.037385125 0.015258127 0.06302963 -0.0268616
-0.01769065 -0.08022009 0.004263994 -0.065923855 -0.037822567 -0.013496784 -0.09757009 0.012491275
-0.04813983 -0.055503074 -0.061900057 0.0058069467 -0.018305343 -0.011782251 0.0019583208 -0.0060743433
-0.040582947 -0.017731681 -0.034006026 -0.0048443405 0.024627984 -0.002705231 0.046148673 0.027150635
-0.06511758 -0.05166454 0.047300022 -7.818972e-05 0.016364545 -0.037074026 0.018791651 0.039275724
-0.035125107 -0.035604335 -0.061977103 -0.042580876 -0.050153118 0.0117052905 -0.036631044 -0.103085734
-0.03192137 0.019457098 -0.039644293 0.06323525 -0.06578047 -0.06502942 -0.019519584 -0.009527309
0.06580306 -0.05607701 -0.023632167 0.03172505 -0.032458503 -0.010327375 0.03096596 0.020350344
0.023990232 -0.0347862 -0.010261195 -0.04724234 -0.10124264 -0.095057845 0.01778672 0.005492977
-0.08896735 -0.07611555 0.001435409 0.027791122 -0.045882247 -0.02794766 -0.047503863 -0.008236005
0.028799407 0.015752718 0.0041273786 0.008889428 -0.011149908 0.047273144 0.027974816 -0.00589111
00000000: ad62 1bbd be1c d4bc a556 1cbd 9b37 b53c
00000010: 87af 163d 32dd 123d 2f7f b0bd 9b1e d0bc
00000020: 88c0 46bd d881 cb3c 5179 a5bc bbc1 aebd
00000030: bec4 96bb 3e64 44bb 1d55 1fbc 4c85 d43b
00000040: b82c cebb 3e4e 193c 4570 acbc ad62 1cbd
00000050: 36fe 373d cb6e ffbc f04e 013d 5854 053d
00000060: 9478 5d3d 16ee 9dbd 7784 40bd fa98 d4bd
00000070: f374 23bd 6337 80bd ef8c f1bb e604 0d3c
00000080: 93fa 403c 4719 d4bd 10a9 9e3b 4142 ec3b
00000090: 4fcb 2dbd 45f5 86bd eaa7 c73c 5592 e53c
000000a0: fc03 043d c9c1 9abc 86cd 203d 4838 85bd
000000b0: 316c afbc 1599 b33c ec91 3cbd 1eb1 1dbd
000000c0: dc60 95bd aac9 86bd 047e 8ebb 15b0 95bc
000000d0: b40e 93bc 19d3 663c 80c7 c9bc 4ee9 74bd
000000e0: fc02 1f3d 7a29 6cbd 1e4f 76bb 027a dfbc
000000f0: 4f53 603c 432a cfba f974 e6bb 9df6 063d
00000100: 781c a3bc 6ec1 46bd 6a99 743d 1f2b 223d
00000110: d7bb f13c 2f34 053d c70c 5b3d 1ec5 bc3c
00000120: c3d5 833c 6033 de3a c7a5 c73b eed0 a1bc
00000130: 3eed 59bd 0606 8cbd e867 a3bc e0ab 11bc
00000140: bb56 a2bb 3796 64bd f3b9 84bd f14d 403d
00000150: 67ae 053d b490 d83b 599e 55bc 3ec5 99bd
00000160: 1421 b33c 9c2d 853c 6079 56bd 1e35 70bc
00000170: ac8b c13c 05c3 debb edcd 7cbc 64b7 333d
00000180: d04b 84bd b18c af3c c6f5 d2bc 2314 fc3c
00000190: 8a69 cabc f028 92bd d008 4c3c 8755 3fbd
000001a0: ad0a 023c 01ae b2bd 24fe 35bb a5f8 963c
000001b0: f47d 9fba 11bc 63bc a91e c7bd d972 5cbc
000001c0: 73b9 3ebd 7962 b2bd 389a 753d cdc6 3c3d
000001d0: 0f62 dcbc 9c62 873c 8914 98bc 9e23 cabc
000001e0: 185e 3bbd 73e6 40bd 786f b23c d31b ca3a
000001f0: d480 37bb d197 1abd 4b9c babd e331 00bd
00000200: 3c4c 933c 4421 69bd 8e3e c0bd 6eb9 10bd
00000210: 8424 f4bb 7f3b 91bd ffae 243c 2e79 9f3c
00000220: 358e 8b3c 992e efbc 69d8 76bd 400b cb3c
00000230: 34af 1abd 9e85 893c ca3d 83bc e5f0 93bd
00000240: d9ca 41bc 8a38 7fbd 6127 1bbd ef5d 51bc
00000250: 4a80 0e3d 3afa f53c c0f6 fc3c 4e01 31bc
00000260: 2213 46bd 61df 8f3b 87be 813c b211 e8bc
00000270: 76a7 173d 4da4 2d3c be62 e63c 4691 22bd
00000280: 71e5 ae3b 3bd6 63bd f698 193d 9f96 1ebd
00000290: a869 1b3b 5058 ea3c 5114 a83c f2e2 0cbd
000002a0: aaed 123d e489 89bd 3028 14bc 0c6f 7dbd
000002b0: 2521 19bd 39fd 793c ae15 813d dc0c dcbc
000002c0: fbeb 90bc 6e4a a4bd f9b8 8b3b 1603 87bd
000002d0: d6eb 1abd 9d21 5dbc d4d2 c7bd 34a8 4c3c
000002e0: 452e 45bd 3157 63bd ea8a 7dbd 3348 be3b
000002f0: 16f5 95bc 580a 41bc 2c57 003b 490b c7bb
00000300: 4e3a 26bd 0842 91bc e749 0bbd 46bd 9ebb
00000310: a0c0 c93c 3f4a 31bb 6406 3d3d 026b de3c
00000320: 5e5c 85bd 329e 53bd abbd 413d c9f9 a3b8
00000330: f00e 863c efda 17bd f3f0 993c 95df 203d
00000340: 58df 0fbd dad5 11bd b4db 7dbd 4969 2ebd
00000350: 5b6d 4dbd 8cc7 3f3c 6f0a 16bd 9d1e d3bd
00000360: fcbf 02bd 7e64 9f3c 0e62 22bd 7c81 813d
00000370: e9b7 86bd 252e 85bd 89e7 9fbc 6e18 1cbc
00000380: c1c3 863d 02b1 65bd 3f98 c1bc 20f2 013d
00000390: 35f3 04bd 2634 29bc 53ac fd3c c4b5 a63c
000003a0: 2a87 c43c f97b 0ebd 921e 28bc 2f81 41bd
000003b0: 4d58 cfbd b0ad c2bd 75b5 913c 6efe b33b
000003c0: 8434 b6bd 78e2 9bbd 5524 bc3a 35aa e33c
000003d0: 06ef 3bbd 7ef2 e4bc 6993 42bd 4ff0 06bc
000003e0: bcec eb3c d80b 813c f63e 873b f7a4 113c
000003f0: 1bae 36bc 7ca1 413d 712b e53c 360a c1bb

bn2.running_mean f4 [4]
-1.4974476 -1.7764766 -1.548098 -1.3418856
00000000: 5dac bfbf 9663 e3bf 1328 c6bf e8c2 abbf

bn2.running_var f4 [4]
3.6950674 4.55781 3.8986907 3.8042667
00000000: fc7b 6c40 94d9 9140 2684 7940 1b79 7340

fc1.weight f4 [32, 196]
0.06572788 -0.004243741 0.032025807 -0.01718894 0.014405143 -0.0029507587 -0.031978104 -0.06457046
0.049425513 -0.023931913 -0.055710576 -0.055821262 -0.056536976 -0.043542057 0.0025134198 -0.039300606
0.0018971779 0.020857563 -0.00038390493 -0.027864963 -0.012238895 0.0020269107 0.041940846 -0.046458956
0.014948586 0.028415218 0.030375997 0.02306536 -0.0065957857 -0.0108842235 0.03243814 0.051385015
-0.021785397 0.02938813 0.0710024 -0.025607308 0.04257167 -0.020717436 0.004613259 -0.006988853
0.020381954 -0.051903185 0.0063803284 -0.04905312 0.018657163 0.0144535815 0.0056074345 -0.021152738
0.049110066 0.005338002 -0.04844949 -0.052190725 0.035529792 0.018788397 0.038154963 0.04083064
-0.04031938 0.058147416 -0.01912814 -0.024282461 0.010317612 -0.026045742 -0.030405534 -0.015047257
-0.03467698 0.032999862 -0.052910667 0.027744545 -0.015239353 -0.019707896 0.03887358 -0.008387755
0.021668214 -0.056881003 -0.0030824428 0.013100663 -0.0204571 -0.03375548 0.036850233 0.020779314
-0.01645329 -0.036657035 0.021367453 -0.06675789 -0.06454763 0.04130328 0.047082886 -0.037396614
0.0148557145 0.00016485895 0.017048405 -0.034317 -0.04068246 0.0069262376 -0.060359888 -0.009113197
-0.019404726 -0.042320438 -0.06501079 0.043442514 0.047245618 0.025049014 0.034215543 0.025837112
0.0071640094 0.040234897 -0.044399332 0.05575519 -0.019502878 0.0138446335 0.049116205 0.041290127
-0.012911444 -0.037187755 -0.028825894 0.010797304 -0.0058141616 -0.048765026 -0.03418448 -2.267651e-05
0.016137503 -0.05501126 -0.07831907 0.0036543473 -0.027055433 -0.05429891 -0.053811785 -0.042002298
0.025607072 0.016196257 0.0027353487 0.024052547 0.04654279 -0.08096227 -0.064224064 -0.030533738
-0.03542478 -0.027771415 -0.03104111 0.038793914 -0.027290678 0.008287761 0.029361233 -0.026874674
0.016039066 -0.007154577 -0.072323166 -0.012442243 -0.061698906 0.030107124 0.044353317 0.041306295
-0.054196272 -0.049666766 -0.07406232 0.044682495 -0.00848167 -0.048379194 0.030165294 -0.029022269
0.046371773 0.05300206 0.057162095 0.04561122 -0.036070768 0.012240006 0.015225338 -0.035008516
-0.055840753 -0.043281145 0.00059485994 0.018538456 -0.034048963 -0.0059149014 0.06493788 0.04354504
0.034196418 -0.06030556 -0.0051796534 0.026096687 -0.051689588 -0.025541615 0.039279316 -0.02105751
0.028320903 -0.013743404 0.023724016 -0.023186866 0.049813002 0.03413224 -0.0016906483 0.020701613
0.033498563 0.0038100388 0.02465822 0.023134416 0.07044296 0.054856494 0.05188084 -0.0029474546
0.03827767 -0.03426639 -0.045094617 -0.049719326 0.060758997 -0.033263024 0.03850865 -0.034415558
-0.02067751 0.07300999 0.06339199 -0.0014106348 0.029439861 0.03197858 -0.0008860568 -0.020317301
-0.019932814 -0.041888673 0.051098432 0.0063191648 -0.04654095 0.019574828 0.063689284 0.035932537
-0.06320634 0.0037976366 -0.027529148 0.0001374955 -0.009200802 -0.03424909 -0.04948683 -0.045789264
0.014886909 -0.007677201 0.00049576286 0.02498793 0.0101672 0.052716408 0.048061445 0.0034722374
0.03742257 -0.009836081 -0.018880341 0.060063962 -0.05105715 0.021949561 -0.052330557 -0.039200723
0.020700261 -0.010248487 0.029753303 -0.04616991 0.011157265 0.02248167 -0.04802208 0.02758282
00000000: 579c 863d 140f 8bbb 7e2d 033d d2cf 8cbc
00000010: 8d03 6c3c 8461 41bb 79fb 02bd 843d 84bd
00000020: 6872 4a3d dc0c c4bc c630 64bd d6a4 64bd
00000030: 5193 67bd 2859 32bd 30b8 243b acf9 20bd
00000040: baaa f83a 7bdd aa3c d946 c9b9 1045 e4bc
00000050: a585 48bc ebd5 043b 2aca 2b3d bf4b 3ebd
00000060: eaea 743c 08c7 e83c 15d7 f83c 91f3 bc3c
00000070: 7621 d8bb be53 32bc dbdd 043d 1879 523d
00000080: 4a77 b2bc 60bf f03c b569 913d 6bc6 d1bc
00000090: a25f 2e3d 9db7 a9bc d22a 973b c002 e5bb
000000a0: 0ef8 a63c 6f98 54bd 1312 d13b edeb 48bd
000000b0: e8d6 983c b7ce 6c3c 92be b73b 8248 adbc
000000c0: a327 493d 68ea ae3b f972 46bd f1c5 55bd
000000d0: b087 113d 20ea 993c 6148 1c3d 073e 273d
000000e0: ef25 25bd fc2b 6e3d 9eb2 9cbc 03ec c6bc
000000f0: 340b 293c e15d d5bc 0715 f9bc c588 76bc
00000100: 7309 0ebd dd2a 073d dbb8 58bd 8748 e33c
00000110: 7bae 79bc 7472 a1bc e739 1f3d cb6c 09bc
00000120: 8a81 b13c 0efc 68bd cf02 4abb 2aa4 563c
00000130: a695 a7bc 3043 0abd 45f0 163d 6139 aa3c
00000140: 0dc9 86bc b025 16bd cc0a af3c 5cb8 88bd
00000150: 8c31 84bd a12d 293d fcd9 403d 312d 19bd
00000160: 6265 733c fddd 2c39 19a9 8b3c fc8f 0cbd
00000170: a7a2 26bd 7ef5 e23b ee3b 77bd 854f 15bc
00000180: a9f6 9ebc 3258 2dbd 6124 85bd c7f0 313d
00000190: 9f84 413d 9733 cd3c 9925 0c3d 5aa8 d33c
000001a0: 11c0 ea3b 59cd 243d 13dc 35bd 8e5f 643d
000001b0: 80c4 9fbc 9ad4 623c 132e 493d d61f 293d
000001c0: 858a 53bc 3052 18bd 4824 ecbc 2de7 303c
000001d0: b984 bebb d6bd 47bd 0605 0cbd 6f39 beb7
000001e0: cc32 843c 7d53 61bd c065 a0bd c67d 6f3b
000001f0: 5ba3 ddbc 8968 5ebd bf69 5cbd 9a0a 2cbd
00000200: ecc5 d13c 03ae 843c 8943 333b d909 c53c
00000210: a7a3 3e3d 8ccf a5bd e887 83bd e421 fabc
00000220: 9319 11bd e180 e3bc ed49 febc 5ee6 1e3d
00000230: b390 dfbc 64c9 073c f886 f03c 4728 dcbc
00000240: 5c64 833c f170 eabb 2b1e 94bd 8dda 4bbc
00000250: feb7 7cbd 37a3 f63c d3ab 353d ca30 293d
00000260: e9fc 5dbd 616f 4bbd fcad 97bd fe04 373d
00000270: b4f6 0abc 4329 46bd 351d f73c 1cc0 edbc
00000280: 54f0 3d3d b018 593d cd22 6a3d d5d2 3a3d
00000290: f1be 13bd 4e8a 483c b273 793c 1765 0fbd
000002a0: 46b9 64bd 9247 31bd 60f0 1b3a f6dd 973c
000002b0: ed76 0bbd cad1 c1bb 27fe 843d 495c 323d
000002c0: 8b11 0c3d f602 77bd 15ba a9bb b8c8 d53c
000002d0: 76b8 53bd a63c d1bc 59e3 203d cd80 acbc
000002e0: 3d01 e83c 042c 61bc de58 c23c 62f2 bdbc
000002f0: b808 4c3d 3fce 0b3d be98 ddba 6e96 a93c
00000300: ca35 093d d8b1 793b 0900 ca3c 6384 bd3c
00000310: 6644 903d 34b1 603d 0181 543d 152a 41bb
00000320: 0cc9 1c3d ea5a 0cbd 22b5 38bd 7ea6 4bbd
00000330: 6dde 783d cf3e 08bd 3fbb 1d3d 54f7 0cbd
00000340: e263 a9bc 4386 953d a9d3 813d 0de5 b8ba
00000350: dd2b f13c f9fb 023d 4446 68ba 7870 a6bc
00000360: 244a a3bc 7593 2bbd 974c 513d ff10 cf3b
00000370: b9a1 3ebd 645b a03c 876f 823d ff2d 133d
00000380: 5372 81bd c5e1 783b cf84 e1bc ab2c 1039
00000390: f6be 16bc c648 0cbd b4b2 4abd 868d 3bbd
000003a0: 39e8 733c 0891 fbbb 15f6 013a 7db3 cc3c
000003b0: 5494 263c 29ed 573d 14dc 443d 7a8e 633b
000003c0: 6948 193d 8427 21bc f2aa 9abc a105 763d
000003d0: 4d21 51bd 91cf b33c 9158 56bd f090 20bd
000003e0: 9893 a93c 45e9 27bc 33bd f33c a91c 3dbd
000003f0: f6cc 363c 7b2b b83c cdb2 44bd 5ef5 e13c

conv1.weight f4 [8, 1, 5, 5]
-0.12793705 0.05654054 0.21408913 0.17833625 0.10088502 -0.11746914 0.085773826 -0.11278235
0.03094078 0.16335697 0.16264872 -0.06556584 0.19761047 0.032649178 0.12892476 -0.14933814
0.16549192 0.035228092 0.11747507 0.12111469 -0.12638327 -0.040908 -0.021263579 -0.14350525
-0.056188118 0.15463597 -0.016012598 -0.10690563 0.2040651 -0.039935872 -0.050577626 0.18735287
0.07806319 0.11274282 -0.14788008 0.09306514 0.05028589 0.12845822 0.054109037 -0.077740565
-0.15499362 0.15424919 -0.08029215 -0.018794775 0.13890201 0.084049545 -0.13871026 -0.09504628
-0.023728222 -0.03703029 -0.06833071 -0.010163419 0.15140928 -0.020586245 -0.17735188 0.08921965
-0.13810705 -0.008415821 -0.12978205 0.13614593 -0.13351789 0.054679167 -0.016743721 0.20045543
-0.08721023 0.19206437 -0.17132266 0.12528937 -0.10736313 -0.04524317 0.064731754 0.07576072
0.19167839 0.11581655 -0.04975886 0.09410875 0.03746444 0.16273741 0.1588069 -0.1606424
-0.032049924 0.113534205 0.0007774036 -0.1410402 0.025871465 -0.062803395 0.07317847 0.10509264
0.16945763 0.16214712 0.0040464886 0.1902137 -0.041661758 0.040689718 0.189426 -0.10843659
0.060773358 -0.029034883 0.1300306 0.04617589 0.10332232 0.040001202 0.20827307 0.0026615346
0.03757983 -0.064332716 -0.117967054 0.116296425 0.12306595 0.18499646 0.16249242 0.0531012
0.010326449 0.14236994 0.034970053 0.09068383 0.010698618 0.13816501 0.04216503 -0.1757187
0.08275335 -0.027803987 0.16551952 0.036885973 -0.0024251433 0.15694313 0.040651806 -0.13955654
0.037837356 0.15685526 0.02660643 0.13879395 0.206278 -0.049975086 0.042881574 -0.1163596
0.0288977 -0.0327967 0.035117164 0.14995208 0.03689499 0.06450409 0.1017406 -0.054025948
0.08935182 0.01108255 0.019252287 -0.021644153 0.12140091 -0.16723998 0.14026563 -0.18472873
-0.06531812 0.113916725 -0.116852954 -0.08477632 -0.00012736763 -0.0666568 -0.18249209 0.013528934
0.022491088 0.014496791 0.0042599905 0.09972411 -0.21097937 -0.03765604 0.0926303 -0.17471927
0.040547475 -0.042472657 0.14298584 0.02667553 0.1804003 0.10541667 0.06885189 0.092716105
0.103998385 0.04207574 0.06815298 0.026575806 -0.13881433 -0.1056002 0.08675537 0.044683095
0.0441028 -0.13715276 -0.03885774 0.04157556 -0.021992518 0.15695097 0.07640226 0.05616418
-0.113065705 0.10799551 -0.083850615 -0.06914273 0.14326945 0.051713977 -0.14523287 0.18057187
00000000: ee01 03be 0e97 673d 2e3a 5b3e c79d 363e
00000010: ce9c ce3d a993 f0bd 30aa af3d 6ffa e6bd
00000020: 8577 fd3c 0d47 273e 638d 263e 6247 86bd
00000030: 665a 4a3e 25bb 053d da04 043e 19ec 18be
00000040: b776 293e 554b 103d c596 f03d fb0a f83d
00000050: 9e6a 01be 268f 27bd f530 aebc 0af3 12be
00000060: 8325 66bd e458 1e3e da2c 83bc 57f1 dabd
00000070: 71f6 503e cc93 23bd 7c2a 4fbd 6ed9 3f3e
00000080: 98df 9f3d b5e5 e63d e06d 17be f098 be3d
00000090: 94f8 4d3d 8d8a 033e 70a1 5d3d 7236 9fbd
000000a0: a6b6 1ebe 80f3 1d3e 3670 a4bd 80f7 99bc
000000b0: 543c 0e3e 2b22 ac3d 100a 0ebe a0a7 c2bd
000000c0: b061 c2bc 13ad 17bd f9f0 8bbd 7884 26bc
000000d0: 090b 1b3e 7ca4 a8bc bb9b 35be cbb8 b63d
000000e0: ef6b 0dbe 83e2 09bc 96e5 04be d769 0b3e
000000f0: eab8 08be 43f7 5f3d 212a 89bc 3044 4d3e
00000100: 479b b2bd 86ac 443e 356f 2fbe db4b 003e
00000110: 33e1 dbbd e750 39bd 1592 843d 7028 9b3d
00000120: 5747 443e 3a31 ed3d f2cf 4bbd 17bc c03d
00000130: 5074 193d a3a4 263e 479e 223e 717f 24be
00000140: c846 03bd 9f84 e83d acca 4b3a d86c 10be
00000150: 65f0 d33c 119f 80bd 98de 953d cf3a d73d
00000160: 4d86 2d3e e509 263e 6898 843b 61c7 423e
00000170: 85a5 2abd 43aa 263d e4f8 413e 0114 debd
00000180: 7ced 783d 90da edbc be26 053e ee22 3d3d
00000190: a79a d33d 4dd8 233d 8945 553e 246d 2e3b
000001a0: 4fed 193d dfc0 83bd b698 f1bd d22c ee3d
000001b0: 000a fc3d b66f 3d3e 6a64 263e a580 593d
000001c0: 4430 293c 6dc9 113e c23c 0f3d 72b8 b93d
000001d0: 4249 2f3c 217b 0d3e 3db5 2c3d 9aef 33be
000001e0: 977a a93d 30c5 e3bc f37d 293e bf15 173d
000001f0: 27ef 1ebb b3b5 203e 8282 263d e9e7 0ebe
00000200: 58fb 1a3d aa9e 203e baf5 d93c 0020 0e3e
00000210: 8a3a 533e adb2 4cbd 97a4 2f3d f14d eebd
00000220: dfba ec3c d555 06bd 04d7 0f3d 0a8d 193e
00000230: 331f 173d b81a 843d 605d d03d 504a 5dbd
00000240: 16fe b63d 9593 353c f9b6 9d3c 144f b1bc
00000250: 0aa1 f83d f540 2bbe cba1 0f3e 8729 3dbe
00000260: 82c5 85bd 2c4d e93d 9a50 efbd 359f adbd
00000270: fd8d 05b9 5c83 88bd 35df 3abe 76a8 5d3c
00000280: 3b3f b83c f383 6d3c 6497 8b3b 273c cc3d
00000290: fa0a 58be 383d 1abd f4b4 bd3d 9ce9 32be
000002a0: 1c15 263d cff7 2dbd e16a 123e a486 da3c
000002b0: dbba 383e b2e4 d73d 3802 8d3d f1e1 bd3d
000002c0: 1bfd d43d 9c57 2c3d ca93 8b3d 81b5 d93c
000002d0: 5825 0ebe eb44 d8bd cdac b13d 9f05 373d
000002e0: 23a5 343d c671 0cbe 4b29 1fbd 224b 2a3d
000002f0: a729 b4bc c1b7 203e ca78 9c3d 690c 663d
00000300: fe8e e7bd c02c dd3d dfb9 abbd b49a 8dbd
00000310: 3ab5 123e 09d2 533d edb7 14be d5e7 383e

bn1.running_mean f4 [8]
0.04454258 0.024232127 0.012548904 0.063555144 0.074714534 0.047087327 -0.0055535804 0.024933582
00000000: 4872 363d 7482 c63c eb99 4d3c 3329 823d
00000010: ef03 993d a4de 403d cffa b5bb 8341 cc3c

bn1.running_var f4 [8]
0.008694297 0.0031604546 0.0018060411 0.0094648935 0.012795761 0.0049560685 0.001971593 0.0023354832
00000000: 8672 0e3c a11f 4f3b afb8 ec3a a412 1b3c
00000010: 50a5 513c 8466 a23b d735 013b e80e 193b

conv2.weight f4 [4, 8, 5, 5]
-0.017445637 0.0021583294 -0.022165906 -0.000533558 0.022010267 0.056195777 -0.06090914 -0.0049123857
-0.07373362 0.036943823 -0.001888277 -0.06908314 0.012889345 -0.0053105666 0.011039807 0.018343419
-0.010154042 0.0072067664 -0.014739983 -0.01887292 0.04166938 -0.047579702 0.04451389 0.047334157
0.077057056 -0.06560936 -0.02800406 -0.077718295 -0.02665829 -0.0868087 0.012228622 0.025502184
0.036949523 -0.08705869 -0.0114727365 0.031321917 -0.026942829 -0.0513087 0.03576802 0.037067294
0.048954044 -0.020225044 0.035460122 -0.08527205 -0.008862744 0.02409214 -0.059264965 -0.052722856
-0.068379745 -0.051615942 0.014082664 -3.6313984e-05 0.0089879865 0.02845695 -0.04660213 -0.04175205
0.05360339 -0.037587248 -0.009427539 -0.026519882 0.024977537 -0.030217532 -0.020041384 0.01981527
-0.010152363 -0.06196197 0.04827408 0.028485857 0.03836302 0.048855446 0.0553103 0.013972059
0.0045623137 0.01951394 0.032905824 -0.0015024894 -0.027818264 -0.04703339 -0.032747217 -0.0038012716
0.013677023 -0.0354426 -0.041654862 0.049925778 0.05261473 0.022647599 -0.005237085 -0.059529852
0.030522937 0.035144314 -0.044566877 -0.027835144 0.03800688 0.004970523 0.002697262 0.04484374
-0.08234783 0.04202747 -0.003167709 0.053934064 -0.010305229 -0.04728934 0.035592552 -0.03992671
-0.012007305 -0.07028947 0.01873387 0.04068804 0.0033917078 -0.008568754 -0.08375642 0.0029977544
-0.028587703 -0.08551388 0.07829898 0.053365584 -0.02727 0.013252248 -0.01114695 -0.007290021
-0.059424825 -0.059031934 0.014785116 0.015042394 0.017942904 -0.026172169 -0.07245851 -0.0103228465
0.023861336 -0.06824698 -0.07358338 -0.015785748 0.0149453245 -0.06482997 0.024411473 0.043279048
0.03382084 -0.014726599 -0.049806267 0.0456047 -0.02643502 0.03388963 -0.02581061 -0.060611483
0.0049814675 -0.059067234 -0.052622177 -0.0106957955 0.054995827 0.051686075 0.051459998 0.006124587
-0.043148804 0.01462406 0.04027214 -0.0050276387 0.03851991 -0.019525362 0.0430747 -0.020870714
0.019618182 -0.06833467 0.01294973 -0.043903902 -0.003405611 0.053736407 0.02357063 -0.041935325
0.04727538 -0.06493108 0.012336213 -0.05890971 -0.060478102 0.02369139 0.09290075 -0.0056891404
0.007919839 -0.060514137 -0.007984861 -0.06036339 -0.023318825 0.010728259 -0.0786441 0.006383088
-0.03426387 -0.039793026 -0.0472974 0.022916257 -0.011665931 0.008275281 0.020256028 -0.009464382
-0.030582437 -0.005713651 -0.014547947 -0.013479569 0.011216081 0.013760033 0.06376463 0.053398136
-0.08218596 -0.07191889 0.036666848 -0.018469755 0.03249107 -0.06723508 -0.0036391069 0.017502908
-0.0328243 -0.038685907 -0.05025033 -0.018026369 -0.048297893 0.027600806 -0.04421154 -0.07278256
0.006144451 0.034037244 -0.03402929 0.06178803 -0.055698603 -0.0462147 0.0049598124 0.0012111336
0.047107466 -0.076525636 -0.038571853 0.024273552 -0.057563104 -0.038493153 0.022850266 -0.016662303
0.015345534 -0.057934772 0.0029278148 -0.031233652 -0.082546085 -0.06916813 0.021865472 0.016061736
-0.08281996 -0.043101747 0.031065142 0.042924482 -0.049887188 -0.011199622 -0.050158355 -0.0044241506
0.057023738 0.026172861 0.030285848 -0.013956503 -0.033987075 0.055193573 0.047123626 0.0013691769
00000000: 27ea 8ebc c272 0d3b 4695 b5bc 79de 0bba
00000010: e04e b43c 8b2d 663d dd7b 79bd 14f8 a0bb
00000020: a701 97bd 6852 173d 1080 f7ba 767b 8dbd
00000030: d52d 533c 4304 aebb 4fe0 343c f044 963c
00000040: 245d 26bc bd26 ec3b f87f 71bc 629b 9abc
00000050: 83ad 2a3d efe2 42bd 3254 363d 76e1 413d
00000060: 17d0 9d3d 335e 86bd c568 e5bc c52a 9fbd
00000070: 7c62 dabc c2c8 b1bd 8f5a 483c f5e9 d03c
00000080: 6258 173d d44b b2bd 25f8 3bbc 694b 003d
00000090: 35b7 dcbc 1229 52bd 7d81 123d e0d3 173d
000000a0: 0984 483d feae a5bc a23e 113d 1da3 aebd
000000b0: 0b35 11bc e15c c53c d2bf 72bd ecf3 57bd
000000c0: ae0a 8cbd 3d6b 53bd f9ba 663c d84f 18b8
000000d0: 5942 133c 8d1e e93c e0e1 3ebd 3304 2bbd
000000e0: 3a8f 5b3d 16f5 19bd f775 1abc 3940 d9bc
000000f0: b19d cc3c c28a f7bc d42d a4bc a253 a23c
00000100: 1956 26bc d6cb 7dbd 0bbb 453d 2c5b e93c
00000110: 8b22 1d3d a61c 483d 0e8d 623d 10eb 643c
00000120: 767f 953b b3db 9f3c 42c8 063d 2eef c4ba
00000130: 21e3 e3bc 15a6 40bd f221 06bd c11e 79bb
00000140: 9815 603c 422c 11bd 4a9e 2abd f97e 4c3d
00000150: 8b82 573d 7587 b93c da9b abbb 93d5 73bd
00000160: 3d0b fa3c 7cf3 0f3d c28b 36bd 8706 e4bc
00000170: 1aad 1b3d c5df a23b 8cc4 303b 12ae 373d
00000180: fba5 a8bd ff24 2c3d 5799 4fbb f7e9 5c3d
00000190: 43d7 28bc 78b2 41bd 7fc9 113d 318a 23bd
000001a0: 4aba 44bc edf3 8fbd c677 993c 81a8 263d
000001b0: 6a47 5e3b f663 0cbc 7c88 abbd f975 443b
000001c0: c230 eabc e721 afbd 375b a03d df95 5a3d
000001d0: 5665 dfbc f51f 593c b2a1 36bc 21e1 eebb
000001e0: 7267 73bd 78cb 71bd 453d 723c 6074 763c
000001f0: fffc 923c 0467 d6bc 2165 94bd 2821 29bc
00000200: d978 c33c 13c5 8bbd e2b2 96bd 1d51 81bc
00000210: 3cdd 743c 93c5 84bd 92fa c73c 5f45 313d
00000220: b987 0a3d d547 71bc a801 4cbd fecb 3a3d
00000230: 418e d8bc dacf 0a3d c670 d3bc bf43 78bd
00000240: 943b a33b 7cf0 71bd 5a8a 57bd 6b3d 2fbc
00000250: 4e43 613d c7b4 533d b8c7 523d c2b0 c83b
00000260: cdbc 30bd c199 6f3c 66f4 243d e4be a4bb
00000270: 0ec7 1d3d a7f3 9fbc 196f 303d 0ff9 aabc
00000280: 4fb6 a03c 0cf3 8bbd 1b2b 543c 94d4 33bd
00000290: ac30 5fbb b51a 5c3d 3217 c13c 60c4 2bbd
000002a0: d4a3 413d 96fa 84bd d41d 4a3c 4f4b 71bd
000002b0: e3b7 77bd 7214 c23c c042 be3d f86b babb
000002c0: 36c2 013c acdd 77bd efd2 02bc 9a3f 77bd
000002d0: 1f07 bfbc 94c5 2f3c 2810 a1bd 3929 d13b
000002e0: 4658 0cbd 03fe 22bd ebba 41bd e0ba bb3c
000002f0: 7622 3fbc 0b95 073c f8ef a53c 7f10 1bbc
00000300: 0588 fabc 9439 bbbb 835a 6ebc 69d9 5cbc
00000310: a7c3 373c c371 613c 0897 823d 01b8 5a3d
00000320: 1d51 a8bd 364a 93bd fa2f 163d e24d 97bc
00000330: 5b15 053d 8cb2 89bd 157e 6ebb 4262 8f3c
00000340: c672 06bd 1d75 1ebd 4ad3 4dbd 09ac 93bc
00000350: 03d4 45bd 161b e23c 2917 35bd 060f 95bd
00000360: 6457 c93b a36a 0b3d 4c62 0bbd 7215 7d3d
00000370: 3824 64bd a04b 3dbd ec85 a23b e6be 9e3a
00000380: c2f3 403d 79b9 9cbd 85fd 1dbd 54d9 c63c
00000390: 4ac7 6bbd ffaa 1dbd 7b30 bb3c 627f 88bc
000003a0: d66b 7b3c 034d 6dbd 95e0 3f3b b7dd ffbc
000003b0: ec0d a9bd 05a8 8dbd 381f b33c e793 833c
000003c0: 839d a9bd 758b 30bd 537c fe3c 95d1 2f3d
000003d0: 8256 4cbd 9f7e 37bc d972 4dbd 77f8 90bb
000003e0: b991 693d 7868 d63c 071a f83c d1a9 64bc
000003f0: 0836 0bbd a812 623d b404 413d f475 b33a

bn2.running_mean f4 [4]
-0.6006019 -1.1444352 -1.2992201 -0.7578108
00000000: 0cc1 19bf da7c 92bf d84c a6bf e3ff 41bf

bn2.running_var f4 [4]
1.2207015 2.153465 1.9262542 1.6063738
00000000: f23f 9c3f 5fd2 0940 7f8f f63f a89d cd3f

fc1.weight f4 [32, 196]
0.06790393 0.006411232 0.03807248 -0.017921176 0.01878242 -0.005165735 -0.029542223 -0.06437165
0.05488621 -0.03870889 -0.06712173 -0.058809005 -0.052758858 -0.041160967 -0.003552353 -0.050832298
-0.007141984 0.049571816 0.01222942 -0.048897646 -0.00018950638 -0.007506429 0.04923679 -0.06860761
-0.01723682 0.025855321 0.065585524 0.022288783 -0.013236419 0.0019162596 0.044147216 0.053710993
-0.021295989 0.06619815 0.051656246 -0.018842855 0.06294259 -0.052711055 0.024579717 0.002776474
0.015444852 -0.052985255 0.006666976 -0.046423268 0.037441462 -0.012670607 -0.016544424 -0.012336832
0.054945488 0.0065453905 -0.047261026 -0.053972114 0.023319896 0.022603054 0.048361853 0.04872516
-0.041557807 0.055602275 -0.023772897 -0.03573285 0.04682499 -0.072953224 -0.023472982 -0.018476095
-0.044224244 0.044377916 -0.07240256 0.03888598 -0.0042079426 -0.022339912 0.041642014 -0.014704353
0.055566344 -0.06262111 0.0034042553 0.05001998 -0.0602894 -0.03223521 0.05191217 0.045443483
-0.019933263 -0.04250214 0.00654533 -0.07325209 -0.06356516 0.044834543 0.05282062 -0.06563594
-0.0017728297 -0.007892943 0.025772853 -0.033664342 -0.040120646 0.015780905 -0.061901793 -0.031424746
-0.01624955 -0.038742717 -0.06326266 0.042603422 0.040307872 0.018710442 0.03797619 0.031931497
0.009824451 0.03827736 -0.058317766 0.06017779 -0.0064617097 0.013299373 0.059795257 0.04649592
-0.027122054 -0.061484616 -0.045795735 -0.0111092245 0.022240546 -0.0348402 -0.038358975 -0.0050599435
0.06491432 -0.059338618 -0.06442662 0.030303841 -0.06887477 -0.055008654 -0.03973454 -0.0597909
0.037551664 0.045251507 -0.038058482 0.016054971 0.049641404 -0.07650394 -0.06648229 -0.06548842
-0.0728663 -0.046224285 -0.024447668 0.03965663 -0.026422475 0.012926773 0.046484884 -0.055269886
0.01816308 -0.004291926 -0.07180107 -0.010205448 -0.05637739 0.041261885 0.052137338 0.04574779
-0.053849157 -0.05238127 -0.072178714 0.05234343 -0.0129736345 -0.06199005 0.023153355 -0.02570717
0.05148097 0.051220663 0.05358335 0.042263836 -0.060436744 0.031650987 0.007964503 -0.026172997
-0.066661224 -0.064218245 -0.030446779 -0.0042490484 -0.023732822 -0.029956765 0.07288797 0.045265876
0.04159021 -0.0429915 0.0009101684 0.039965022 -0.043329768 -0.064084984 0.04207949 -0.0027687745
0.016955456 -0.012634851 0.033850692 -0.037800625 0.04759141 0.03486135 0.0012311749 0.031458642
0.0046949196 -0.015749972 0.023097003 0.03399487 0.07930252 0.060716145 0.05049024 -0.0003762318
0.046208415 -0.049146462 -0.040182833 -0.043573797 0.06355219 -0.0451233 0.052268405 -0.03005856
-0.0688574 0.0722901 0.06916345 -0.011147782 0.052964658 0.05791769 -0.008148878 -0.065126754
-0.022235943 -0.057657734 0.0516547 -0.03636879 -0.049380716 0.026054 0.063936666 0.056352947
-0.09007255 -0.0061287293 -0.04160651 0.0038544892 -0.028073315 -0.07101609 -0.044438813 -0.043179218
0.05042166 0.011619613 0.023959072 -0.0036425353 -0.003616936 0.057668634 0.050082568 0.025864713
0.074513294 -0.017620109 -0.044451818 0.058570635 -0.05021513 0.023979276 -0.05159476 -0.042139404
0.019714741 -0.000785104 0.022528928 -0.06364645 0.009826658 0.03087145 -0.074203804 0.065777525
00000000: 3711 8b3d 5015 d23b e4f1 1b3d 6ecf 92bc
00000010: 97dd 993c 5345 a9bb 8802 f2bc 49d5 83bd
00000020: 5dd0 603d 378d 1ebd 1e77 89bd b6e1 70bd
00000030: ac19 58bd 6798 28bd 98ce 68bb 8735 50bd
00000040: 4e07 eabb d10b 4b3d e85d 483c e648 48bd
00000050: 3bb6 46b9 7ef8 f5bb 84ac 493d 2682 8cbd
00000060: 3b34 8dbc 8ace d33c b451 863d f796 b63c
00000070: 91dd 58bc 012b fb3a b6d3 343d 0f00 5c3d
00000080: ed74 aebc e592 873d 8095 533d 555c 9abc
00000090: 0be8 803d 8ce7 57bd 675b c93c 81f5 353b
000000a0: 680c 7d3c 1107 59bd a676 da3b 5326 3ebd
000000b0: 385c 193d 6198 4fbc 2c88 87bc 6c20 4abc
000000c0: 850e 613d b77a d63b c794 41bd dd11 5dbd
000000d0: 5e09 bf3c 0a2a b93c 1417 463d 0994 473d
000000e0: 8538 2abd 36bf 633d 61bf c2bc 9c5c 12bd
000000f0: 90cb 3f3d 8068 95bd 694a c0bc 2e5b 97bc
00000100: 7b24 35bd 9ec5 353d cb47 94bd e846 1f3d
00000110: c8e2 89bb 3102 b7bc d190 2a3d 87ea 70bc
00000120: 8999 633d 7f3f 80bd ed19 5f3b c0e1 4c3d
00000130: 05f2 76bd 1109 04bd dba1 543d f222 3a3d
00000140: 154b a3bc b916 2ebd 357a d63b 3105 96bd
00000150: 732e 82bd 6da4 373d 6f5a 583d 236c 86bd
00000160: 4b5e e8ba 6751 01bc 9721 d33c 9fe3 09bd
00000170: 8c55 24bd f546 813c bc8c 7dbd 3cb7 00bd
00000180: c71d 85bc afb0 1ebd da8f 81bd ed80 2e3d
00000190: de19 253d a446 993c ec8c 1b3d 9aca 023d
000001a0: bcf6 203c b9c8 1c3d 9cde 6ebd fc7c 763d
000001b0: c0bc d3bb 9de5 593c dfeb 743d 8172 3e3d
000001c0: 122f debc 4bd7 7bbd 4f94 3bbd 7703 36bc
000001d0: ce31 b63c 99b4 0ebd 4d1e 1dbd e2cd a5bb
000001e0: cdf1 843d 0d0d 73bd 1bf2 83bd c33f f83c
000001f0: 370e 8dbd c150 61bd afc0 22bd 4ee7 74bd
00000200: c6cf 193d a559 393d 36e3 1bbd b785 833c
00000210: c954 4b3d 19ae 9cbd de27 88bd cb1e 86bd
00000220: ed3a 95bd ad55 3dbd 7a46 c8bc fe6e 223d
00000230: f273 d8bc d1ca 533c ef66 3e3d ad62 62bd
00000240: bdca 943c 49a3 8cbb 700c 93bd c034 27bc
00000250: faeb 66bd 3902 293d f68d 553d 0962 3b3d
00000260: ef90 5cbd be8d 56bd 6fd2 93bd 1166 563d
00000270: 5e8f 54bc 47e9 7dbd 1bac bd3c d897 d2bc
00000280: b6dd 523d c2cc 513d 377a 5b3d d81c 2d3d
00000290: 858c 77bd 77a4 013d 8c7d 023c c168 d6bc
000002a0: ae85 88bd db84 83bd 866b f9bc 9a3b 8bbb
000002b0: 566b c2bc e467 f5bc 4a46 953d b668 393d
000002c0: 7f5a 2a3d db17 30bd 5e98 6e3a 5db2 233d
000002d0: 8e7a 31bd fd3e 83bd 8b5b 2c3d 5474 35bb
000002e0: 2be6 8a3c 6802 4fbc 06a7 0a3d d4d4 1abd
000002f0: 36ef 423d c6ca 0e3d 605f a13a c7da 003d
00000300: d7d7 993b 1606 81bc ed35 bd3c 343e 0b3d
00000310: 5c69 a23d 7eb1 783d dbce 4e3d fa40 c5b9
00000320: 0945 3d3d cd4d 49bd c196 24bd 707a 32bd
00000330: a727 823d 36d3 38bd 6517 563d 5f3d f6bc
00000340: 1c05 8dbd d50c 943d 91a5 8d3d 30a5 36bc
00000350: 78f1 583d 1a3b 6d3d df82 05bc 2d61 85bd
00000360: 2728 b6bc 842a 6cbd e193 533d 71f7 14bd
00000370: 6f43 4abd 336f d53c 3af1 823d 59d2 663d
00000380: f577 b8bd 82d3 c8bb 966b 2abd 999b 7c3b
00000390: 02fa e5bc e270 91bd 7905 36bd b1dc 30bd
000003a0: f186 4e3d 3060 3e3c d145 c43c 9ab7 6ebb
000003b0: 1e0a 6dbb f235 6c3d 6123 4d3d 3ce2 d33c
000003c0: 6d9a 983d 0c58 90bc 1c13 36bd c3e7 6f3d
000003d0: 61ae 4dbd 3070 c43c 0755 53bd 5e9a 2cbd
000003e0: cf80 a13c 70cf 4dba 968e b83c 1259 82bd
000003f0: feff 203c 20e6 fc3c 2af8 97bd 5eb6 863d

deconv1.weight f4 [2, 4, 5, 5]
-0.03815812 -0.0018344963 0.06347258 0.015603856 0.06281907 -0.08650968 -0.025628602 0.05893214
-0.04005485 -0.090005025 0.05855922 -0.035254806 0.040435407 0.09931207 0.042680614 0.06395696
-0.08148849 -0.005561079 0.034777373 -0.08317137 0.014488326 0.013058448 0.065208025 -0.030231906
-0.03832139 0.02882174 0.1100029 -0.070273995 0.0812246 -0.01993845 -0.024027757 -0.05211355
0.024473218 0.048774764 0.0010440946 0.008938611 -0.057445403 0.001239824 0.016340844 0.06938756
0.036623523 -0.06383539 -0.03085723 0.056677353 0.10778299 0.06464382 0.026114028 -0.015743453
-0.06480026 -0.082690336 -0.06811836 0.035131477 -0.024518609 -0.042710852 0.07499222 -0.037939705
-0.027287908 -0.02275831 0.028827952 -0.057579894 -0.071301 0.024919204 -0.038871743 0.05401967
0.077209346 -0.067389876 0.09809735 0.041099697 -0.04393769 0.06106057 0.024934618 0.103275895
-0.019313807 -0.03280514 0.022184048 0.017848527 -0.0792332 0.030607445 -0.032541048 0.0937055
-0.044811174 -0.02988892 0.06684736 0.06713089 -0.08097627 0.060629 0.056083143 -0.040815752
-0.035006195 0.022758717 0.027533391 -0.07271449 -0.04609764 -0.026156899 -0.01294174 -0.02847951
0.024940765 0.06378645 -0.032920226 0.056196675 -0.013068197 0.010556002 -0.067734495 0.069471695
0.07633929 0.029041301 -7.738339e-05 -0.0006182215 -0.067001686 0.0630025 0.086741924 0.03424348
0.034022458 0.055479288 -0.025614167 -0.024973985 0.06571821 0.04593396 -0.06859906 0.028544456
0.017646274 -0.13473693 0.008636418 -0.061413057 -0.039463263 0.029522205 -0.11727794 -0.026726576
-0.007267462 -0.04074208 0.044520427 0.06686732 -0.014436492 0.05341683 -0.0074717677 0.041559372
-0.07231966 -0.057869878 0.06415694 -0.01385686 -0.029215492 -0.020245915 0.06738163 0.061806787
-0.0721665 0.050420534 -0.04821008 0.009345712 0.04001827 0.09551935 0.0820923 -0.054389287
0.06947441 -0.009955663 0.058414124 0.049599685 0.042372275 0.00044924152 0.08811428 -0.06272148
0.05450211 -0.0023073503 0.060106605 -0.06478893 0.027740834 0.023698358 0.00012863663 -0.020858634
0.01032862 0.06135113 0.0764824 -0.005400843 -0.015271493 0.005743423 0.080353625 -0.042401217
-0.080892034 -0.109371684 0.061609335 0.0271081 -0.093785204 0.03605883 -0.0023357691 -0.08901862
0.0366895 -0.00043065276 0.02921108 -0.028742686 0.0026530994 -0.004636659 0.0033878072 -0.045604665
-0.06338391 -0.06528667 -0.10516837 -0.1072417 0.022243155 0.029498402 -0.04564573 -0.06904215
00000000: b04b 1cbd 7b73 f0ba e9fd 813d 51a7 7f3c
00000010: 49a7 803d fd2b b1bd 13f3 d1bc d462 713d
00000020: 8e10 24bd 8e54 b8bd cbdb 6f3d 5867 10bd
00000030: 999f 253d 2064 cb3d ded1 2e3d defb 823d
00000040: 70e3 a6bd b639 b6bb b872 0e3d c055 aabd
00000050: 7260 6d3c 1af3 553c c98b 853d e7a8 f7bc
00000060: e4f6 1cbd 921b ec3c 3349 e13d d0eb 8fbd
00000070: 1559 a63d f655 a3bc dcd5 c4bc 0575 55bd
00000080: 0f7c c83c 0cc8 473d 00da 883a 4073 123c
00000090: df4b 6bbd 9781 a23a 3cdd 853c 111b 8e3d
000000a0: 8c02 163d 21bc 82bd 4dc8 fcbc 8326 683d
000000b0: 54bd dc3d fb63 843d 16ed d53c 6af8 80bc
000000c0: 00b6 84bd 8d59 a9bd a481 8bbd 06e6 0f3d
000000d0: 40db c8bc 93f1 2ebd 8595 993d aa66 1bbd
000000e0: e48a dfbc a36f babc 9928 ec3c e5d8 6bbd
000000f0: 4206 92bd 5c23 cc3c fa37 1fbd bb43 5d3d
00000100: ef1f 9e3d b403 8abd 43e7 c83d 2858 283d
00000110: 02f8 33bd a61a 7a3d af43 cc3c 5082 d33d
00000120: fd37 9ebc af5e 06bd 52bb b53c 1337 923c
00000130: 0445 a2bd 77bc fa3c c349 05bd abe8 bf3d
00000140: ec8b 37bd 9cd9 f4bc 45e7 883d ec7b 893d
00000150: e3d6 a5bd 1d56 783d 70b7 653d 6b2e 27bd
00000160: a862 0fbd 7d70 ba3c b58d e13c 56eb 94bd
00000170: e1d0 3cbd fe46 d6bc 9809 54bc dd4d e9bc
00000180: 9350 cc3c 78a2 823d 5cd7 06bd 7c2e 663d
00000190: fe1b 56bc 15f3 2c3c 62b8 8abd 2d47 8e3d
000001a0: c657 9c3d 06e8 ed3c e448 a2b8 2410 22ba
000001b0: 2e38 89bd 7407 813d c0a5 b13d e442 0c3d
000001c0: 225b 0b3d 403e 633d cdd4 d1bc 3e96 ccbc
000001d0: 4597 863d 3f25 3c3d aa7d 8cbd 10d6 e93c
000001e0: eb8e 903c 7af8 09be c37f 0d3c 428c 7bbd
000001f0: 3ba4 21bd 8dd8 f13c 6b2f f0bd b1f1 dabc
00000200: e423 eebb 2be1 26bd 0d5b 363d bcf1 883d
00000210: 0987 6cbc 9bcb 5a3d bbd5 f4bb 293a 2a3d
00000220: 541c 94bd f708 6dbd b764 833d e207 63bc
00000230: 5455 efbc c3da a5bc 61ff 893d 1d29 7d3d
00000240: 08cc 93bd c385 4e3d ef77 45bd c21e 193c
00000250: 33ea 233d a69f c33d 0220 a83d 4dc7 5ebd
00000260: 9948 8e3d 141d 23bc a643 6f3d 0a29 4b3d
00000270: 8d8e 2d3d 2d88 eb39 4275 b43d 1f74 80bd
00000280: 9b3d 5f3d ea36 17bb 5832 763d 0fb0 84bd
00000290: bf40 e33c 0f23 c23c a2e2 0639 badf aabc
000002a0: 5f39 293c 534b 7b3d cea2 9c3d 8ef9 b0bb
000002b0: 4935 7abc 5333 bc3b 7190 a43d e6ac 2dbd
000002c0: b9aa a5bd 43fe dfbd 125a 7c3d ce11 de3c
000002d0: 7512 c0bd 6cb2 133d b413 19bb 654f b6bd
000002e0: bb47 163d 3cc9 e1b9 134c ef3c c875 ebbc
000002f0: 9fdf 2d3b 1def 97bb f905 5e3b f5cb 3abd
00000300: 6ccf 81bd 05b5 85bd 8462 d7bd 89a1 dbbd
00000310: 4737 b63c a2a6 f13c 04f7 3abd f965 8dbd

bn3.running_mean f4 [4]
0.085631356 0.095983244 0.21306269 -0.25002205
00000000: 7e5f af3d dd92 c43d 1b2d 5a3e e402 80be

bn3.running_var f4 [4]
0.049370438 0.046240997 0.028358255 0.044469677
00000000: a838 4a3d 3367 3d3d 924f e83c d625 363d

deconv2.weight f4 [4, 8, 5, 5]
-0.021183616 -0.042634033 0.042191144 0.011631164 0.06891489 0.027317181 -0.007073133 -0.047844924
0.030155381 0.03329081 -0.043185767 0.016488498 -0.0063458066 0.042608127 0.0012514206 -0.03855155
-0.013720028 0.037726514 0.047843993 -0.03364252 -0.077253446 -0.024123544 0.00053079106 -0.012027286
0.0041989502 -0.0055022384 0.026507216 0.05071323 -0.045805994 0.032768447 0.07166574 0.017586691
0.03394847 0.012025511 0.04973743 0.014221006 0.027806576 0.08303347 -0.012379145 -0.015424655
0.022924745 0.03715543 0.028090153 -0.048156828 0.0024052633 0.055827647 -0.024894197 0.055863082
0.03052615 -0.080540806 -0.05605049 -0.0944032 0.012397111 0.027829142 0.019776696 0.035642266
-0.019716948 -0.0690717 0.05522781 0.021603309 0.012125795 0.005570091 0.017924746 0.05118013
-0.017852759 -0.007174351 -0.036183435 0.011928531 -0.04326887 0.0008638772 -0.0011972687 0.005530929
0.04050771 -0.02809796 -0.011942777 0.0048151077 0.016100833 0.03299287 -0.019616285 0.0021271612
-0.022653375 0.04805446 -0.0556019 -0.016886245 0.015981117 0.030936057 -0.056816053 0.02599033
-0.03105947 0.011809271 0.012515317 -0.018030237 0.024751212 -0.08362783 0.051901393 -0.0077385325
-0.047350023 0.06530497 0.03849645 0.0025841333 0.060035683 0.0038514077 0.036675353 0.017788865
0.05638479 -0.00906183 -0.0694609 -0.044185497 -0.04433605 -0.05430441 -0.03056109 -0.07853106
-0.03201656 0.043927964 0.016650049 0.025158774 0.036135115 -0.0064014983 0.049891394 0.08206099
-0.020765418 0.017253088 0.048932698 0.045660567 0.004393539 -0.07060321 -0.09494634 0.012387322
0.025811 -0.060251772 0.061437763 -0.018163556 -0.08410358 -0.021279093 -0.018890183 -0.060281247
0.0077810967 0.03298792 -0.015886722 0.003846977 0.022458544 -0.016148016 -0.08153314 0.05765271
0.018149186 -0.076649986 -0.04872367 0.024017915 -0.011722964 -0.03062028 0.02306407 0.022635587
-0.0019490614 0.03552398 0.031959273 0.04161489 -0.007911476 0.0766813 -0.027014026 0.0063643064
-0.045275126 0.05797168 0.08176878 0.059894353 0.0271209 0.05290055 0.016944857 -0.06469676
-0.057734538 0.049702443 -0.0771965 -0.0464381 -0.012967447 -0.040303294 -0.03366691 -0.057622954
0.017664919 -0.060424022 0.07597247 0.06764318 0.039852723 -0.021426478 -0.0054063387 0.030967698
-0.0044798516 -0.008515535 0.04823633 -0.038092732 0.007407035 -0.013369697 -0.048411436 0.039242703
-0.052532703 -0.049009517 0.05221765 0.013140683 -0.04512527 0.038794145 0.046997853 -0.0017334304
0.004265028 0.08188901 -0.01890273 0.021532968 -0.0116766775 -0.06705463 0.06610288 -0.030933542
0.014645712 -0.066366106 -0.031557478 0.080979414 0.013581689 -0.008638759 -1.1543139e-05 0.04844942
-0.0041650226 -0.063001685 -0.04989222 0.047155082 0.0015447185 -0.054808322 -0.0135461185 0.017452564
0.06198643 -0.04754523 -0.041151576 0.060483776 -0.061959974 0.045955304 -0.045671172 -0.021012018
0.021015536 0.06484329 0.030807178 -0.058433313 -0.041354045 -0.055374693 0.13388696 -0.069309294
-0.066731825 -0.041168805 0.00343922 -0.0088385595 0.019447649 -0.021652544 -0.037541788 0.0015419787
-0.0108123375 0.039037213 -0.024385866 -0.03161165 -0.016086128 -0.0016957388 -0.03332038 0.04577996
00000000: 4389 adbc 06a1 2ebd 9fd0 2c3d a390 3e3c
00000010: 4023 8d3d 48c8 df3c bdc5 e7bb 0af9 43bd
00000020: 6b08 f73c f25b 083d 8fe3 30bd e312 873c
00000030: 7cf0 cfbb dc85 2e3d b506 a43a 3be8 1dbd
00000040: f8c9 60bc 1e87 1a3d 10f8 433d bdcc 09bd
00000050: 0e37 9ebd bd9e c5bc c924 0b3a 180e 45bc
00000060: 5997 893b 1f4c b4bb a925 d93c adb8 4f3d
00000070: 119f 3bbd 3538 063d 7dc5 923d f711 903c
00000080: 8d0d 0b3d a606 453c 7ab9 4b3d 39ff 683c
00000090: 9eca e33c 740d aa3d e6d1 4abc b1b7 7cbc
000000a0: adcc bb3c 4b30 183d 521d e63c 1840 45bd
000000b0: 9fa1 1d3b 88ab 643d eaee cbbc b0d0 643d
000000c0: fa11 fa3c 94f2 a4bd 3395 65bd 7756 c1bd
000000d0: 411d 4b3c f1f9 e33c bd02 a23c a0fd 113d
000000e0: 7085 a1bc 7775 8dbd 8e36 623d 6cf9 b03c
000000f0: 45ab 463c 4f85 b63b ebd6 923c 42a2 513d
00000100: f33f 92bc d116 ebbb 1535 14bd e36f 433c
00000110: b33a 31bd d175 623a aced 9cba cc3c b53b
00000120: 6aeb 253d b12d e6bc a3ab 43bc 0dc8 9d3b
00000130: e5e5 833c 8823 073d 55b2 a0bc d867 0b3b
00000140: 9293 b9bc c1d4 443d d1be 63bd 0655 8abc
00000150: d5ea 823c 9d6d fd3c f3b7 68bd ace9 d43c
00000160: 6e70 febc ac7b 413c 0b0d 4d3c 26b4 93bc
00000170: 0ec3 ca3c 1145 abbd 8e96 543d 8493 fdbb
00000180: 19f2 41bd 9dbe 853d 74ae 1d3d 905a 293b
00000190: fae7 753d e667 7c3b e538 163d f4b9 913c
000001a0: bdf3 663d 1278 14bc 8441 8ebd dafb 34bd
000001b0: b899 35bd 4d6e 5ebd 405b fabc e4d4 a0bd
000001c0: cc23 03bd cfed 333d af65 883c c619 ce3c
000001d0: 6a02 143d a9c3 d1bb eb5a 4c3d 980f a83d
000001e0: 3d1c aabc 5956 8d3c a76d 483d 9306 3b3d
000001f0: adf7 8f3b 6a98 90bd 3a73 c2bd 32f4 4a3c
00000200: 9771 d33c 90ca 76bd 2aa6 7b3d bdcb 94bc
00000210: 7f3e acbd 7e51 aebc 96bf 9abc 78e9 76bd
00000220: 92f8 fe3b 571e 073d df24 82bc 901d 7c3b
00000230: fbfa b73c d848 84bc d9fa a6bd 3f25 6c3d
00000240: 9aad 943c abfa 9cbd 7992 47bd 38c1 c43c
00000250: ad11 40bc 62d7 fabc dcf0 bc3c 446e b93c
00000260: a677 ffba 9881 113d bae7 023d 6074 2a3d
00000270: 239f 01bc 160b 9d3d 854c ddbc ac8b d03b
00000280: 6972 39bd b673 6d3d 6476 a73d c853 753d
00000290: a62c de3c 3fae 583d f1cf 8a3c bc7f 84bd
000002a0: 0d7b 6cbd ca94 4b3d 3319 9ebd e135 3ebd
000002b0: 6a75 54bc 1115 25bd 50e6 09bd 0c06 6cbd
000002c0: 05b6 903c 2e7f 77bd 7497 9b3d 8288 8a3d
000002d0: 9c3c 233d 9586 afbc a827 b1bb f8af fd3c
000002e0: b8cb 92bb be84 0bbc 7593 453d 2007 1cbd
000002f0: b7b6 f23b 930c 5bbc 124b 46bd f5bc 203d
00000300: 882c 57bd 34be 48bd 2de2 553d 054c 573c
00000310: 46d5 38bd 9ce6 1e3d d280 403d 4634 e3ba
00000320: a6c1 8b3b 6db5 a73d e6d9 9abc e865 b03c
00000330: 894f 3fbc f053 89bd f260 873d 5768 fdbc
00000340: 92f4 6f3c f4ea 87bd 6a42 01bd 89d8 a53d
00000350: bc85 5e3c 9589 0dbc 68a9 41b7 e672 463d
00000360: be7a 88bb 0707 81bd c95b 4cbd b025 413d
00000370: 2778 ca3a b17e 60bd 8af0 5dbc aef8 8e3c
00000380: 7ce5 7d3d c9be 42bd 8e8e 28bd d6bd 773d
00000390: bec9 7dbd a13b 3c3d b211 3bbd 6521 acbc
000003a0: c628 ac3c 8fcc 843d 565f fc3c c557 6fbd
000003b0: dc62 29bd 93d0 62bd aa19 093e 08f2 8dbd
000003c0: b2aa 88bd 9fa0 28bd 8964 613b 9bcf 10bc
000003d0: ad50 9f3c ad60 b1bc 6bc5 19bd 381c ca3a
000003e0: 3b26 31bc 7ce5 1f3d dec4 c7bc 387b 01bd
000003f0: 0ec7 83bc 8d43 deba f37a 08bd c483 3b3d

bn4.running_mean f4 [8]
-0.15142603 0.37195364 -0.22632632 0.111490116 0.29695395 -0.21485958 0.22610557 -0.12818651
00000000: 6d0f 1bbe b570 be3e 16c2 67be ee54 e43d
00000010: 590a 983e 2604 5cbe 3888 673e 5343 03be

bn4.running_var f4 [8]
0.018388294 0.13792893 0.1610672 0.085447595 0.035321347 0.069300435 0.124040574 0.07419582
00000000: 0ca3 963c 3e3d 0d3e cdee 243e 26ff ae3d
00000010: 1ead 103d 63ed 8d3d fc08 fe3d faf3 973d
