log/mnist_test_class_6/model.tar (torch, 71258 bytes, 21 tensors)

conv1.weight f4 [8, 1, 5, 5]
00000000: 25d2 dabd 13be 803d b285 543e 5bc6 203e
00000010: d9f8 fe3d d7da adbd b2e3 d23d 8b05 b4bd
00000020: 6aa8 123d f8bf 513e 4713 443e 6a82 ffbc
00000030: fe0d 4e3e c47f 033d bb87 133e 3243 dbbd
00000040: ef04 4f3e 32b2 273d 19ce 033e 495d 023e
00000050: 2728 7abd 5d19 c2bc 73bb 3cbc 8a60 ffbd
00000060: a8c6 48bd af6a 4b3e 6c22 0a3d 311b b5bd
00000070: fc34 393e ffc0 3abd ad36 1f3d 65cd 533e
00000080: 41a1 a23d 5a44 d53d 01dd 04be 8a70 223e
00000090: 9879 793d 72ed 053e 782a 7a3d dfd8 6ebd
000000a0: 6b3e f4bd b31e 123e ee4d 9fbd 3490 54bb
000000b0: 8ced 163e d200 cf3d ece5 1bbe a33a d7bd
000000c0: 50aa bcbc 556d 19bd 1d70 1bbd 0084 23bc
000000d0: be2d 133e 8fdd 3f3c d068 1cbe 32cb e13d
000000e0: 42d2 e7bd 4345 9c3b a7b2 c4bd 3e44 013e
000000f0: df93 c5bd e2ff bb3d fa72 433c a1d0 473e
00000100: 9cbd bdbd 1795 6d3e fd91 fbbd fa2c 163e
00000110: 0cee cdbd 8115 01bd 7aff d53d 3746 153e
00000120: f0b0 453e 472b df3d 0be9 1cbd db31 843d
00000130: a8b2 eb3c ed4c 103e f931 373e 3430 18be
00000140: a58a 44bd f5fa d53d ac6d a9bc 7796 e4bd
00000150: 97a0 213d b48e 82bd 41c9 613d 4f91 f33d
00000160: 430a 403e d928 333e aef6 3c3c be4c 513e
00000170: 6984 aebc 8a8a 613d cf1c 503e f139 bfbd
00000180: 99ed b73d afa9 e4bb f0b1 213e 903f 7d3d
00000190: 7b89 113e 6656 983d b77d 6a3e 5e29 97bc
000001a0: 5364 e73c 716e c2bc 1b52 93bd 2ecf e83d
000001b0: 882a 933d 6e50 3b3e 3bf3 3c3e fc0c b43d
000001c0: 9cb9 dbb9 442c d23d e543 543d a2bf e83d
000001d0: 10f3 783c 81a0 f03d 700e a63c 6177 21be
000001e0: fcc3 f63d 8608 7cbc 1dab 0c3e 943d 943c
000001f0: ea61 b43c aa9d 203e fba3 8a3d f82e 54bd
00000200: c630 6d3d 37d6 1c3e ab19 223d 73f7 093e
00000210: 37e3 493e 9061 fdbc e33e 593d 42a5 7dbd
00000220: cf9e 5c3d f8fc 6cbc 7592 833d 326b 173e
00000230: 0b1e b03d f26c 9e3d c86e dc3d 2f83 e7bc
00000240: e35f 143e 72b7 603d fba9 173d cc3c 1abc
00000250: ae26 1a3e 83c0 66bd 43e6 1f3e b2c9 33be
00000260: 9113 52bd e697 013e 8314 95bd 4dcb 5bbd
00000270: 5421 4a3c f784 41bd 9c82 1cbe 722f 823d
00000280: 91bd 013d 439b 7a3c f537 1a3d a3de 133e
00000290: 0872 19be df50 23bd f2a3 c73d fb48 10be
000002a0: 2adf ae3d 243e c73c a0c6 113e dd93 ec3c
000002b0: c79b 513e a694 163e 24b6 063e 4924 b33d
000002c0: 559d c03d 9040 6d3d 66ee b83d 9de3 3f3d
000002d0: 6423 04be d74d cabd d853 ef3d 9247 ce3d
000002e0: fc00 733d 1fc5 d5bd 4929 d3bc 1689 8a3d
000002f0: 9914 1a3d 1e46 513e ff32 a93d 1d77 743d
00000300: a5be bcbd a453 183e 80db ffbc e756 86bd
00000310: ca04 143e 7b09 6a3d 3bd2 dabd f694 3a3e
-0.10684613 0.06286254 0.20754126 0.15700667 0.12449808 -0.08489006 0.10297336 -0.0879012
0.035805143 0.20483387 0.19147979 -0.031190116 0.20122525 0.03210427 0.14407246 -0.10706176
0.20216726 0.040941425 0.12871589 0.12730898 -0.06107345 -0.023693735 -0.011519301 -0.12469585
-0.04901758 0.19864915 0.033724234 -0.08843077 0.18086618 -0.04559421 0.038870502 0.2068382
0.07940913 0.10413428 -0.12974931 0.15863243 0.060906976 0.1307886 0.061075658 -0.058312293
-0.11925968 0.14269523 -0.07778536 -0.0032434585 0.14739054 0.10107578 -0.15224427 -0.10509231
-0.02303043 -0.037457783 -0.037948716 -0.009980202 0.14372918 0.0117105385 -0.15274358 0.110250846
-0.113194 0.004768999 -0.09604388 0.12623689 -0.09647345 0.09179665 0.011929268 0.1951318
-0.09264681 0.23201405 -0.122837044 0.14665595 -0.100551695 -0.03151465 0.10449119 0.14577566
0.19305778 0.108969264 -0.038308185 0.06454822 0.028771713 0.14091845 0.17890157 -0.14862138
-0.047983784 0.10448257 -0.020682178 -0.111615114 0.03945979 -0.06374875 0.05512357 0.1189295
0.18753915 0.17496051 0.011533422 0.20439431 -0.021303372 0.05506376 0.2032349 -0.09337223
0.08980865 -0.0069782357 0.15790534 0.061828196 0.14212601 0.07438354 0.22899519 -0.018452343
0.02824608 -0.023734303 -0.07193395 0.113676414 0.071858466 0.182924 0.1845216 0.08791539
-0.00041909225 0.10262349 0.05182256 0.11364676 0.015194669 0.11749364 0.020270556 -0.15768196
0.120491 -0.0153828915 0.1373715 0.018095769 0.022019345 0.15685144 0.06769558 -0.051802605
0.057907842 0.15316091 0.03957526 0.134733 0.19715582 -0.03093031 0.05303849 -0.06192518
0.05386239 -0.014464609 0.06424419 0.14786986 0.0859948 0.077356234 0.10763317 -0.028260795
0.14489703 0.054862447 0.03702734 -0.009413909 0.15053818 -0.056335937 0.15615182 -0.1755741
-0.05128819 0.12655601 -0.07279303 -0.05366068 0.012337048 -0.047245946 -0.15284199 0.06356706
0.031674925 0.015295806 0.03765102 0.14440398 -0.14984906 -0.039872047 0.09748067 -0.1409034
0.08538659 0.024321623 0.14235926 0.0288791 0.2046958 0.14705142 0.13155419 0.08747155
0.09405009 0.0579229 0.09029846 0.04684793 -0.12904125 -0.09878128 0.11685914 0.10072245
0.05932711 -0.104379885 -0.025776522 0.06764428 0.0376173 0.20436904 0.0826168 0.059683908
-0.0921605 0.14875656 -0.031232595 -0.06559544 0.14454952 0.057137948 -0.106846295 0.18220887

bn1.running_mean f4 [8]
00000000: 89a6 b23d c8f1 603d 8023 4d3d 5585 be3d
00000010: cfb6 d73d 8e28 d53d 7842 1c3d 8a00 893d
0.0872317 0.05491808 0.050082684 0.09302775 0.10532915 0.10408126 0.038149327 0.06689556

bn1.running_var f4 [8]
00000000: 5713 923c 0ebf 173c 7249 df3b ab4e 893c
00000010: a643 a13c 5446 903c 5d33 993b 5716 1e3c
0.017831488 0.00926186 0.0068141753 0.016761145 0.019685578 0.01761166 0.0046753124 0.009648881

conv2.weight f4 [4, 8, 5, 5]
00000000: 7d4b 19bc 7356 85bc 86aa 78bd d141 99bc
00000010: c411 e33c 34cf 4d3d 8d9d b6bd 2490 2abd
00000020: b038 b1bd 49b1 ad3c 390c 1fbb 3e10 a8bd
00000030: d35f a8bb 6f19 07bc 10cd 89bc 653e 813c
00000040: 3be9 0538 f3f3 f13c b53f b0bc 214e 3cbd
00000050: 245a 403d b207 c7bc 2782 243d 552b f03c
00000060: 303b 5d3d 626e 27bd 842e 02bc 6c20 93bd
00000070: b36a 54bd 9878 cbbd e2db 643c c8c0 993c
00000080: f954 9b3c 8df3 f9bd d8a3 dabc 538e ad3c
00000090: 1d37 bfbc 7b36 38bd 93af 923c 365b cd3c
000000a0: be15 163d 9322 e2bc d871 073d 0fe0 e9bc
000000b0: c3ad a8bc 9a37 e43c ba3f 87bc e82c 31bc
000000c0: efbf 50bd 1122 a7bd 232c 9dbb ea16 8439
000000d0: e8a4 b4bc 7e5b 243c 7b48 30bd 0051 83bd
000000e0: 3f13 3b3d 1991 bebc 8241 b83c b1e5 b0bc
000000f0: 4adb 9b3c f607 71bc 567e 58bc 1447 9c3c
00000100: e273 0abc 8cdb 87bd 5754 483d c9f5 463d
00000110: 3f71 203d 5ffb 523c e892 ea3c ca9b b83c
00000120: 2dcd ba3c a736 8b3c 9172 25bc 98dc 1cbc
00000130: aff8 6dbd 265e 98bd d425 7cbd 8098 44bc
00000140: 4c2f 503c ffbb 2abd fbbe 67bd f147 d03c
00000150: 6150 093d 8bb8 733c a3f9 5abc a61b 6bbd
00000160: 44d1 423c 06fc 873c b137 27bd 381b 90bc
00000170: 2003 343d 3112 d5bb 57d8 40bc e843 443d
00000180: 7257 6dbd 9ce8 253d 6d4a b8bc ade5 143d
00000190: 8bba a939 1710 43bd bb13 4b3b 68c2 8fbd
000001a0: ec30 24bc 728c 97bd 5e2a ee3b 5756 4b3c
000001b0: 66d6 40bc 9424 c6bc bc05 afbd 9b55 5cbb
000001c0: 8112 29bd d6c3 c4bd 55b8 5c3d 3c58 1a3d
000001d0: 4065 36bc c4e9 4a3d 3fbf 71bc 4c62 e5bc
000001e0: 3d85 68bd 10ab 28bd dc6f 083d 5c78 2e3c
000001f0: 1ef7 82ba 362b 37bc f18c aebd 2e9f 1bbd
00000200: 671f 2a3a b17d a8bd 354c 88bd 0e86 f5bc
00000210: ad88 56bc d692 b5bd dbca adbb d4c6 1a3d
00000220: f124 b43c 1304 74bc 2631 94bd 3b4d 933c
00000230: 7847 08bd 1ad5 0b3d adeb 8dbc a309 81bd
00000240: d8cf a4bc ac50 88bd 8ec9 0cbd 2c23 15bb
00000250: 7d60 093d abc3 7b3c a8b9 e03c 98b1 d8bb
00000260: 2b11 45bd 7797 973c 7a96 133d 2d1e 85bc
00000270: d3f1 223d 2cca 003c 83a0 813d ff5b aabc
00000280: bc78 8a3c 8688 67bd 6268 c23c 6937 10bd
00000290: e27b c03b 25ea 293d 2297 073d 1974 2bbd
000002a0: deb0 403d d401 9abd e09c 503b 035a 30bd
000002b0: f7b9 4fbd 131f 0dbc c870 cf3c 2425 35bc
000002c0: 7bdc 08bd 4dc6 c7bd 26f6 cabc aed2 6bbd
000002d0: 2aa9 ecbc 195f 73bc 55a7 cdbd a0ad 1d3c
000002e0: 36f5 48bd 9d0a 52bd 8a9f 8dbd 56b6 73bb
000002f0: faec d3bc a785 85bc 5c93 173c bff6 93bc
00000300: 5da2 96bc 3ae8 95bc 61dc 13bd 8f66 edbb
00000310: 8aa2 24bc b201 b5bc 4fea 0e3d 8bb4 3e3d
00000320: 4019 8ebd 52ef 28bd e367 753d da33 a43b
00000330: 431a d23c 1c5f 36bd 7565 3ebc bf91 773b
00000340: 0f34 54bd 3655 62bd 610e e2bc 0db6 51bd
00000350: f46e c2bd 658d 89bc 04ef 5bbd ce9d 3abd
00000360: 34da 07bd 1eb4 97bc 4e14 4dbd c6bb 6b3d
00000370: 08e5 47bc d4ec 7abd 1113 02bd fd24 b8bc
00000380: 7f22 7f3d bbf0 0fbd ca04 efbc afe1 823d
00000390: 29c5 93ba 9bc9 afba b8bb 823c 286d ffba
000003a0: 3146 5b3d 60cc 66bd 15bd d0bc 5920 43bd
000003b0: 7c6a 57bd 5fcb b2bd ea0e 10bb f934 85bb
000003c0: 4d46 85bd 5572 b6bb 0290 853c 8539 af3a
000003d0: aa0d 5ebd dda2 64bc aab9 95bc 8e6b ac3c
000003e0: b339 b63c ee58 c93b b557 c83c 136a 1e3b
000003f0: 46e5 e9bc 69d6 0f3d a509 713c 6dc9 44bc
-0.009356377 -0.016276574 -0.0607095 -0.018708142 0.027718432 0.050246432 -0.08916769 -0.04164137
-0.086533904 0.0212027 -0.002426876 -0.08206223 -0.0051383763 -0.00824581 -0.016821414 0.015776822
3.1926884e-05 0.02953527 -0.021514753 -0.045972947 0.046960965 -0.024295662 0.040163185 0.029317537
0.054011524 -0.040876754 -0.0079456605 -0.07183918 -0.05185957 -0.09935111 0.01396844 0.018768683
0.018961417 -0.12204657 -0.026689455 0.02118603 -0.02334171 -0.04497383 0.017905986 0.025067907
0.03664183 -0.027604377 0.033067554 -0.028549222 -0.020590669 0.027858544 -0.01650988 -0.010813929
-0.050964292 -0.081607945 -0.0047965213 0.00025194074 -0.02205129 0.010031579 -0.043037873 -0.06411934
0.04567265 -0.023262547 0.022492174 -0.0215939 0.019025464 -0.014711371 -0.013213715 0.019076861
-0.00845048 -0.06633672 0.048908558 0.048574243 0.0391705 0.012877314 0.028634503 0.022535224
0.022802914 0.016993834 -0.010098116 -0.009574078 -0.05809849 -0.074398324 -0.061559513 -0.011999249
0.012706589 -0.041683193 -0.056578618 0.02542493 0.03352392 0.014875541 -0.013365182 -0.057399414
0.011890713 0.016599666 -0.040824596 -0.017591104 0.043948293 -0.0065024127 -0.011770329 0.047916323
-0.057944722 0.040505037 -0.022496426 0.03635185 0.00032373177 -0.047622766 0.0030987102 -0.07019502
-0.0100214295 -0.07399835 0.007268234 0.012410722 -0.011769867 -0.024187364 -0.085460156 -0.003362036
-0.041277412 -0.09607665 0.05388673 0.037681803 -0.011132538 0.049539343 -0.014755069 -0.028000973
-0.05676769 -0.041178763 0.033309802 0.010648813 -0.000999186 -0.011179736 -0.08522976 -0.037993602
0.00064896647 -0.08227099 -0.0665516 -0.029971149 -0.0130941095 -0.08865897 -0.0053037233 0.037787274
0.021990271 -0.0148935495 -0.07235937 0.017981162 -0.033271283 0.034138776 -0.017324293 -0.06300666
-0.020118639 -0.06656012 -0.034371905 -0.002275656 0.033539284 0.015366475 0.027432278 -0.0066129677
-0.048112076 0.018504841 0.036032178 -0.01624974 0.039781403 0.0078607015 0.06329443 -0.02079582
0.016903274 -0.056526683 0.023731414 -0.035209093 0.005874143 0.041483063 0.033103116 -0.041858766
0.047043674 -0.0751988 0.0031831786 -0.043054592 -0.05071446 -0.008613366 0.025322333 -0.011056218
-0.03341339 -0.0975462 -0.024775576 -0.057573967 -0.028889257 -0.014854216 -0.10041682 0.009623915
-0.049061976 -0.051279653 -0.06915195 -0.0037187538 -0.025869835 -0.016299082 0.009251442 -0.018061994
-0.018387968 -0.01829921 -0.03609884 -0.007244892 -0.010048518 -0.022095535 0.034891423 0.046558898
-0.0693841 -0.04124386 0.059913527 0.005011064 0.025647288 -0.044524297 -0.011620869 0.003777608
-0.05180746 -0.055257045 -0.027594747 -0.051199008 -0.09493819 -0.016791055 -0.05369474 -0.04556065
-0.03316708 -0.018518504 -0.050068192 0.05755212 -0.012200601 -0.061261013 -0.031756464 -0.022478575
0.062288757 -0.035141688 -0.029177088 0.06390702 -0.0011273968 -0.0013411524 0.015958652 -0.0019487487
0.053533737 -0.05634725 -0.025480786 -0.04763827 -0.052591786 -0.08730196 -0.0021981546 -0.0040651527
-0.065075494 -0.0055678287 0.01630402 0.0013368583 -0.05421225 -0.013954845 -0.018277008 0.02104738
0.02224431 0.0061446344 0.024455884 0.0024172112 -0.028551709 0.035116587 0.014711772 -0.012010914

bn2.running_mean f4 [4]
00000000: d508 b3bf d977 f5bf daf8 f3bf b21d d8bf
-1.398707 -1.91772 -1.9060318 -1.6884062

bn2.running_var f4 [4]
00000000: e396 4a40 aa5d a940 57a7 9d40 6c38 8e40
3.1654594 5.2926836 4.926677 4.4443874

fc1.weight f4 [32, 196]
00000000: a5d9 153d 90cb 31bc fabd e03c e566 9cbc
00000010: 7835 8d3c deef 42bb 12bd 0dbd 6c50 c7bd
00000020: 103c 3e3d 2520 ebbc a67b 67bd 55cf 1ebd
00000030: df20 2fbd 7c47 40bd 275a c9bc 21a3 14bd
00000040: 20ab e23b 98a6 bf3c a075 743c bec9 03bd
00000050: 2db7 93bb 0e56 8dbc d9f3 493d 4e4d 32bd
00000060: b50c 89bc bd6f 6c3c 398d 633d 58d0 ca3c
00000070: b1e7 dfbb 0bbc 643b aa3c 0d3d 8727 413d
00000080: 5fb9 e2bc 8115 f23c 3f47 203d d94e 98bc
00000090: 5b49 903c cf69 a6bd 872e d73c 5d2d 9d3c
000000a0: 90ac b43c a9bf 78bd 8ddf eabc 7361 4ebd
000000b0: 0584 983c 2d11 67bc b48e a03b 60a6 3437
000000c0: dfcf e83c 7d55 7f3b 7cac 49bd 2c72 21bd
000000d0: 16fd 793c 1c4e a23c 2c9b 4b3d 24b7 333d
000000e0: 0a72 36bd 9fcb 723d eef3 78bc bc6f a1bc
000000f0: 591b e43c 26fa 60bd a6a2 a9bc 2d0c a6bc
00000100: 3663 34bd af45 773d de30 1bbd a49c 3a3c
00000110: d37e 9cbc b434 cabc 707b 2f3d fc03 b9bc
00000120: 350e 0d3d 08e5 6dbd 7bd4 1b3d fb1d df3c
00000130: 91a6 61bd b635 05bd 14c9 3b3d 5597 f43c
00000140: 7b18 19bc 12ac a2bc 2879 d63b 29a7 73bd
00000150: 3009 86bd 1808 3b3d 7ed3 b03c 8388 0dbd
00000160: 07ca 773c 9d70 b93a 3443 c33c 5ad0 12bd
00000170: 4025 26bd 16ea a83c 257d 47bd c5b7 b9bc
00000180: 3dd4 39bc 720e 27bd 0648 89bd a1b3 1a3d
00000190: 1035 193d 0d5d cc3c 8166 243d 774e bd3c
000001a0: 325c ef3b e3a2 0d3d 0bf9 6cbd de7a 5a3d
000001b0: 72b0 94bb e731 cfbc 8744 2c3d 5a7c 1e3d
000001c0: 2104 00bd 10eb 6bbd d51c dcbc c290 203d
000001d0: 072b a63b 9c7a c73a 5ca7 1bbd c11d b6bb
000001e0: 6c9d 553d b344 3cbd cd06 98bd 4c63 7b3c
000001f0: 7792 59bd d9df 39bd 2923 34bd f041 89bd
00000200: 224b 0c3d 24cf 763d fd23 a5bc a836 5a3b
00000210: 5707 5e3d 1c41 a2bd b2de 6dbd 21f0 bfbc
00000220: c0c4 82bd 2289 f1bc 4e91 02bc 3a99 323d
00000230: a795 f7bc 5258 7f3c 0916 523d 8197 fdbc
00000240: e4d7 033d aea8 cdba fd21 9bbd 914c 63bc
00000250: 367e 72bd 0111 0b3d 1048 673d b43b 1c3d
00000260: 9812 3bbd 0522 65bd 06e7 a2bd d04e 333d
00000270: f713 fbbb a363 3dbd ee50 6b3b 8ee6 1cba
00000280: e1c7 563d b69d 2b3d 18ac 3e3d 1e68 373d
00000290: 33f9 2abd 922b 4e3b 86c1 b2bb 5682 f4bc
000002a0: 5ca2 a2bd 01ce 77bd 2959 91bc fe8d bd3b
000002b0: 7d35 c7bc 7b1c 11bd 2118 6f3d 756a 173d
000002c0: 6d92 2a3d 13ba 11bd 56c1 15b8 8d2d 233d
000002d0: 6645 b8bc 6174 4cbd e8d2 1c3d f2a0 093c
000002e0: 04a7 033c 9144 94bc ffde b93c c13b 92bc
000002f0: da21 7c3d 2849 053d 8524 573b 3bf4 d73c
00000300: c549 5c3c ce6c 9eb9 9057 203d 701b 0b3d
00000310: 5c85 593d fac1 233d 096a 353d 7f9a 00bc
00000320: f8ec 233d 9bae 5fbd 54e9 50bd 1b7e a5bd
00000330: c85d 5b3d 8c94 2dbd 81ac 103d ffe0 61bc
00000340: c464 16bd 522c 853d 5485 543d b407 bebb
00000350: 3e1a 173d 63cb 353d cabd 1bbc d252 2abd
00000360: 3a8e fdbc 6924 38bd 6429 8d3d 1835 fdbc
00000370: 0b4b 56bd e5d4 8639 6ae4 093d 5656 273d
00000380: 0147 5abd 2212 3e3c 8e9a 35bd e2e3 b2bb
00000390: 72bd b3bc 0ff4 24bd 7335 58bd 1cac 7bbc
000003a0: 16f5 9a3c b0ae acb7 4254 e83b ae92 80bc
000003b0: 04d7 eb3c f9cb 6f3d 051e 2c3d 9b6a 0c3d
000003c0: 7a64 693c 93ee a33a e6ca a8bc d506 233d
000003d0: 37b2 61bd 49e4 883c 7a47 6cbd 75d8 64bd
000003e0: 15e0 b7bb 975b 7b3c bae6 733d 6ef2 73bd
000003f0: 0254 b93b 5d41 f83c c96e 41bd 73d1 873c
0.036584515 -0.010851756 0.027434338 -0.019092033 0.01723741 -0.0029745023 -0.03460414 -0.09732136
0.046444 -0.028701851 -0.056514405 -0.038771946 -0.042755958 -0.046943173 -0.02457912 -0.036288384
0.0069173723 0.023394868 0.014920622 -0.03217482 -0.0045079202 -0.017252948 0.049304817 -0.043530755
-0.016729692 0.014430937 0.055554602 0.02475755 -0.0068330397 0.0034902121 0.034481682 0.047156837
-0.027676282 0.02955127 0.039130446 -0.018592285 0.017613104 -0.0812565 0.026267303 0.01918667
0.02205494 -0.060729656 -0.02867105 -0.050385904 0.01861764 -0.014103216 0.004899824 1.0767573e-05
0.028419433 0.0038960867 -0.04923676 -0.039415523 0.015258094 0.019812636 0.04970853 0.04387583
-0.04454235 0.05927622 -0.015194876 -0.0197066 0.027845072 -0.05492606 -0.02070744 -0.020269478
-0.044039927 0.06036919 -0.0378884 0.011389885 -0.019103443 -0.024683334 0.04284233 -0.022584908
0.034437377 -0.05807975 0.038044434 0.027235975 -0.05509049 -0.032521926 0.04584606 0.029857317
-0.0093442155 -0.01985744 0.0065452047 -0.05948559 -0.06544721 0.045662016 0.021585222 -0.034554016
0.015123851 0.0014147941 0.023835756 -0.03584323 -0.040562868 0.020619433 -0.04870333 -0.022670636
-0.011342105 -0.04078526 -0.067031905 0.037768964 0.03740412 0.024946714 0.040136818 0.023108704
0.0073046917 0.03457917 -0.057854693 0.05333983 -0.0045376355 -0.02529235 0.04205754 0.03869281
-0.031253938 -0.05759722 -0.026869217 0.03920055 0.005071047 0.0015219036 -0.038001403 -0.005557746
0.052152082 -0.045963954 -0.07423172 0.015343498 -0.053118195 -0.045379493 -0.043978844 -0.0670203
0.03425134 0.06025614 -0.020158762 0.0033296738 0.05420622 -0.07922575 -0.058073707 -0.023429932
-0.06385183 -0.029484335 -0.007969214 0.04360316 -0.030222727 0.015585022 0.051290546 -0.030956032
0.03218831 -0.0015690529 -0.07574842 -0.013873235 -0.059202395 0.033951763 0.05646521 0.038142875
-0.04567203 -0.055940647 -0.079542205 0.043776333 -0.007662292 -0.0462376 0.0035906392 -0.0005985283
0.052436713 0.04189845 0.04655084 0.04477703 -0.04174156 0.0031459075 -0.0054551987 -0.029847305
-0.07941124 -0.060499195 -0.01774271 0.005784749 -0.024317497 -0.03542755 0.05837262 0.03696676
0.04164355 -0.035577845 -3.5704426e-05 0.039838362 -0.02249403 -0.049915675 0.038287073 0.008400189
0.008035425 -0.018099101 0.02268934 -0.017850759 0.06155572 0.03254047 0.0032828164 0.026361575
0.013445322 -0.00030217174 0.039146006 0.033961713 0.053105697 0.039979912 0.044290576 -0.007849335
0.040020913 -0.054609876 -0.05100377 -0.08080693 0.053556234 -0.042377993 0.035320763 -0.013786553
-0.03671719 0.06502594 0.051884964 -0.005799258 0.03689026 0.044383418 -0.009505698 -0.04158289
-0.030951608 -0.0449566 0.0689266 -0.030909106 -0.05231766 0.0002571709 0.0336651 0.04085382
-0.05329037 0.011601003 -0.044336848 -0.0054592947 -0.02194092 -0.040271815 -0.05278535 -0.015360858
0.018915694 -2.0585343e-05 0.0070901224 -0.015694942 0.02878905 0.058544133 0.042020816 0.034281354
0.014245147 0.0012507014 -0.020604562 0.039801437 -0.0551016 0.016710417 -0.057685353 -0.055870492
-0.0056114295 0.015341661 0.05954621 -0.05955737 0.0056557665 0.030304605 -0.047224794 0.016579365

conv1.weight f4 [8, 1, 5, 5]
00000000: 3c92 f6bd e282 513d 99e2 553e 20ea 3e3e
00000010: d8b5 093e f8c8 d1bd 560d af3d a479 eabd
00000020: cf12 f63c cc52 453e 50c1 373e 5afe 5bbd
00000030: 863a 3f3e c7de 943c 56c2 0b3e 7662 00be
00000040: 3410 2e3e 545b e23c 1e7c de3d ce4b f53d
00000050: c31b edbd 3555 27bd a790 bbbc c237 15be
00000060: 6582 6fbd ba8b 263e 4cbc c7bc d2d0 03be
00000070: 791b 293e c913 86bd fd4d adbc 05f8 353e
00000080: 4ad8 773d 18a3 c13d 1e6a 1abe 4e46 d73d
00000090: afaa 033d f5c6 e13d bfd9 443d 8378 94bd
000000a0: fe6b 2bbe 7f52 e13d abae d9bd 778f b9bc
000000b0: 99db 0d3e b445 6f3d 4533 3ebe c6ab 0abe
000000c0: c6d0 22bd 539f 41bd b08f 78bd 1d05 edbc
000000d0: 9872 073e 8c7c aabc 7507 2fbe 634c ae3d
000000e0: f975 0dbe 02b3 7ebc 1704 08be 414c eb3d
000000f0: b506 01be fb9b 813d 0190 8abc 808b 403e
00000100: 5db2 d7bd 08e7 4b3e 30f9 27be 447a 023e
00000110: dd7f d1bd 3f9d 25bd 4f37 8f3d e79d b03d
00000120: 6571 583e 54f4 033e cfe6 3ebd 7a2e d23d
00000130: 2148 5e3d d8e3 223e 3aad 073e ed9d 3cbe
00000140: e181 b6bc e5b2 023e 71da 46bb 691d 17be
00000150: 5f65 313c a817 61bd 56df 933d 5dbd d23d
00000160: 4e12 273e 14d4 233e d3f7 343c 5fa9 383e
00000170: 3eb7 4ebd 29d1 f33c 0d39 423e 6cea ebbd
00000180: 5e8e 3f3d 80b6 1fbd 663f 053e 384d 3a3d
00000190: f0fe c23d 3e0d f73c be62 483e 6358 32bc
000001a0: 6736 d73c 8037 8fbd cac7 fabd 331c f33d
000001b0: 5cb4 f83d c2b6 3a3e 364b 213e c853 673d
000001c0: c4a9 ed3c 6102 0e3e 53e6 363d 7e92 b63d
000001d0: dc97 f43c 4d64 173e 1573 053d 73ae 2dbe
000001e0: 8cd9 bf3d 7d16 6eb9 cce4 2d3e e6af cc3c
000001f0: 50db 2a3c f385 2a3e 9882 4a3d 6380 05be
00000200: f180 ca3c 3331 113e c701 393d 6049 1c3e
00000210: 59f8 4a3e 7d3d 8ebd 89f3 313d 688c bebd
00000220: 5cc7 073d 5b25 4dbd e18a c23c 1a35 213e
00000230: 45ef 573d c99d 863d 6555 ab3d cb4b 6fbd
00000240: 40ca e23d a168 a13c f06f 293c 0070 21bd
00000250: c545 f33d 0978 0bbe 0f79 193e a268 4dbe
00000260: bf0c 96bd ad0f db3d eb8f d2bd 635f a1bd
00000270: 2ed8 13bc 1158 8fbd 580b 36be 1f1b 073d
00000280: 1af9 cc3c fe40 093c 2929 553c fa1b f43d
00000290: ab41 3dbe a010 36bd a824 a93d 44c0 2ebe
000002a0: ae88 793d a369 a1bc 4bb5 083e 14a7 283c
000002b0: 4d36 3b3e bb4f f93d c4d3 b83d 64fd 9c3d
000002c0: 2e69 ae3d 8b13 463d c118 b63d 4add 363d
000002d0: 578c 1bbe 08dd ffbd 9dd2 b13d aea4 853d
000002e0: 6fea 513d c203 06be c125 66bd d7a2 0f3d
000002f0: 326e 16bc 7b5d 273e ea32 873d 56f7 243d
00000300: 45fa fcbd 6162 d43d e0f4 b2bd bdfa a8bd
00000310: ce06 073e 1f3f e03c caf7 27be 644b 263e
-0.12039611 0.05115021 0.20887221 0.18643999 0.13448274 -0.1024341 0.085474655 -0.11448982
0.030038266 0.19269866 0.17944837 -0.053709365 0.18674669 0.018172635 0.13648352 -0.1253756
0.16998369 0.02763144 0.10863517 0.11977349 -0.11577561 -0.040852744 -0.022896124 -0.14572051
-0.058473963 0.16264239 -0.02438178 -0.12872627 0.16514386 -0.065467425 -0.021155352 0.17770393
0.060509004 0.09454936 -0.15079543 0.105114564 0.0321452 0.11024276 0.04805922 -0.07249548
-0.16740415 0.11002063 -0.106290184 -0.022651417 0.13853301 0.058416083 -0.18574245 -0.13542089
-0.039749883 -0.047271084 -0.060683906 -0.028933102 0.13227308 -0.020811342 -0.17092688 0.08510663
-0.13814534 -0.0155456085 -0.1328281 0.11489154 -0.12600215 0.06328579 -0.01691437 0.18803215
-0.10532067 0.1991235 -0.16403651 0.12741953 -0.10229466 -0.040433165 0.06992971 0.086238675
0.21137007 0.12886173 -0.046606835 0.10262771 0.054268006 0.15907228 0.13249674 -0.18419619
-0.022278728 0.12763555 -0.0030342604 -0.14757313 0.010827391 -0.0549542 0.07220332 0.102900244
0.16315576 0.1599887 0.011045414 0.1803336 -0.050467722 0.029762821 0.18967076 -0.11519322
0.04676663 -0.038992405 0.13012466 0.045483798 0.09521282 0.030157682 0.19568917 -0.010885331
0.026271058 -0.06993008 -0.12245138 0.11870613 0.12143776 0.18233779 0.15751347 0.056476384
0.029011615 0.13868095 0.044653248 0.0891466 0.029857568 0.14784355 0.032580454 -0.16961078
0.09367666 -0.00022705826 0.1698181 0.024986219 0.010428265 0.1665266 0.04944095 -0.13037257
0.024719687 0.14178924 0.04516771 0.15262365 0.198213 -0.06945322 0.043445144 -0.09304124
0.03314911 -0.050084453 0.023747863 0.15742913 0.05271842 0.06573064 0.08365897 -0.05842189
0.110737324 0.019703211 0.010341629 -0.039413452 0.11878542 -0.13620009 0.14987586 -0.20059446
-0.0732665 0.10696349 -0.102813564 -0.07879522 -0.009023709 -0.06999219 -0.17777765 0.03298485
0.025021125 0.008377312 0.013010302 0.119193986 -0.18482082 -0.04444945 0.08258945 -0.17065531
0.060921364 -0.019703692 0.13350408 0.010293741 0.18282433 0.121734105 0.09024766 0.07665518
0.08516155 0.04835848 0.0889144 0.04464463 -0.15190254 -0.1249333 0.086827494 0.06525551
0.051248964 -0.13087371 -0.05618835 0.035067406 -0.009181546 0.16344254 0.06601508 0.04027494
-0.123524226 0.10370327 -0.087381124 -0.082509495 0.1318619 0.027373848 -0.16403118 0.16239697

bn1.running_mean f4 [8]
00000000: 224a 833d d8ed db3b 951f 853c 0a1f 9a3d
00000010: 9eab c63d 4725 803d 020c b938 26d8 bf3c
0.06410624 0.006711703 0.016250411 0.075254515 0.09700702 0.0625711 8.823724e-05 0.023418497

bn1.running_var f4 [8]
00000000: 50e1 4e3c a596 513b 1c3d 393b 71d9 363c
00000010: cce5 943c 3e1a e53b b266 303b 7123 453b
0.012626961 0.003198066 0.0028265184 0.0111602405 0.018175982 0.0069916537 0.002691668 0.003008094

conv2.weight f4 [4, 8, 5, 5]
00000000: 966b 3cbc c54d 1bbc 278d 13bd 48cb 3abb
00000010: d591 3b3c 0c26 703d f5ce 98bd dbdd 50bc
00000020: 8194 abbd e182 273c 1c82 bc3b bb77 8dbd
00000030: 6036 ce3c 90ff 42bc 39da 2dbc a11b ce3c
00000040: 4f5c 9c3b f827 c73c 467c aabc 017f 1fbd
00000050: 0bcb 5c3d c59e 65bc c307 663d cfcb 253d
00000060: 65e0 853d f018 68bd e04f d9bc 09e7 9bbd
00000070: 4889 fcbc 5dc2 afbd 8f63 183d 633d 9c3c
00000080: 6e70 0a3d 8642 c0bd 61a5 84bc e5ec 1f3d
00000090: 3dea d5bc d195 35bd acf5 1f3d b8c7 cf3c
000000a0: f35b 3c3d ae21 bcbc fdc3 023d 32e6 68bd
000000b0: e090 e4bc ba20 e33c 93f1 55bd 3656 22bd
000000c0: 6257 79bd 9729 9bbd 1e43 993c a5cb eb3a
000000d0: 6e94 5ebb d7f9 4d3d d276 73bd 9e4f 4bbd
000000e0: 0f52 483d 6725 b2bc e2d6 a23c 627b d4bc
000000f0: 0e32 7a3c a0bc a1bc 9f01 9cbb 55d4 063d
00000100: 99b7 b0bb 535a 94bd 3ccf 333d 0852 453d
00000110: 6f95 593d f554 b93c 1ee7 013d 51cb db3c
00000120: 2caf 173d 33df 1a3d 1cfc 943b 1a90 7d3b
00000130: 8251 2fbd 81de 49bd 52c5 4dbd 5774 8dbc
00000140: 1ad8 ef3c 9973 14bd a03e e5bc 7744 163d
00000150: 59a6 303d 9d4a 123d a687 023c 6b13 1cbd
00000160: e27a c53c 62e7 c43c a634 0cbd d48e 66bb
00000170: 6d11 853d bfdb de3b 853d 6fbb b5f2 6c3d
00000180: 62a1 22bd e2d8 8c3d 83a3 87bb e8cb 593d
00000190: 1d0a 5f3c 8c9c 29bd d67f c33c 83d0 2bbd
000001a0: 3881 44bc c3d4 5dbd c466 b93c 636f 263d
000001b0: 5c01 8b3c 3f77 e8bc af4c 8dbd b199 9a3c
000001c0: 3e3c 23bc a6de 9cbd 5af2 7b3d 4943 843d
000001d0: 727b 81bb c2a6 613d 5131 36ba d2de 93bc
000001e0: 7054 55bd ea5d f8bc 77a0 663d 364d ef3c
000001f0: 963d 4c3c da0e ccbb b37a 99bd 6a5e 97bc
00000200: 0eca 993c 7670 b3bd 168c 54bd bb89 5ebc
00000210: 2bfd 4f3c 6885 98bd 1a7e 6c3a 491a 793d
00000220: d5c8 373d 8534 373c bcc4 84bd 20f2 f53c
00000230: fc25 3cbc b2b5 4c3d 87d9 9c3b 5b8c 5abd
00000240: d6bc f3bb 1393 64bd 8105 33bc bb4b bb3c
00000250: 9694 593d 6d9f 093d c7b5 1e3d d0d4 7cba
00000260: b441 40bd dece 413c e821 243d 47fc 48bc
00000270: eb22 243d 0755 86bb 702e 773d 6833 32bc
00000280: f485 513c 3a34 59bd 1192 dd3c 3f7e dcbc
00000290: 65c7 5b3c 63c0 163d 7538 903c e8b1 03bd
000002a0: 3a58 833d b515 82bd d7f3 7a3c 1022 38bd
000002b0: 1fda 09bd b9e4 8d3c b912 7f3d 278b b7ba
000002c0: 8c8a a1bc c903 8cbd 28da 84bc e47d 99bd
000002d0: 6d3a dfbc 5fb0 dc3a 04fb 95bd 1834 043c
000002e0: 549c 63bd 09d3 22bd 2dd6 56bd d92d eb3c
000002f0: 1e5e d1bc b8b3 16bc 6729 b63c c69b 56bc
00000300: 2284 dfbc 3524 50bc 91bf dbbc 7705 26bb
00000310: 1695 2b3c b4cd 09bb c92b 473d d8b7 7c3d
00000320: 1712 89bd 9c81 6dbd 0767 913d 2e96 31bc
00000330: c822 27bb 5c93 54bd 95c8 02bc 43f5 8d3c
00000340: 8a4a 12bd 5701 9dbd 7b14 02bd afb4 02bd
00000350: fd81 81bd 4c6d 843c bff4 81bd 0132 86bd
00000360: 2dae c3bb 0f86 7d3c f241 4fbd 8107 3a3d
00000370: 03ee 40bd 3a39 58bd 0e59 2ebc 72cf a6bc
00000380: 968f 2c3d 72c5 5bbd 5095 f9bc a231 113d
00000390: 3a5a e7bc adb1 bbbc 183b 283d c820 9e3a
000003a0: 49dd e23c 6850 18bd f730 1e3a d2cc b2bc
000003b0: 2a9b 82bd afd2 88bd 5cf1 ee3c 00d2 203c
000003c0: 0ad6 74bd ce01 12bd 28cf 373d cdc0 2d3d
000003d0: cabe 98bd 121e d5bc ab16 4dbd 1471 0e3c
000003e0: 8cfe 4b3d de11 2b3c 420e 4a3d 284a d0b9
000003f0: 9999 dcbc f3c8 653d 1c74 063d 1a2a 0c3b
-0.01150026 -0.009478991 -0.036023285 -0.0028502513 0.011448343 0.058630034 -0.07461349 -0.012748207
-0.08377934 0.010224075 0.005752815 -0.069076024 0.025172412 -0.011901751 -0.01061111 0.025159659
0.004771746 0.02431105 -0.020811211 -0.03893948 0.053904574 -0.014014904 0.056159746 0.04047757
0.065369405 -0.056664407 -0.026527345 -0.07612426 -0.03082718 -0.08581994 0.03720432 0.01907224
0.033798628 -0.09387688 -0.01619214 0.03904428 -0.02611267 -0.04433233 0.03905265 0.025363788
0.045986127 -0.022965278 0.03192519 -0.056860156 -0.027901113 0.027725566 -0.052232336 -0.039633
-0.06087435 -0.07576292 0.018708762 0.0017989768 -0.0033962983 0.050287094 -0.059439488 -0.049636476
0.048906382 -0.02174635 0.019877855 -0.02593774 0.015270723 -0.019743264 -0.0047609354 0.03291734
-0.0053929803 -0.072437905 0.043898806 0.048173934 0.053121027 0.022623518 0.03171455 0.026830347
0.03703229 0.037810516 0.0045466553 0.0038690628 -0.04280234 -0.049284462 -0.050237007 -0.01726739
0.02927785 -0.036243055 -0.027983963 0.036686387 0.04312739 0.035715688 0.007966911 -0.038104456
0.024106447 0.024036113 -0.034229897 -0.0035180347 0.06497464 0.006801098 -0.0036505174 0.05784865
-0.039704688 0.068773046 -0.004139365 0.053172976 0.013613251 -0.04140906 0.023864668 -0.0419469
-0.011993699 -0.054157984 0.02263201 0.04063357 0.016968422 -0.028377173 -0.06899392 0.018872114
-0.009963093 -0.07659654 0.06151042 0.06458146 -0.0039514834 0.055090673 -0.0006950098 -0.018050585
-0.05208248 -0.03031822 0.056305375 0.029211622 0.012465855 -0.0062273564 -0.07494106 -0.018477637
0.018773105 -0.087616846 -0.05189141 -0.013582642 0.012694637 -0.0744732 0.0009021476 0.060816083
0.044869263 0.011181955 -0.064828366 0.03002268 -0.011483666 0.049977966 0.0047866735 -0.05335651
-0.0074382825 -0.055804323 -0.010926605 0.02286326 0.05312022 0.033599306 0.038747575 -0.00096447486
-0.04693766 0.011829106 0.040071398 -0.012267179 0.040072363 -0.0040994915 0.06034702 -0.010876514
0.012788285 -0.053028323 0.027047189 -0.026915668 0.013414239 0.036804568 0.017605046 -0.032152086
0.06413312 -0.063517965 0.015316925 -0.04495436 -0.033655282 0.017320978 0.062273715 -0.0014003263
-0.019719385 -0.068366595 -0.016217306 -0.07494715 -0.02724954 0.0016837231 -0.07323268 0.008069061
-0.055569008 -0.03975204 -0.052450348 0.028708385 -0.025557574 -0.009198122 0.022236539 -0.013098663
-0.027284686 -0.012703945 -0.026824744 -0.0025332847 0.010472557 -0.002102715 0.04862574 0.061698765
-0.066929035 -0.057984933 0.07099729 -0.010839028 -0.002550291 -0.051898345 -0.007982393 0.017328864
-0.035715617 -0.07666271 -0.031757813 -0.031910595 -0.063236214 0.016165398 -0.0634551 -0.06552506
-0.005971691 0.015473857 -0.0506 0.045417313 -0.047101986 -0.05278895 -0.0106413495 -0.02036259
0.04212912 -0.053655095 -0.030466706 0.035447724 -0.028241266 -0.02291187 0.04107198 0.0012064213
0.027693408 -0.037186056 0.0006034518 -0.021826182 -0.063772514 -0.0668081 0.029167823 0.009815693
-0.059774436 -0.035646252 0.044875294 0.042420197 -0.07458265 -0.026015315 -0.050070446 0.008693952
0.0498033 0.010441272 0.049330004 -0.00039728102 -0.02692871 0.056099843 0.032825574 0.00213874

bn2.running_mean f4 [4]
00000000: 57d0 acbe 4ddd a8bf a1fe 80bf 7e1c b2be
-0.337527 -1.3192536 -1.0077707 -0.34787363

bn2.running_var f4 [4]
00000000: e622 6d3f 3487 ec3f e5da a03f e207 8b3f
0.92631376 1.8478761 1.2566801 1.0861781

fc1.weight f4 [32, 196]
00000000: 5bd0 1a3d 5a85 8fbb 87f3 163d 5701 9dbc
00000010: 40fe a93c 4323 38bb b1d6 05bd f236 cdbd
00000020: bf1e 573d 05c6 febc 2fb1 77bd 7694 60bd
00000030: acfd 60bd b15f 56bd f2f4 d1bc 0b7b 41bd
00000040: c4c6 f43a 7e11 4e3d fa36 993c 29cb 45bd
00000050: 3704 30bc 4eb1 95bc c406 5d3d 50d8 74bd
00000060: b194 42bc 8bba fc3c 7a0d 8a3d 139d ad3c
00000070: d711 16bc e6f5 f83b 420c 413d a7d1 583d
00000080: 1f39 84bc 70f1 873d 5d4b 313d c783 afbc
00000090: cf61 863d 36cb 7cbd f47a 9f3c 68ed 153c
000000a0: dcd4 ab3c 8f42 78bd 79d1 ebbc 1a12 76bd
000000b0: 22fa f53c 844f 5bbc d3bb 81bc 48ab 01bc
000000c0: df28 e13c 8f0a 873b 0316 4cbd 40ff 4fbd
000000d0: 1d66 e23c a51e c93c 502a 453d 1f3a 3a3d
000000e0: 5bba 33bd 0f25 653d 6b0c 8ebc d68e 02bd
000000f0: 2b57 5f3d 5cab 91bd 2d41 cebc adfd a0bc
00000100: 19ff 34bd 93ba 4c3d 679d 90bd 8bed 3a3d
00000110: 34cb afbb ec75 ccbc 8600 2c3d 5ca5 5bbc
00000120: e495 873d f0a5 83bd b03a 5a3c e991 6e3d
00000130: 6e61 70bd 63c6 03bd aca3 5f3d 5023 4d3d
00000140: ef4f 26bc 2af2 18bd 4067 8b3c ccd1 93bd
00000150: a2fa 87bd e112 403d 1a51 793d ff06 71bd
00000160: 5bfb cb3b 4664 c7ba 7b69 c93c 8a13 14bd
00000170: 0d71 2abd 47ef 7c3c 74a3 87bd 91dc 00bd
00000180: fe54 80bc 719d 27bd 98e0 88bd 27d1 173d
00000190: 0fe3 393d 42f2 ae3c ed9e 1e3d bc90 d03c
000001a0: bd04 d83b 6056 103d 8413 85bd 0eaf 7c3d
000001b0: 1246 a1ba d424 cf3b 5fb6 603d d407 2d3d
000001c0: 96e4 fbbc 9b1e 85bd d31a 14bd 7010 a7bb
000001d0: 08e7 c43c 0e84 d9bc e408 13bd b639 b1bb
000001e0: 256f 803d 5d01 4ebd c911 80bd ad74 ec3c
000001f0: 4419 8ebd 2e2c 38bd dc92 3fbd 3179 34bd
00000200: 39e4 0e3d 446f 583d bc73 ffbc a82a c33c
00000210: 1a03 623d e1b1 a7bd 460a 83bd f60f 84bd
00000220: f612 88bd 57bc 12bd 533f b8bc b2fa 1b3d
00000230: 72ac f6bc a64c 5c3c 9ef1 5d3d f97e 62bd
00000240: b29e bb3c 052e 0cbb d752 97bd 3010 6bbc
00000250: abdb 64bd 122a 2f3d 510c 5b3d 1ae8 3f3d
00000260: 5fc8 51bd f094 62bd 3c69 a6bd 7fc5 473d
00000270: 7e61 23bc ee7d 6ebd edfb ea3c 4718 cbbc
00000280: 8b6b 303d 8d40 273d efe7 5f3d bf83 4f3d
00000290: 85b7 52bd 1d30 d93c 0312 7cba 3184 f4bc
000002a0: 6cc4 a2bd bbfa 75bd f6d2 afbc c90b a739
000002b0: 1675 e1bc d3ca d8bc 7eda 9b3d a547 133d
000002c0: 141b 393d e5ff 14bd b9fd 053c 9055 113d
000002d0: 61b1 95bd 50e6 77bd 0ee0 023d 4bdc 10ba
000002e0: 0b81 ae3c 0569 95bc 9c7f 003d 1ac3 3fbd
000002f0: 6cf1 6a3d bc5d f63c 1c5d c5b9 5b91 fe3c
00000300: c0f0 033c 665d 20bc e24b f43c 4c5c 033d
00000310: fcc7 723d 8451 3a3d a6e0 533d 4899 44bb
00000320: 98d1 303d f3b3 43bd 9dd6 2abd e14b 9bbd
00000330: a217 7b3d f51e 18bd eb40 4b3d 8b60 14bd
00000340: fbac 93bd aa3f 7b3d 262d 633d 9ef0 8fbb
00000350: cc0f 673d 8f8b 5b3d a967 2ebc 43f4 80bd
00000360: 318b 05bd 1fe0 53bd 2e72 883d fe0a 08bd
00000370: 5dae 67bd e7b1 bd3c 8e0b 8a3d 98e9 503d
00000380: 729d 81bd b124 c539 87ff 32bd e286 a2bb
00000390: 5f57 02bd b401 8bbd ea29 5bbd d66a 67bc
000003a0: ee9d 793d 6dad be3b f0d7 753c 77a8 aabb
000003b0: 9a39 d43a 570e 5f3d d328 403d f552 123d
000003c0: 2cb9 473d ede8 bebc e179 a0bc 0708 5d3d
000003d0: 7852 49bd 4ee7 a43c db47 65bd 1d21 34bd
000003e0: 39a8 903c 9b27 80bb 182b a83c 0e13 8bbd
000003f0: 0605 f03b 4c5b ca3c 6a0c 8abd 8cfd 813d
0.03779636 -0.0043799104 0.03685334 -0.019165678 0.020751119 -0.002809719 -0.03267545 -0.100202456
0.052519556 -0.031100282 -0.06047171 -0.054829083 -0.05492942 -0.052337352 -0.025629494 -0.047236484
0.001867496 0.05030965 0.018702973 -0.04828945 -0.010743192 -0.018273022 0.05396153 -0.059776604
-0.011876271 0.03085067 0.06740852 0.021193063 -0.009159527 0.0075976728 0.04713083 0.052934315
-0.016140519 0.066378474 0.043284763 -0.021425141 0.06561624 -0.061717235 0.019467808 0.00915084
0.020975523 -0.06061035 -0.028786408 -0.060075857 0.0300265 -0.013385657 -0.015836632 -0.007914372
0.02748531 0.0041211317 -0.04982568 -0.050780535 0.027636582 0.024550745 0.048136055 0.045465585
-0.043878894 0.055943545 -0.017339906 -0.0318745 0.05452649 -0.07112762 -0.025177563 -0.019652212
-0.044188593 0.04998262 -0.07061272 0.045636695 -0.0053648 -0.024958573 0.041992687 -0.013406124
0.06620386 -0.064281344 0.013319656 0.05824462 -0.058686666 -0.03217162 0.05459945 0.050082505
-0.010150894 -0.03734032 0.017017007 -0.0721775 -0.06639601 0.046893004 0.06086836 -0.058844563
0.0062250323 -0.0015212379 0.02458643 -0.036151446 -0.04161172 0.015437908 -0.06622973 -0.03146035
-0.015665527 -0.040921632 -0.06683463 0.037064698 0.045382556 0.021355752 0.038725782 0.02545964
0.0065923617 0.035238624 -0.06497863 0.061690383 -0.0012304208 0.006321529 0.054861423 0.042243794
-0.030748647 -0.06499978 -0.036158394 -0.005098395 0.024035946 -0.026552226 -0.03589715 -0.005408491
0.06271199 -0.05029427 -0.06253392 0.02886423 -0.06938413 -0.044964008 -0.046770915 -0.04406089
0.03488562 0.052840486 -0.031183116 0.023824051 0.05517874 -0.081882246 -0.06398444 -0.06448357
-0.066442415 -0.035824146 -0.022491133 0.03808088 -0.030111525 0.013446009 0.054185502 -0.05529687
0.02290282 -0.0021389734 -0.07388847 -0.014347121 -0.055873554 0.04276473 0.053478543 0.04685221
-0.05121648 -0.05531782 -0.081255406 0.04877233 -0.009971974 -0.058225565 0.02868458 -0.02479185
0.04307131 0.040833045 0.05466455 0.050662752 -0.05144455 0.0265122 -0.0009615721 -0.02984819
-0.07947621 -0.06005357 -0.021462899 0.00031861503 -0.027521651 -0.026463902 0.076100335 0.035956997
0.04519184 -0.036376853 0.008178168 0.03548199 -0.07309223 -0.060522377 0.031951956 -0.000552599
0.021301767 -0.018238554 0.031371698 -0.046816923 0.057359144 0.030073993 -0.0003764414 0.03107517
0.008053005 -0.009787893 0.02982134 0.032070443 0.05927275 0.045487896 0.051727913 -0.002999859
0.043168634 -0.047779035 -0.041708577 -0.07582832 0.061301835 -0.037138898 0.049622457 -0.036224883
-0.07210728 0.06134001 0.05546298 -0.0043926975 0.05641155 0.05359989 -0.010644832 -0.06296589
-0.032603446 -0.05172741 0.06662403 -0.033213608 -0.05656277 0.02315612 0.06740485 0.051004022
-0.063288584 0.00037602105 -0.04370072 -0.004959927 -0.031821605 -0.06787434 -0.05350677 -0.014124593
0.06094163 0.005819014 0.015005097 -0.005208071 0.0016191483 0.054457035 0.046913933 0.035723645
0.048760578 -0.023304427 -0.019589366 0.053962734 -0.049150914 0.020129826 -0.05597673 -0.04397689
0.01765834 -0.0039109713 0.020528361 -0.06790744 0.0073248176 0.024701737 -0.06740649 0.06347188

deconv1.weight f4 [2, 4, 5, 5]
00000000: fce3 30bd 73b9 673c 4422 7d3d efc0 133d
00000010: f5b3 903d 9c8c bfbd 2a72 35bd 7038 5c3d
00000020: 929e 00bd 1f44 e3bd f9d0 f63c c4b9 01bd
00000030: 1d9c a23c 7e89 a23d 4fa6 8d3d 02c0 843d
00000040: 8781 b0bd 360c 8dbd b888 a23c a4a1 00bd
00000050: e890 703d d026 173c 7df6 e5ba 6d00 1fbd
00000060: 8366 c4bc e96b 193d 11a3 dc3d 36a8 99bd
00000070: 6f7c 1b3d 0677 a0bc 72a5 0dbd 2a77 18bd
00000080: a847 243d f9ff 2c3d a6a2 8e3c ddcd b4bc
00000090: a0c3 09bd 5ca8 9d3c c1b8 093d e58d df3d
000000a0: 6012 e53d 98b8 4fbd 5493 36bd 0499 453d
000000b0: def5 dd3d 7b1e 853d 9aac 713d 98a9 16bd
000000c0: c6ff 9ebd 9132 88bd 6caa 53bd c50c 9f3b
000000d0: be43 cabd 98a3 523c 529f 7c3d 3fb5 25bd
000000e0: 680f f8bc 5130 d6bc 37e4 f83c 79ce 30bd
000000f0: 5488 1ebd 3f37 2d3d fad8 dbbc a702 8d3d
00000100: a84c 8e3d 7796 e2bd bf25 593d 8948 05bc
00000110: e3c1 8b3a 5e9f 273c 4ccf 00bd a32b af3d
00000120: b459 9d3c 2b6d fdbc 81b0 173d a4ab 4a3b
00000130: 9ccc 83bd e80a 293d 4eec 353a 3768 ca3d
00000140: a060 58bd fb2a 7abc cf71 843d d07d 8e3d
00000150: e90c 60bd ca82 a73d d6bb c93d c45c 2ebd
00000160: 5364 bfbc 0f26 1d3d b4cd cf3c ec4e a7bd
00000170: e659 4dbd 0dbf 99bc cdcf a4bb d78f 943b
00000180: e8f8 29bb 61e4 543d bcfe 34bd 8b12 c43d
00000190: 2c80 2e3d af5e ae3c 4665 9dbd 3e3a 8c3d
000001a0: dca8 593d de50 91bc e0ed cfbc f09f 74bd
000001b0: 98e1 1dbd 52f3 043d 4c3e d63d 2990 163d
000001c0: 46ee c03c 743d 8e3d 8a45 16bd 7103 25bd
000001d0: 54cd 603d 284c 813d bd0b 31bd c4e3 323d
000001e0: 3eb8 813d 4f76 74bd 41ad a43c a0c0 a7bd
000001f0: 6486 cdbc 2f2d 133d b2b0 a8bd 6288 e5bc
00000200: ea53 e4bc f856 d5bc b135 143c e890 8b3d
00000210: 1cc2 f93b 46ec 803d 05a6 2d3c b8bc ebbc
00000220: 0688 b2bd 380e fdbc 0286 9e3d 0920 db3c
00000230: 4853 d3bb 6f4c 8eba 9c36 863d 94a9 813d
00000240: efd0 8abd ed7d e73d 3be0 99bc 3f46 2cbd
00000250: 0271 6d3c ddec f73d b796 a63d 0405 76bd
00000260: b835 8e3c b107 e23c e8e6 103d 06a1 5f3b
00000270: e6a0 343d 1c13 0b3a 09cb c23d c476 0bbd
00000280: 571e ca3b cba3 103d c484 a23d 9aad dcbd
00000290: 8024 163d de6a da3c c63c 693c 814d 8abb
000002a0: ff63 413b 8973 543c d8ae 693d 9b28 1f3c
000002b0: 6cd5 fe3c b9ef 013d a803 db3d eab3 20bd
000002c0: 3230 f4bd c952 bfbd c07c 573d c11c d83c
000002d0: 1a41 b4bd 0a74 67bb 7e9d 3fbb 5cd2 7dbd
000002e0: 07b8 853d d19c d83c b5db 443d 2157 72ba
000002f0: 94ab e73c 71fb 37bc eca2 6cbc 6b5c 3bbd
00000300: 1bb9 6dbd b42d 1ebd 2332 a6bd 0ced 80bd
00000310: 819b 543d 04b4 7e3c d2e4 8ebd da20 91bd
-0.043186173 0.014143336 0.061800256 0.036072668 0.07065574 -0.09352991 -0.04429833 0.05376476
-0.031401224 -0.110969774 0.030128943 -0.0316713 0.019849831 0.07936381 0.069164865 0.06481935
-0.086184554 -0.06887095 0.019840583 -0.031404153 0.058731943 0.009225562 -0.0017544773 -0.038818765
-0.023974663 0.037456427 0.1077329 -0.07502787 0.037960466 -0.019588005 -0.03458161 -0.03722302
0.0401074 0.042236302 0.017411541 -0.02207082 -0.03363383 0.019245319 0.03362346 0.10915736
0.111851454 -0.05071315 -0.044574097 0.04824163 0.10837911 0.06499954 0.059002496 -0.03678283
-0.07763629 -0.0665027 -0.0516762 0.004853817 -0.09876202 0.012856387 0.061675377 -0.040456053
-0.030280784 -0.026146086 0.030382259 -0.043165658 -0.03870423 0.042289015 -0.02683686 0.068852715
0.06948215 -0.11063855 0.053014513 -0.0081349695 0.0010662641 0.010230867 -0.031447694 0.08553245
0.019207813 -0.030935844 0.03703356 0.003092506 -0.064355105 0.041270167 0.0006939814 0.09883159
-0.052826524 -0.015269036 0.0646702 0.069575906 -0.054699812 0.08179243 0.0985028 -0.042568937
-0.023363268 0.038366374 0.025366642 -0.0816935 -0.050134562 -0.018767858 -0.0050296546 0.0045337486
-0.0025935713 0.05197561 -0.044188246 0.09573849 0.042602703 0.021285383 -0.07685332 0.06847046
0.053139552 -0.017738756 -0.025381982 -0.05972284 -0.03854522 0.03245861 0.10461101 0.036758576
0.023551118 0.06945315 -0.03668741 -0.040286485 0.054883316 0.06313354 -0.043224085 0.043674245
0.063339695 -0.05968314 0.020102145 -0.08191037 -0.025088497 0.035931762 -0.08236827 -0.028019134
-0.027872045 -0.026042446 0.009046004 0.06814748 0.0076220166 0.062950656 0.010598664 -0.028776512
-0.08717351 -0.03089057 0.07740404 0.026748674 -0.006449137 -0.0010856519 0.06553385 0.063311726
-0.06778132 0.11303315 -0.01878368 -0.04205918 0.014492275 0.12105725 0.08134215 -0.060063377
0.0173596 0.027591558 0.03537646 0.0034123077 0.044098757 0.0005305277 0.09511382 -0.03404881
0.0061681676 0.035312455 0.07935479 -0.10775299 0.036655903 0.026662286 0.014235681 -0.004220665
0.0029509065 0.012966999 0.05705151 0.009714271 0.031107627 0.031722758 0.10694057 -0.03923408
-0.11923255 -0.09341962 0.052609205 0.026380898 -0.0880148 -0.0035316967 -0.002923816 -0.061968192
0.06529241 0.026441963 0.04806109 -0.00092445506 0.028280057 -0.011229382 -0.0144431405 -0.045742434
-0.05803786 -0.038617805 -0.081150316 -0.06295213 0.051906113 0.015545849 -0.06977238 -0.07086344

bn3.running_mean f4 [4]
00000000: 7d53 ab3d 8381 6b3e a1e1 483e bcf6 04be
0.083655335 0.22998624 0.1961732 -0.12984747

bn3.running_var f4 [4]
00000000: e95f 5c3d ba26 c53d 51cf 813d 9d92 263d
0.053802405 0.09626527 0.063383706 0.040667165

deconv2.weight f4 [4, 8, 5, 5]
00000000: 35d8 be3c b477 9ebc 2d83 a13d c0e4 253d
00000010: 99fa 763d 768a eb3c 31e7 b23c 006d d0bc
00000020: 345a fd3c d8eb f939 843d bdbc 272a 753c
00000030: c923 25bd d07c 95bc 2669 5cbd 8f19 18bd
00000040: 98dd 79bd 1206 173d e343 9f3c 82c0 0dbd
00000050: 542f 0cbd 07c7 d6bc 8c39 263d a4c4 9dbc
00000060: 027e 863c 712e fdbb 5707 c5b9 5d3c 2d3d
00000070: 89ee d9bc 6c27 9c3d 1a5d 343d 227e 8abc
00000080: 5867 a93c b949 c43c ec35 383d ea83 1c3d
00000090: 533c 223d aae0 763d 98c6 19bc 6e0d a4bc
000000a0: 3aad 8b3d 3600 813d d75d 233c 17bc cdbc
000000b0: 80d2 e83c 77fc 563d 344d e2bc d203 543d
000000c0: 3feb c43d 17ca d1bd e0e2 3eba 4ffc b2bd
000000d0: fa1d 6bbc cf6a 82bb 7223 b6bc 67aa 283d
000000e0: 5901 f2bc fa9a 4ebd 19b2 473d 05a5 c7ba
000000f0: a20d ba3c 9d5f 8c3c b6c8 113d c8d0 663d
00000100: 2efa 5c3b aa73 67bb 3936 0bbd 7567 c63c
00000110: c6f6 8cbc b890 3f3d d9d1 1bbb bcc2 d03b
00000120: 31f4 283d 8815 27bd 04c8 9abc dd87 193c
00000130: 8a5d 673c 5a64 173d c7ca 563b da80 cbbc
00000140: c116 b4bb a750 2d3d 7dbf 13bd a4c9 913a
00000150: 2cbe 17bb c1b3 ef3c b54b 75bd 7d06 833c
00000160: e8ba cbbc 9e4c 7b39 fcb8 ac3b 7b7a aebb
00000170: 580b 1b3d 2f8c b8bd 3974 ff3c e40f 2c3c
00000180: 4e63 3abd 22ed 4b3d 3002 d93c 53c2 0b3c
00000190: 2785 103d ce7a 0a3a a8b5 ae3c 1d9e 943b
000001a0: 0931 a03d bd18 9b3c 2670 31bd bc3a e2bc
000001b0: 789e 16bd 2ea8 16bc f779 4b3c 14c7 81bd
000001c0: 0123 ddbc 6513 3a3d dbb1 813d 569f fa3c
000001d0: 3c51 0f3d d5f4 93bd 5f26 383c dcf5 3e3d
000001e0: 9666 9c3c 62ee 1c3d 2c20 6b3c b263 6c3d
000001f0: 260c 233c 886a 62bd 1e39 21ba 8c3a 623d
00000200: 0c4c 623d 7e26 89bd cede 373d 0bc7 8b3c
00000210: 6272 b1bd f9ad 58bd 1dbe 90bd 1c3e 93bd
00000220: 8afc d33b c47e f73c 818b 71bd 91d2 753c
00000230: 7f5c 973c dbac 5fbd e874 a7bd 37c0 ce3c
00000240: e6b6 3e3d 237b 72bd 03c4 11bd 5da4 3d3d
00000250: 3f21 b83b 5c36 85bc f898 553d de75 9d3c
00000260: 089c 09bb f222 e43b aea1 043d f5e4 113d
00000270: 71f3 01bd ce9f 723d 2c64 ebbc df66 093d
00000280: 978c 80bd 8aaf 383d 9d24 853d 3c9a 523d
00000290: e3fc 053d edd7 933d e777 303d e203 64bd
000002a0: 009b 29bd 27a5 b53d d0ad 82bd 109e d2bc
000002b0: 52f0 43bc da79 09bd 1792 b8bc 4272 48bd
000002c0: 8128 143c 932e 47bd 65f3 773d bf9d 033d
000002d0: 642b c53c da80 debc eb52 dc3c cf35 443d
000002e0: f7f5 073b cb86 55bd 97c4 053d ae4f ccbc
000002f0: 7aa2 3a3c 80e3 91bc 5a3e 24bd 12f4 7a3d
00000300: c676 6bbb 398f 56bd af4d 9d3c 12de bd39
00000310: f59d acbc 6013 6f3d a36a 393d 4eaa e8b9
00000320: 8f95 453d 83f2 8d3d 03d4 a8bb dcb7 833c
00000330: e877 36bc 929a 89bd 69d7 873d d333 ebbc
00000340: 7904 80bc 3f5f 92bd bb7d f53b cbbc b33d
00000350: 2f5b 653d d6e3 6dbb e1ac bb3c c320 893d
00000360: fc5d 0abd d1b0 3abd 69ea 65bd 479f 743d
00000370: b51e 0c3d 7f1a 83bd 9d59 0a3d 2cdc ee3c
00000380: 47d5 553d 0c8e 25bd d2b2 8a3b 1f3d 303d
00000390: 084d f7bc 345c 0d3d 673e 09bd 475b dc3c
000003a0: 4394 803d 0593 b93d 8619 a83b 6e7f 19bd
000003b0: d882 5fbb 124d b5bc d35d cb3d 333d 2fbd
000003c0: 414e 903c 9d0f bcbc 7017 cbbb 1c32 15bd
000003d0: c482 383d 5d4d 1d3d c862 a9bc a4d3 b8bc
000003e0: f9fd 00bd 9416 3e3d 487b a4bb 7fcc 36bc
000003f0: 9587 f7bc c253 17bd f631 55bd bd98 4d3d
0.023296455 -0.019344188 0.07886348 0.040501356 0.060297582 0.028752547 0.021838756 -0.0254426
0.030926801 0.00047668698 -0.023100622 0.014963663 -0.04031733 -0.018247992 -0.053811215 -0.03713375
-0.061002344 0.036871023 0.01944155 -0.034607418 -0.034224823 -0.02621795 0.040582225 -0.019258805
0.016417507 -0.0077264835 -0.00037580237 0.042293895 -0.026603 0.076247066 0.0440341 -0.016905848
0.020679161 0.023960935 0.0449733 0.03821174 0.03960831 0.06027285 -0.009385727 -0.020025935
0.0682015 0.06298868 0.009971104 -0.025114102 0.028420687 0.052486863 -0.027624704 0.051761456
0.09615182 -0.10243624 -0.0007281732 -0.0873953 -0.014350409 -0.0039800177 -0.022233699 0.041178133
-0.029541658 -0.050440766 0.04875383 -0.0015231675 0.022711579 0.017135436 0.035591803 0.056351453
0.0033718455 -0.0035316744 -0.033987258 0.024219254 -0.017207514 0.046768874 -0.0023776202 0.0063708704
0.041248504 -0.04079202 -0.018894203 0.009370771 0.014121423 0.036960937 0.0032774673 -0.024841715
-0.0054958765 0.042313244 -0.03607129 0.0011122716 -0.0023154123 0.029260518 -0.059886653 0.015994305
-0.024869397 0.00023965767 0.0052710753 -0.0053246594 0.037852615 -0.09011113 0.031183349 0.0105018355
-0.04550486 0.049786694 0.0264903 0.008530217 0.035283234 0.00052825816 0.021326855 0.00453545
0.07821853 0.018932695 -0.043319844 -0.027615897 -0.03677222 -0.009195371 0.012419215 -0.06336799
-0.02699423 0.045428652 0.06332751 0.030593555 0.03498958 -0.072244324 0.011239617 0.04662119
0.019091886 0.038313277 0.014350932 0.057712264 0.009951627 -0.055277377 -0.0006150174 0.055231616
0.055248305 -0.06696795 0.044890217 0.017062685 -0.08664395 -0.05290029 -0.07067511 -0.07189581
0.006469314 0.030211814 -0.058970932 0.015003816 0.018476723 -0.054608207 -0.08176595 0.02523814
0.046561144 -0.059199464 -0.035587322 0.046299327 0.0056191976 -0.016261272 0.052147835 0.019221243
-0.0020997543 0.0069621736 0.032380752 0.03561874 -0.031726304 0.059234433 -0.02873429 0.03354537
-0.062768154 0.045089282 0.06501124 0.05141662 0.032711875 0.07218919 0.043083098 -0.055667765
-0.041407585 0.08869391 -0.06380808 -0.025710136 -0.011959152 -0.033563472 -0.022530599 -0.04893709
0.00904286 -0.0486284 0.060534853 0.03213286 0.024068542 -0.02716105 0.026895007 0.04790288
0.0020745972 -0.0521305 0.032658186 -0.024940338 0.0113912765 -0.017808676 -0.040098526 0.06126792
-0.0035928949 -0.05238268 0.019202081 0.00036214344 -0.021071414 0.058368087 0.045267712 -0.00044377375
0.048238333 0.06931021 -0.005152227 0.016078882 -0.011136986 -0.06718935 0.06632883 -0.028711235
-0.015627133 -0.07147073 0.007491795 0.08776244 0.055995163 -0.003629913 0.022909584 0.06695702
-0.033781037 -0.04557878 -0.056131754 0.05972221 0.034208972 -0.06401538 0.033776868 0.02915772
0.05220535 -0.04041867 0.004232743 0.04302704 -0.030188099 0.03451176 -0.033506777 0.026898993
0.06278279 0.09061245 0.0051299958 -0.037475042 -0.0034105089 -0.022131477 0.09930005 -0.042782973
0.01761544 -0.022956664 -0.0061978623 -0.03642474 0.045046583 0.038403857 -0.020676985 -0.022561856
-0.031492207 0.04640825 -0.005019579 -0.011157154 -0.030216018 -0.036945112 -0.0520496 0.05019449

bn4.running_mean f4 [8]
00000000: 3daa 493e 2676 ff3e ab5f bbbe 551a 493e
00000010: 53f9 9fbd cf6d 96be 02d4 cd3d 62ff 893e
0.19693847 0.49894828 -0.36596426 0.19638951 -0.07811227 -0.29380652 0.10050203 0.26952654

bn4.running_var f4 [8]
00000000: 9e20 303d c2ec 6a3e 311f c43d 0b7c 153d
00000010: 5212 103d 6dd8 2e3d 5c5d 003e f02b a93d
0.042999856 0.22941878 0.09576262 0.03649525 0.03517372 0.04268687 0.12535614 0.082603335
