log/mnist_test_class_0/model.tar (torch, 71258 bytes, 21 tensors)

conv1.weight f4 [8, 1, 5, 5]
-0.11979516 0.056355566 0.19472566 0.19705872 0.10221373 -0.06353698 0.101570934 -0.08861786
0.082552634 0.20104578 0.2209199 -0.03380956 0.21091186 0.074938595 0.14312363 -0.07426097
0.18407427 0.0197429 0.13841456 0.12628457 -0.08955729 -0.042101618 -0.015606763 -0.13041987
-0.06780046 0.19603048 0.04336768 -0.07217886 0.19037247 -0.062470254 0.007781998 0.18179849
0.07270664 0.094449215 -0.1539114 0.12846899 0.053596605 0.11505883 0.022494372 -0.102435075
-0.11646426 0.16372244 -0.07351488 -0.017409664 0.12172666 0.10109754 -0.13210678 -0.09457106
-0.015449318 -0.0380366 -0.05199247 -0.044015456 0.100962974 -0.068421975 -0.2290142 0.076357394
-0.15737131 -0.05934458 -0.19015731 0.063088365 -0.14093602 0.03624349 -0.06949084 0.11587482
-0.15357073 0.17410141 -0.19463614 0.07037655 -0.15840273 -0.073931426 0.044481993 0.054348208
0.14869483 0.09310663 -0.072269924 0.09735862 0.064563684 0.17611285 0.18697715 -0.14031716
-0.03106806 0.0980966 0.003519119 -0.08260099 0.032173965 -0.058400057 0.03776629 0.0991739
0.2002901 0.16642213 0.015056452 0.17852375 -0.028847164 0.050181903 0.1976316 -0.107040286
0.0611699 -0.007572478 0.12889716 0.05912787 0.14252447 0.07166014 0.19908753 0.00060941
0.038183678 0.0053902147 -0.08322119 0.10239458 0.0902612 0.17051867 0.20667571 0.039777588
-0.030962553 0.09441591 0.069910094 0.116990075 -0.000515248 0.10671831 0.043372784 -0.13189988
0.11987731 -0.0026235504 0.16468425 0.030768475 0.03344352 0.1898844 0.060376033 -0.09643882
0.06859478 0.14056374 0.080987476 0.14454709 0.18294528 -0.061004136 0.044882186 -0.03544906
0.051968332 -0.040369 0.023662988 0.1398685 0.100232854 0.078430265 0.1069088 -0.042391863
0.09145206 0.041442726 0.014935735 -0.025291376 0.13473837 -0.10461588 0.1459168 -0.1771064
-0.07319363 0.112888284 -0.08612045 -0.07889948 0.003194644 -0.061784502 -0.15791343 0.06423764
0.021154376 0.030170081 0.04111335 0.12736148 -0.14395535 -0.014418754 0.12980022 -0.125715
0.083711855 0.016192753 0.15715699 0.05635284 0.22126545 0.12851696 0.10397613 0.0902571
0.114634864 0.065672934 0.10672765 0.036480792 -0.107668996 -0.08510633 0.11819112 0.08220595
0.04126645 -0.11737924 -0.03330517 0.062014654 0.01842091 0.13796143 0.10116862 0.051867735
-0.10918425 0.12935005 -0.106229566 -0.029053086 0.14846833 0.068756506 -0.105301715 0.15569898
00000000: 2a57 f5bd 18d5 663d 2a66 473e c3c9 493e
00000010: 6f55 d13d ad1f 82bd 6c04 d03d 487d b5bd
00000020: 5b11 a93d f2de 4d3e d438 623e e57b 0abd
00000030: 47f9 573e 6879 993d 008f 123e 2316 98bd
00000040: f77d 3c3e ddbb a13c 8cbc 0d3e be50 013e
00000050: d069 b7bd bf72 2cbd 82b3 7fbc c98c 05be
00000060: f8da 8abd 37bc 483e 4fa2 313d 83d2 93bd
00000070: 00f1 423e cfe0 7fbd 2100 ff3b 6229 3a3e
00000080: 38e7 943d 976e c13d f39a 1dbe 608d 033e
00000090: 1d88 5b3d f7a3 eb3d 1e46 b83c 7bc9 d1bd
000000a0: d084 eebd dba6 273e f88e 96bd b69e 8ebc
000000b0: d44b f93d 3a0c cf3d 0047 07be 79ae c1bd
000000c0: 231f 7dbc 44cc 1bbd 0ef6 54bd 8d49 34bd
000000d0: adc5 ce3d d220 8cbd b382 6abe 4461 9c3d
000000e0: f225 21be 4d13 73bd 99b8 42be 7934 813d
000000f0: 8851 10be 0e74 143d 3751 8ebd c74f ed3d
00000100: a541 1dbe a447 323e b24e 47be 9521 903d
00000110: 5334 22be 5c69 97bd c032 363d 3a9c 5e3d
00000120: 7543 183e b0ae be3d 4102 94bd f563 c73d
00000130: f739 843d ed56 343e f076 3f3e 4daf 0fbe
00000140: 7282 febc dfe6 c83d 05a1 663b b52a a9bd
00000150: d9c8 033d e634 6fbd d3b0 1a3d b01b cb3d
00000160: d918 4d3e 906a 2a3e 56af 763c eece 363e
00000170: e350 ecbc 8a8b 4d3d f05f 4a3e f037 dbbd
00000180: 4a8d 7a3d 8d22 f8bb 9efd 033e 1130 723d
00000190: eff1 113e 8dc2 923d 9add 4b3e d0c0 1f3a
000001a0: 7d66 1c3d 66a0 b03b df6f aabd 40b4 d13d
000001b0: ddda b83d 729c 2e3e cca2 533e d3ed 223d
000001c0: 2ea5 fdbc 215d c13d 062d 8f3d 7e98 ef3d
000001d0: b511 07ba 218f da3d a9a7 313d c310 07be
000001e0: 3c82 f53d dfef 2bbb fda2 283e 2b0e fc3c
000001f0: 13fc 083d 0e71 423e dc4c 773d b781 c5bd
00000200: 6c7b 8c3d f1ef 0f3e c3dc a53d 2704 143e
00000210: 0256 3b3e 79df 79bd 62d6 373d 0933 11bd
00000220: bfdc 543d f759 25bd e2d8 c13c b039 0f3e
00000230: e246 cd3d 0ca0 a03d 00f3 da3d 17a3 2dbd
00000240: 384b bb3d d9bf 293d 03b5 743c dc2f cfbc
00000250: dbf8 093e da40 d6bd 376b 153e 615b 35be
00000260: 8be6 95bd f931 e73d eb5f b0bd 0d96 a1bd
00000270: 3c5d 513b bf11 7dbd 0fb4 21be 068f 833d
00000280: f14b ad3c 3f27 f73c 7966 283d 0c6b 023e
00000290: 0869 13be a33c 6cbc 59ea 043e 6fbb 00be
000002a0: 1f71 ab3d aaa6 843c c3ed 203e 3cd2 663d
000002b0: 6993 623e f399 033e 70f1 d43d b7d8 b83d
000002c0: afc5 ea3d 887f 863d 0794 da3d e26c 153d
000002d0: 9081 dcbd 3a4c aebd 300e f23d 985b a83d
000002e0: 0207 293d 8764 f0bd 006b 08bd 1403 7e3d
000002f0: 73e7 963c c345 0d3e 7e31 cf3d 4373 543d
00000300: fe9b dfbd 5774 043e e38e d9bd bd00 eebc
00000310: 1508 183e 36d0 8c3d 6da8 d7bd 8e6f 1f3e

bn1.running_mean f4 [8]
0.116772205 0.05382015 -0.059803396 0.122382134 0.1395097 0.1124247 0.045351163 0.0727677
00000000: 4426 ef3d 8572 5c3d 68f4 74bd 7ca3 fa3d
00000010: a1db 0e3e ec3e e63d 24c2 393d 3b07 953d

bn1.running_var f4 [8]
0.022499561 0.008211263 0.006828984 0.018091192 0.020635843 0.013462393 0.0062154094 0.0068979533
00000000: 0051 b83c 8988 063c abc5 df3b fb33 943c
00000010: 800c a93c 5e91 5c3c a2aa cb3b 3a08 e23b

conv2.weight f4 [4, 8, 5, 5]
-0.021028074 -0.05018475 -0.049757008 -0.0035114123 0.03896938 0.042971816 -0.13226032 -0.030161815
-0.0536508 0.009273685 -0.003134299 -0.08856298 0.016448813 0.006362209 -0.028151486 0.008779448
-0.005876603 0.030216722 -0.0055337073 -0.033946242 0.045363355 -0.024446206 0.050175734 0.030227385
0.05778068 -0.08381786 -0.026666598 -0.09956989 -0.032097675 -0.06580546 0.026231134 0.0082217315
-0.016281195 -0.11497916 0.00346411 0.023389181 -0.032921366 -0.06441115 0.027951134 0.037687667
0.040865805 -0.020364296 0.04539418 -0.042019326 -0.0021022405 0.00623017 -0.037105005 -0.021289304
-0.03560609 -0.046133406 -0.0052507655 -0.029961314 -0.040866144 0.020165231 -0.08824632 -0.06911209
0.018840326 -0.02489004 0.015486919 -0.03886971 0.025330896 -0.013619917 -0.0016549106 0.035518963
-0.005009594 -0.052923013 0.04745336 0.060861904 0.05485519 0.029665958 0.024058657 0.0018768997
0.049961418 0.029881401 0.0052043493 -0.0138668725 -0.07303249 -0.06636533 -0.010625905 -0.024682464
0.017051373 -0.053780608 -0.0724579 0.034248102 0.034794785 0.022604851 0.010686884 -0.048336156
0.029441174 0.022924814 -0.034354076 0.0018796062 0.049639612 -0.0026807524 0.0013411896 0.044255495
-0.04268403 0.044453483 -0.030738432 0.021923106 0.0022248053 -0.07295516 -0.028400682 -0.06271949
-0.004579993 -0.07111237 -0.021738881 0.008310984 0.011108228 -0.0142893605 -0.07989662 -0.0113462815
-0.020319633 -0.067384325 0.044372156 0.032119144 -0.018053029 0.04018378 -0.015280449 -0.029594004
-0.06615836 -0.050129108 0.034121666 0.0047988757 -0.011557456 -0.033625085 -0.09839292 -0.053406138
-0.00081598404 -0.07020279 -0.07040045 -0.04543319 -0.017035773 -0.08585182 0.00991524 0.025357584
0.020677844 0.0042548073 -0.06452582 0.018801408 -0.03798679 0.034040514 -0.00027314457 -0.06926038
-0.020623375 -0.06902292 -0.023921091 0.014680836 0.04209154 0.020981215 0.013342164 -0.031047981
-0.08132035 -0.025052987 0.03414057 -0.021688309 0.047982313 -0.0046014497 0.053672515 -0.030819053
0.01679338 -0.041306 0.022153437 -0.03805204 0.024683379 0.039866515 0.028697312 -0.017726244
0.056067426 -0.058552664 -0.022893455 -0.053509478 -0.037883114 0.010810135 0.04948021 -0.014918881
-0.04338265 -0.094996944 -0.012181121 -0.060240433 -0.032152127 -0.03683928 -0.08131664 0.028937114
-0.03491623 -0.042349268 -0.03756794 0.02818941 -0.0139576355 -0.02621702 0.012361236 -0.00683093
-0.021074431 -0.0002692147 -0.03300134 -0.0016959151 0.019034142 0.0050772717 0.053693376 0.042398486
-0.08572562 -0.05597155 0.04803934 -0.003910504 0.032961547 -0.04488438 0.013369799 0.03679052
-0.013915734 -0.032561455 -0.07937345 -0.029872326 -0.044797383 0.013727773 -0.052777197 -0.097813904
-0.016528938 0.0325731 -0.032491356 0.0569495 -0.045734555 -0.048083056 0.0075291814 0.003000317
0.05393533 -0.072769 -0.03593948 0.028771145 -0.03410174 -0.0156975 -0.017571863 -0.007704519
0.030363144 -0.025971826 0.029414853 -0.072462894 -0.10798658 -0.051225502 0.03939262 0.016054682
-0.11280579 -0.07931319 0.03224393 0.049675163 -0.04716713 -0.045172054 -0.043415636 0.0060210456
0.028646523 0.021914445 -0.022109386 -0.049738668 -0.05836719 0.0450624 0.0045439973 -0.06455274
00000000: 1143 acbc 868e 4dbd 01ce 4bbd b91f 66bb
00000010: 5b9e 1f3d 3703 303d 406f 07be e915 f7bc
00000020: f1c0 5bbd a7f0 173c d068 4dbb 8260 b5bd
00000030: a9bf 863c 147a d03b f29d e6bc add7 0f3c
00000040: 8590 c0bb 0f89 f73c 1a54 b5bb 370b 0bbd
00000050: edce 393d 6943 c8bc 1285 4d3d 6c9f f73c
00000060: 6fab 6c3d b3a8 abbd e973 dabc 4ceb cbbd
00000070: da78 03bd 03c5 86bd ade2 d63c 71b4 063c
00000080: 2460 85bc 327a ebbd 1f06 633b ab9a bf3c
00000090: 8ed8 06bd fee9 83bd c7f9 e43c 625e 1a3d
000000a0: e762 273d 06d3 a6bc 3fef 393d 751c 2cbd
000000b0: bec5 09bb 7426 cc3b 6bfb 17bd e866 aebc
000000c0: b1d7 11bd 62f6 3cbd 9d0e acbb 6e71 f5bc
000000d0: 4263 27bd 8e31 a53c 7dba b4bd a48a 8dbd
000000e0: 0757 9a3c 32e6 cbbc d9bc 7d3c d835 1fbd
000000f0: bd82 cf3c 1326 5fbc 96e9 d8ba 557c 113d
00000100: 8527 a4bb cdc5 58bd 745e 423d 554a 793d
00000110: d6af 603d 0606 f33c a916 c53c 4e02 f63a
00000120: 58a4 4c3d d7c9 f43c 3f89 aa3b e131 63bc
00000130: 0f92 95bd 8cea 87bd 4718 2ebc e132 cabc
00000140: 52af 8b3c 0e49 5cbd cf64 94bd bd47 0c3d
00000150: fa84 0e3d cf2d b93c 0a18 2f3c 22fc 45bd
00000160: 9e2e f13c d2cc bb3c dcb6 0cbd 1e5d f63a
00000170: e852 4b3d 90af 2fbb dbca af3a 4045 353d
00000180: 73d5 2ebd db14 363d 2acf fbbc 1698 b33c
00000190: 0ace 113b 8469 95bd 8ca8 e8bc 1373 80bd
000001a0: c413 96bb 5da3 91bd bd15 b2bc cb2a 083c
000001b0: 49ff 353c ec1d 6abc d7a0 a3bd c1e5 39bc
000001c0: 5c75 a6bc cb00 8abd 94bf 353d 5d8f 033d
000001d0: f2e3 93bc bf97 243d d95a 7abc 206f f2bc
000001e0: 097e 87bd 2e54 4dbd 29c3 0b3d e33f 9d3b
000001f0: 7c5b 3dbc 75ba 09bd 3a82 c9bd 65c0 5abd
00000200: c3e7 55ba 7bc6 8fbd 1c2e 90bd 2718 3abd
00000210: 9b8e 8bbc 14d3 afbd 8873 223c b5ba cf3c
00000220: 9564 a93c e96b 8b3b 1d26 84bd 6905 9a3c
00000230: 0998 1bbd 116e 0b3d d834 8fb9 63d8 8dbd
00000240: 5af2 a8bc e45b 8dbd 2af6 c3bc e487 703c
00000250: 2e68 2c3d cce0 ab3c 1899 5a3c 5658 febc
00000260: 498b a6bd ec3b cdbc fbd6 0b3d aeab b1bc
00000270: 1a89 443d c2c7 96bb b6d7 5b3d 3d78 fcbc
00000280: 4592 893c 7b30 29bd 207b b53c 75dc 1bbd
00000290: cc34 ca3c 124b 233d a016 eb3c a136 91bc
000002a0: f5a6 653d ebd4 6fbd 0e8b bbbc c12c 5bbd
000002b0: 532b 1bbd fe1c 313c c3ab 4a3d 526e 74bc
000002c0: 01b2 31bd c28d c2bd 5393 47bc acbe 76bd
000002d0: f3b1 03bd c9e4 16bd 5789 a6bd 870d ed3c
000002e0: 5204 0fbd 6d76 2dbd d7e0 19bd 7aed e63c
000002f0: 91ae 64bc 13c5 d6bc c886 4a3c fed5 dfbb
00000300: 49a4 acbc 6325 8db9 6a2c 07bd 7849 deba
00000310: 7ded 9b3c 3e5f a63b 96ed 5b3d 09aa 2d3d
00000320: ea90 afbd 6d42 65bd e6c4 443d af23 80bb
00000330: b002 073d afd8 37bd 000d 5b3c a8b1 163d
00000340: d2fe 63bc 295f 05bd 8c8e a2bd cfb6 f4bc
00000350: 767d 37bd 74ea 603c e72c 58bd a852 c8bd
00000360: b267 87bc 5f6b 053d a815 05bd e143 693d
00000370: 2854 3bbd bdf2 44bd 5ab7 f63b f7a0 443b
00000380: 4beb 5c3d ea07 95bd 4735 13bd 77b1 eb3c
00000390: 44ae 0bbd 0b98 80bc def2 8fbc 3176 fcbb
000003a0: 21bc f83c dec2 d4bc 6bf7 f03c 6d67 94bd
000003b0: 1128 ddbd d5d1 51bd 285a 213d 1c85 833c
000003c0: b906 e7bd f46e a2bd 3612 043d 2f78 4b3d
000003d0: 5232 41bd 5506 39bd 98d4 31bd 314c c53b
000003e0: 1dac ea3c ec85 b33c be1e b5bc c6ba 4bbd
000003f0: 6f12 6fbd 5a93 383d d0e5 943b 3a34 84bd

bn2.running_mean f4 [4]
-1.3375589 -1.572203 -1.9953412 -1.675981
00000000: 2135 abbf f33d c9bf 5767 ffbf 8c86 d6bf

bn2.running_var f4 [4]
2.5055254 2.638488 2.7873113 2.5794506
00000000: 875a 2040 fddc 2840 4f63 3240 b815 2540

fc1.weight f4 [32, 196]
0.051811248 0.003593042 0.03738353 -0.015371107 0.026641738 0.004761358 -0.037154913 -0.066318095
0.060134593 -0.036855232 -0.040669423 -0.03763878 -0.056102917 -0.0420502 -0.002654403 -0.037559174
-0.0046868753 0.009095247 0.00987566 -0.009386911 -6.2191786e-05 -0.0054925107 0.030539993 -0.008618494
-0.0020243137 0.016534504 0.06977136 0.014295299 -0.002396047 -0.009748213 0.019364657 0.030664451
-0.0016741857 0.063363664 0.0419323 -0.018928027 0.029784342 -0.03359164 0.0046236487 0.011081068
0.027045118 -0.04836199 0.006679565 -0.0427706 0.0044130003 -0.008944697 0.0007109276 0.00041247546
0.059097573 0.009196813 -0.04116138 -0.04052766 0.021314362 0.016557517 0.034141745 0.04470794
-0.037610814 0.05490007 -0.024489408 -0.011899847 0.00850837 -0.04774547 -0.035872046 -0.011644049
-0.033125434 0.0094345 0.014797534 0.010410145 -0.031598356 -0.018153828 0.0459953 -0.015048749
0.011653168 -0.018139295 -0.0004236552 0.0303746 -0.0221679 -0.028938776 0.04763879 0.0089885015
0.01162178 -0.0058468464 0.017553827 -0.035991274 -0.05678056 0.03562819 0.020313906 0.0039228583
0.01932466 0.002667042 0.021032903 -0.03283467 -0.037450444 0.0123681305 -0.03390025 -0.021656238
-0.010324891 -0.03703513 -0.056227636 0.029665347 0.03729582 0.020382646 0.017058963 0.03486997
0.018542277 0.042672854 -0.06201611 0.050037023 0.0018003974 0.0026661495 0.04346513 0.05061407
-0.026421519 -0.049506776 -0.029526887 0.020165442 0.026907254 -0.03716524 -0.028009191 -0.0005325754
0.04127153 -0.017981961 -0.03053256 0.028145025 -0.061772447 -0.038464833 -0.023757363 -0.03698271
0.029829346 0.03878773 -0.025398744 0.004805878 0.0487009 -0.06754604 -0.033542767 -0.061319724
-0.06879016 -0.025134139 0.0049490677 0.03328074 -0.026744563 0.000536276 0.026206318 0.0017765848
0.020375464 -0.008771057 -0.0688184 -0.010569525 -0.05740464 0.03973454 0.05125457 0.043659374
-0.045241218 -0.051163677 -0.072451085 0.05171998 -0.009721084 -0.038066205 0.01070585 -0.014628453
0.031391673 0.051503427 0.04861592 0.032814246 -0.025658732 0.012074931 0.0041634464 -0.013086358
-0.060332593 -0.06682872 0.01422752 0.006166265 -0.019855315 -0.026154106 0.057958227 0.055909358
0.03997759 -0.028794706 -0.0035046772 0.0137409065 -0.032524757 -0.03865757 0.046770416 -0.009251112
0.021982176 0.0012232764 0.022669792 -0.022821758 0.037471924 0.03908371 -0.004807915 0.015107485
0.018445145 -0.029333562 0.038289223 0.031994708 0.024968218 0.045692295 0.049797848 -0.017527113
0.02655756 -0.051773246 -0.06313868 -0.0773619 0.05285554 -0.040578593 0.037625436 -0.0042289672
-0.041684154 0.057154287 0.053485505 -0.007292907 0.021248 0.023218863 0.03693148 -0.05366645
-0.027161866 -0.05137832 0.059662707 0.0024861747 -0.052255828 0.025053047 0.0468944 0.043267716
-0.0723967 -0.003430723 -0.009745712 -0.0017193429 -0.035399877 -0.052341614 -0.05417467 -0.03485358
0.043077394 0.011819298 0.017825922 -0.005243335 0.022378257 0.050271764 0.05117747 0.04266182
0.051632266 -0.0062832683 -0.020830695 0.028760225 -0.08004474 0.01495932 -0.058088556 -0.043095108
-0.008620093 0.018108122 0.043142837 -0.06182447 0.001479762 0.022542447 -0.042894255 0.02457186
00000000: 0838 543d 3e79 6b3b 791f 193d 18d7 7bbc
00000010: c63f da3c 2a05 9c3b c02f 18bd c8d1 87bd
00000020: b14f 763d 83f5 16bd fb94 26bd 1f2b 1abd
00000030: 2ccc 65bd d53c 2cbd 7ef5 2dbb a6d7 19bd
00000040: 5c94 99bb 3b04 153c 85cd 213c 8fcb 19bc
00000050: f66c 82b8 85fa b3bb 022f fa3c 9534 0dbc
00000060: 59aa 04bb 5e73 873c 49e4 8e3d d436 6a3c
00000070: 0007 1dbb f8b6 1fbc a1a2 9e3c 0434 fb3c
00000080: 5a70 dbba cfc4 813d 34c1 2b3d f30e 9bbc
00000090: 4bfe f33c 6397 09bd fa81 973b 5e8d 353c
000000a0: b98d dd3c 3917 46bd 41e0 da3b 3a30 2fbd
000000b0: ee9a 903b c78c 12bc 8b5d 3a3a 8541 d839
000000c0: 4c10 723d 3bae 163c d698 28bd 5500 26bd
000000d0: 759b ae3c a1a3 873c 37d8 0b3d ac1f 373d
000000e0: cc0d 1abd e5de 603d 039e c8bc 93f7 42bc
000000f0: b166 0b3c c190 43bd 91ee 12bd aec6 3ebc
00000100: 89ae 07bd 2993 1a3c 5b71 723c 508f 2a3c
00000110: 476d 01bd 56b7 94bc 9165 3c3d 078f 76bc
00000120: eeec 3e3c dc98 94bc 0a1e deb9 27d4 f83c
00000130: 7599 b5bc 0311 edbc e420 433d 8244 133c
00000140: 4769 3e3c e796 bfbb 0bcd 8f3c 966b 13bd
00000150: bc92 68bd ddee 113d 5969 a63c 528b 803b
00000160: c04e 9e3c 8ac9 2e3b 324d ac3c a67d 06bd
00000170: a365 19bd b3a3 4a3c fdda 0abd 6c68 b1bc
00000180: bb29 29bc 26b2 17bd f34e 66bd be04 f33c
00000190: 80c3 183d 82f9 a63c 3dbf 8b3c d0d3 0e3d
000001a0: f9e5 973c bbc9 2e3d 9b04 7ebd 9ff3 4c3d
000001b0: 50fb eb3a 91ba 2e3b 7e08 323d b350 4f3d
000001c0: f171 d8bc 9ec7 4abd 5fe2 f1bc ff31 a53c
000001d0: 9a6c dc3c 943a 18bd 8873 e5bc 889c 0bba
000001e0: 560c 293d e84e 93bc 6b1f fabc 6590 e63c
000001f0: 1b05 7dbd 4d8d 1dbd cd9e c2bc 2f7b 17bd
00000200: ac5c f43c e2df 1e3d 0711 d0bc a07a 9d3b
00000210: 987a 473d 9455 8abd 2464 09bd 642a 7bbd
00000220: dbe1 8cbd 1ce6 cdbc ca2b a23b 6351 083d
00000230: 6a17 dbbc e094 0c3a a2ae d63c 4bdc e83a
00000240: 72ea a63c 7bb4 0fbc a9f0 8cbd cd2b 2dbc
00000250: 2121 6bbd afc0 223d 50f0 513d 2cd4 323d
00000260: db4e 39bd 0191 51bd 3c61 94bd 54d8 533d
00000270: 2e45 1fbc 4feb 1bbd 9767 2f3c 2eac 6fbc
00000280: 8e94 003d 42f5 523d 7d21 473d 3b68 063d
00000290: 4332 d2bc eed5 453c 856d 883b 2a68 56bc
000002a0: 4f1f 77bd 7fdd 88bd 8b1a 693c 610e ca3b
000002b0: 9da7 a2bc 2341 d6bc 9b65 6d3d 3601 653d
000002c0: 8bbf 233d e0e2 ebbc baae 65bb 8a21 613c
000002d0: ae38 05bd 6657 1ebd 5692 3f3d fa91 17bc
000002e0: f713 b43c 5856 a03a 00b6 b93c b2f4 babc
000002f0: 297c 193d 3e16 203d b78b 9dbb 6285 773c
00000300: 461a 973c f04c f0bc 29d5 1c3d e20c 033d
00000310: 268a cc3c d827 3b3d d4f8 4b3d 0595 8fbc
00000320: 3d8f d93c 2f10 54bd da4e 81bd ea6f 9ebd
00000330: 0d7f 583d bd35 26bd 211d 1a3d 2693 8abb
00000340: 01bd 2abd 9d1a 6a3d 9e13 5b3d 57f9 eebb
00000350: 4910 ae3c 7c35 be3c 7745 173d 5ad1 5bbd
00000360: 9082 debc 1372 52bd e260 743d 17ef 223b
00000370: 350a 56bd 0c3c cd3c 5814 403d 7d39 313d
00000380: b944 94bd fbd5 60bb 7bac 1fbc 935b e1ba
00000390: 76ff 10bd 2964 56bd 42e6 5dbd a1c2 0ebd
000003a0: ec71 303d bba5 413c ab07 923c 48d0 abbb
000003b0: 9b52 b73c c4e9 4d3d 779f 513d 29be 2e3d
000003c0: 5b7c 533d e0e3 cdbb 22a5 aabc 909a eb3c
000003d0: 7fee a3bd f017 753c 44ee 6dbd 7f84 30bd
000003e0: 4a3b 0dbc 7c57 943c 8bb6 303d a83b 7dbd
000003f0: 93f4 c13a f0aa b83c e3b1 2fbd ed4a c93c

conv1.weight f4 [8, 1, 5, 5]
-0.12393711 0.052686024 0.21283482 0.2152354 0.11567816 -0.09315368 0.08840795 -0.10967487
0.06305966 0.17483607 0.19060071 -0.0621795 0.18916538 0.033555925 0.11745432 -0.13064662
0.15293671 0.013548439 0.11130735 0.108014695 -0.1336493 -0.05681988 -0.026756523 -0.1434445
-0.06198174 0.16067335 -0.003313628 -0.10025684 0.18115292 -0.07154516 -0.05849245 0.18091701
0.07537073 0.09679634 -0.16038547 0.081240974 0.035406657 0.12223887 0.047824465 -0.081192434
-0.17088059 0.1254284 -0.086758174 -0.012698643 0.14140493 0.047694467 -0.17128095 -0.11783291
-0.033791672 -0.036117725 -0.06568629 -0.03469905 0.1239795 -0.038344257 -0.19439745 0.08456888
-0.14121015 -0.033112366 -0.15119225 0.10876714 -0.12681043 0.055243216 -0.03578323 0.17130022
-0.11158998 0.19926463 -0.16831213 0.11428726 -0.11828179 -0.046965897 0.07054653 0.08032205
0.19189048 0.11399538 -0.050838772 0.07826152 0.022153985 0.17020632 0.17686912 -0.16500796
-0.044972055 0.10534943 0.0021796096 -0.13054353 0.014049388 -0.074946746 0.060610604 0.10358808
0.1736984 0.1553986 -0.0008801045 0.19454175 -0.035417963 0.04463901 0.19167008 -0.11852142
0.058953997 -0.020961123 0.1424095 0.05448227 0.08725722 0.03105589 0.18765153 -0.0035398633
0.043458745 -0.059385885 -0.11330143 0.11634353 0.11426751 0.18985167 0.16454011 0.05915753
0.013478252 0.14294487 0.04198913 0.094535775 0.023054123 0.1409996 0.038356088 -0.1751004
0.09693236 -0.0038596315 0.17407073 0.03370184 0.011440673 0.15951145 0.032992102 -0.14896302
0.02442172 0.15690246 0.040373944 0.13389957 0.19898625 -0.056127604 0.057753876 -0.08390062
0.037409626 -0.027640626 0.036091972 0.1628702 0.06488304 0.06885907 0.09430968 -0.051238634
0.10699253 0.012237846 -0.007659296 -0.053064916 0.10890019 -0.15073924 0.14532875 -0.18343313
-0.07208051 0.10415524 -0.11444188 -0.08269841 0.0053378656 -0.07056704 -0.1813314 0.030640906
0.023725424 0.021798216 0.01530738 0.109069996 -0.18093117 -0.040681366 0.096214585 -0.16465138
0.06821006 -0.017189099 0.1335186 0.030053949 0.20477523 0.124763176 0.0856723 0.102051966
0.11449861 0.046158843 0.070476 0.027242789 -0.13399036 -0.10401449 0.09106181 0.0588847
0.060603406 -0.13512994 -0.055099737 0.036230057 -0.0011986007 0.17003745 0.088460766 0.034135044
-0.13633066 0.11464012 -0.080298476 -0.05328219 0.12763672 0.037749115 -0.14923882 0.1677887
00000000: bdd2 fdbd 4dcd 573d 5ff1 593e ab66 5c3e
00000010: ace8 ec3d 5bc7 bebd 3a0f b53d 389d e0bd
00000020: 6c25 813d 3a08 333e d52c 433e eeaf 7ebd
00000030: 92b4 413e f071 093d e48b f03d 3ac8 05be
00000040: 719b 1c3e 46fa 5d3c 1cf5 e33d cf36 dd3d
00000050: 5ddb 08be f6bb 68bd 7f30 dbbc 1de3 12be
00000060: 91e0 7dbd 8e87 243e 7429 59bb 7553 cdbd
00000070: 2780 393e 4586 92bd c795 6fbd 4f42 393e
00000080: f85b 9a3d 293d c63d 173c 24be ab61 a63d
00000090: 9206 113d 5f58 fa3d 96e3 433d 3848 a6bd
000000a0: 52fb 2ebe 4d70 003e 45ae b1bd f80d 50bc
000000b0: 74cc 103e 465b 433d 4664 2fbe 6152 f1bd
000000c0: 2369 0abd 2ef0 13bd 8986 86bd 9720 0ebd
000000d0: f7e8 fd3d de0e 1dbd 2010 47be 7332 ad3d
000000e0: 6599 10be d5a0 07bd 24d2 1abe 4ec1 de3d
000000f0: 98da 01be b646 623d 7091 12bd 5369 2f3e
00000100: 4a89 e4bd 070c 4c3e 045a 2cbe 700f ea3d
00000110: b93d f2bd 505f 40bd b37a 903d e37f a43d
00000120: f07e 443e 6976 e93d 513c 50bd 9347 a03d
00000130: 467c b53c 914a 2e3e 2e1d 353e d9f7 28be
00000140: 9e34 38bd 71c1 d73d c8d7 0e3b 34ad 05be
00000150: 672f 663c ae7d 99bd d342 783d fd25 d43d
00000160: fedd 313e d020 1f3e d0b6 66ba f435 473e
00000170: 6d12 11bd 65d7 363d 2945 443e 5cbb f2bd
00000180: bf79 713d a9b6 abbc ccd3 113e cd28 5f3d
00000190: eab3 b23d ec68 fe3c b927 403e 0dfd 67bb
000001a0: cc01 323d 9d3e 73bd 950a e8bd 8445 ee3d
000001b0: 1605 ea3d 7a68 423e 347d 283e 2b4f 723d
000001c0: e3d3 5c3c 2460 123e cbfc 2b3d f99b c13d
000001d0: 00dc bc3c 3362 103e 461b 1d3d 854d 33be
000001e0: 7984 c63d dff1 7cbb 993f 323e f10a 0a3d
000001f0: a971 3b3c f856 233e ba22 073d c389 18be
00000200: 0f10 c83c 0aab 203e 265f 253d f81c 093e
00000210: 0dc3 4b3e 0fe6 65bd 548f 6c3d 17d4 abbd
00000220: d63a 193d 986e e2bc 2dd5 133d 72c7 263e
00000230: 66e1 843d fc05 8d3d 6f25 c13d 9adf 51bd
00000240: e61e db3d 3f81 483c d5fa fabb 995a 59bd
00000250: 1007 df3d 635b 1abe 0fd1 143e e5d5 3bbe
00000260: f29e 93bd 584f d53d 8160 eabd c95d a9bd
00000270: 43e9 ae3b 7485 90bd f0ae 39be a302 fb3c
00000280: d25b c23c 2c92 b23c cecb 7a3c 1760 df3d
00000290: 0546 39be 81a1 26bd 270c c53d 5f9a 28be
000002a0: b7b1 8b3d 27d0 8cbc 1ab9 083e b333 f63c
000002b0: 99b0 513e d683 ff3d f574 af3d 9f00 d13d
000002c0: 3f7e ea3d 0e11 3d3d b955 903d 452c df3c
000002d0: c534 09be 8d05 d5bd 9d7e ba3d 1531 713d
000002e0: 473b 783d 815f 0abe 43b0 61bd f865 143d
000002f0: 5e1a 9dba 4c1e 2e3e eb2a b53d 30d1 0b3d
00000300: 449a 0bbe 70c8 ea3d 8773 a4bd 6d3e 5abd
00000310: 33b3 023e d19e 1a3d 10d2 18be cdd0 2b3e

bn1.running_mean f4 [8]
0.07904691 0.017111503 -9.09321e-05 0.10156318 0.12698798 0.08007125 0.0075009684 0.0432423
00000000: 59e3 a13d 6c2d 8c3c cdb2 beb8 5b00 d03d
00000010: 2309 023e 65fc a33d afca f53b d71e 313d

bn1.running_var f4 [8]
0.014550959 0.0038051216 0.002913456 0.013507255 0.019441867 0.007703541 0.0038397422 0.0036403679
00000000: 2567 6e3c 595f 793b aeef 3e3b 894d 5d3c
00000010: 8d44 9f3c fc6d fc3b 2fa4 7b3b 3d93 6e3b

conv2.weight f4 [4, 8, 5, 5]
-0.010800979 -0.020355588 -0.038241565 0.0044055167 0.060073957 0.06287825 -0.09075473 -0.010728422
-0.07655088 0.013411171 0.0049418984 -0.09471013 0.022102673 -0.0013921459 -0.033264708 0.021996574
-0.029251333 0.008135311 -0.017929384 -0.040602718 0.043736197 -0.04486351 0.042324133 0.039462805
0.07046583 -0.06120358 -0.023180738 -0.0822691 -0.035527017 -0.07907104 0.025535252 0.026172277
0.029789047 -0.09123598 -0.012502062 0.038486473 -0.028028132 -0.06262396 0.0467507 0.045130424
0.053882107 -0.022888523 0.030793073 -0.06796446 -0.018586542 0.024187194 -0.060869798 -0.04376822
-0.05420062 -0.06714541 0.0155543145 -7.381159e-05 -0.017559832 0.051549446 -0.06052806 -0.04329572
0.047124773 -0.055513933 0.004449838 -0.04428465 0.032662295 -0.031174865 -0.024257207 0.026388934
-0.020568758 -0.074647784 0.03441265 0.038925644 0.0448183 0.025772138 0.034131598 0.012534909
0.023082409 0.005673439 -0.012234254 0.015869377 -0.037110433 -0.050418258 -0.039755706 -0.009652638
0.030904276 -0.04954995 -0.04065596 0.049563743 0.035376143 0.035651855 -0.00565817 -0.06438835
0.020802492 0.026855536 -0.024187148 -0.018627033 0.03843798 -0.004374196 0.008069097 0.061644103
-0.056037154 0.039372142 -0.025627028 0.04079982 0.014356249 -0.04833582 0.008838844 -0.037424944
0.011425803 -0.05424103 0.007127175 0.022330793 0.016795216 -0.022110283 -0.07186198 -0.006797687
-0.03173962 -0.078280784 0.048007738 0.052628316 -0.033037066 0.020235967 -0.022156456 -0.020392075
-0.06533846 -0.0603346 0.021892091 -0.00049972336 0.002564852 -0.00979275 -0.072249584 -0.017150983
0.021996101 -0.055562083 -0.055364575 -0.017347082 0.012341467 -0.067229025 0.0101980865 0.04806687
0.03116401 -0.009501481 -0.06903332 0.024075098 -0.02759608 0.033173595 -0.013725172 -0.086085565
-0.01204585 -0.06653855 -0.031699777 0.0030325127 0.039598536 0.036828138 0.029251266 -0.005282036
-0.06185131 0.008256192 0.028056638 -0.012389736 0.031438645 -0.025411367 0.042602133 -0.04146932
0.014923512 -0.06821639 0.004056894 -0.051956203 0.006198841 0.02367425 0.030816915 -0.029457694
0.051686224 -0.06574168 -0.012768094 -0.04883522 -0.05974593 -0.008374494 0.048274636 0.00083307177
-0.018008906 -0.06790881 -0.020321077 -0.038397625 -0.0255818 -0.0014007705 -0.07250598 0.003994021
-0.05269285 -0.029687872 -0.07326834 0.025919665 -0.014497143 -0.017612973 0.020956026 -0.03132943
-0.040076066 0.0019695666 -0.031071758 -0.0022290098 0.004454146 -0.003183322 0.057496376 0.04932041
-0.07113659 -0.054475356 0.061781157 -0.023787158 -0.006478586 -0.07037567 -0.009772099 0.015216863
-0.04312851 -0.06662957 -0.047867943 -0.028014913 -0.059284586 0.0076701366 -0.06165175 -0.060477007
-0.008412271 0.015718702 -0.04379269 0.05466935 -0.044609126 -0.061736647 -0.0056155957 -0.0027387785
0.043455306 -0.041390117 -0.029905437 0.041643187 -0.031289354 -0.036567327 0.025638765 -0.029618522
0.012170204 -0.052961268 0.0034279265 -0.038058374 -0.07990761 -0.070199296 0.021632645 0.009960421
-0.07848438 -0.03555215 0.03998682 0.032698683 -0.067899704 -0.008597216 -0.03793938 -0.002129032
0.045740806 0.031820394 0.02067963 -0.017136598 -0.04603902 0.053694792 0.03908275 -0.030055461
00000000: 97f6 30bc c3c0 a6bc 30a3 1cbd 275c 903b
00000010: 1c10 763d 50c6 803d 9edd b9bd 43c6 2fbc
00000020: b5c6 9cbd 87ba 5b3c a6ef a13b 62f7 c1bd
00000030: aa10 b53c aa78 b6ba 9340 08bd 2932 b43c
00000040: 7ea0 efbc f849 053c a5e0 92bc 094f 26bd
00000050: ba24 333d cdc2 37bd 125c 2d3d c0a3 213d
00000060: 6450 903d 9bb0 7abd 88e5 bdbc b47c a8bd
00000070: c784 11bd ffef a1bd 4e2f d13c 3e67 d63c
00000080: 2908 f43c eed9 babd 73d5 4cbc fea3 1d3d
00000090: 419b e5bc fe40 80bd a97d 3f3d aeda 383d
000000a0: 7cb3 5c3d b680 bbbc c141 fc3c f330 8bbd
000000b0: ce42 98bc 3924 c63c 9c52 79bd 4e46 33bd
000000c0: 7801 5ebd 8883 89bd 86d7 7e3c 4ccb 9ab8
000000d0: a3d9 8fbc 8325 533d 45ec 77bd da56 31bd
000000e0: e805 413d 9462 63bd f2cf 913b d263 35bd
000000f0: e6c8 053d 6e62 ffbc 0db7 c6bc 9b2d d83c
00000100: d07f a8bc f0e0 98bd 47f4 0c3d 7f70 1f3d
00000110: 6593 373d 1720 d33c 93cd 0b3d 385f 4d3c
00000120: 5217 bd3c 41e8 b93b 2e72 48bc 7f00 823c
00000130: 1c01 18bd 6083 4ebd e1d6 22bd 1926 1ebc
00000140: f72a fd3c e3f4 4abd dd86 26bd 5a03 4b3d
00000150: 93e6 103d ae07 123d 2c68 b9bb 0ade 83bd
00000160: fd69 aa3c 2400 dc3c 2024 c6bc b897 98bc
00000170: 2571 1d3d 6a55 8fbb 3f34 043c 877e 7c3d
00000180: 3787 65bd af44 213d c6ef d1bc b61d 273d
00000190: 7936 6b3c c8fb 45bd ccd0 103c e64a 19bd
000001a0: 4b33 3b3c d82b 5ebd 148b e93b 11ef b63c
000001b0: 1f96 893c a020 b5bc 602c 93bd 22bf debb
000001c0: 6701 02bd ad51 a0bd c3a3 443d ca90 573d
000001d0: e051 07bd e6c5 a53c 7581 b5bc 480d a7bc
000001e0: 2cd0 85bd 6a21 77bd 0b57 b33c deff 02ba
000001f0: 1317 283b c571 20bc 97f7 93bd 3880 8cbc
00000200: 2b31 b43c 1195 63bd f7c5 62bd 781b 8ebc
00000210: dd33 4a3c 5faf 89bd e015 273c c4e1 443d
00000220: aa4b ff3c 1aac 1bbc 5761 8dbd 2439 c53c
00000230: 2d11 e2bc 09e1 073d 8bdf 60bc a14d b0bd
00000240: f55b 45bc 5d45 88bd a0d7 01bd 1fbd 463b
00000250: 1332 223d 1ad9 163d 5aa0 ef3c ee14 adbb
00000260: cd57 7dbd fb44 073c 09d7 e53c 52fe 4abc
00000270: cfc5 003d 802b d0bc 937f 2e3d bcdb 29bd
00000280: bf81 743c 09b5 8bbd b2ef 843b 07d0 54bd
00000290: a61f cb3b 80f0 c13c c173 fc3c 4351 f1bc
000002a0: efb4 533d 93a3 86bd 4531 51bc 7107 48bd
000002b0: 26b8 74bd 2c35 09bc a0bb 453d 8062 5a3a
000002c0: 6a87 93bc c613 8bbd 6378 a6bc d446 1dbd
000002d0: ec90 d1bc 0f9a b7ba 047e 94bd 47e0 823b
000002e0: 75d4 57bd fb33 f3bc b60d 96bd 7a55 d43c
000002f0: 6d85 6dbc 1549 90bc f9ab ab3c 4a53 00bd
00000300: cd26 24bd d813 013b 338a febc 9414 12bb
00000310: 16f4 913b 489f 50bb 5281 6b3d 3304 4a3d
00000320: 0fb0 91bd 8d21 5fbd 3d0e 7d3d 49dd c2bc
00000330: 514a d4bb 1f21 90bd 271b 20bc 2650 793c
00000340: 85a7 30bd 1675 88bd 2d11 44bd 887f e5bc
00000350: 65d4 72bd c555 fb3b 8c86 7cbd bdb6 77bd
00000360: 9fd3 09bc 82c4 803c f75f 33bd f8ec 5f3d
00000370: 0fb8 36bd 91df 7cbd 0803 b8bb 147d 33bb
00000380: 31fe 313d af88 29bd 3ffc f4bc 0c92 2a3d
00000390: 4429 00bd 9fc7 15bd 6308 d23c 8ba2 f2bc
000003a0: 8965 473c eaed 58bd 10a7 603b 19e3 1bbd
000003b0: 9aa6 a3bd a6c4 8fbd f236 b13c 0931 233c
000003c0: 6bbc a0bd 229f 11bd 38c9 233d 0eef 053d
000003d0: 000f 8bbd 56db 0cbc 5366 1bbd 3b87 0bbb
000003e0: b65a 3b3d 1a56 023d 5468 a93c 0d62 8cbc
000003f0: 6993 3cbd 12ef 5b3d 3c15 203d df36 f6bc

bn2.running_mean f4 [4]
-1.039954 -1.5006677 -0.14146702 -0.9972628
00000000: 361d 85bf e115 c0bf bbdc 10be 9d4c 7fbf

bn2.running_var f4 [4]
1.2442229 1.5430447 0.8428039 1.4974616
00000000: b242 9f3f 7d82 c53f ffc1 573f d2ac bf3f

fc1.weight f4 [32, 196]
0.04990853 0.0037292875 0.041588295 -0.015532879 0.021563549 -0.002838231 -0.034424208 -0.0716857
0.05988382 -0.031096838 -0.06405691 -0.05441268 -0.050454475 -0.041325014 -0.0016586772 -0.045182038
-0.0017943229 0.052052133 0.016486041 -0.04507111 -0.0007295139 -0.002301142 0.05556381 -0.064984865
-0.015701333 0.028255757 0.08724057 0.021843035 -0.0051331627 0.006431667 0.045599796 0.05471915
-0.018980538 0.071676604 0.058230557 -0.0169484 0.066404745 -0.06435735 0.019927276 -0.00034607877
0.0105937505 -0.04316602 0.013095091 -0.03401834 0.02674657 -0.016181022 -0.029428335 0.00407397
0.0614697 0.009817407 -0.043774534 -0.048806667 0.028479325 0.026726676 0.05261725 0.0516885
-0.03771832 0.060116965 -0.019538857 -0.03210231 0.05073447 -0.060878165 -0.020974413 -0.013955073
-0.040512953 0.049635306 -0.06979957 0.043327194 0.0016515633 -0.020881189 0.04640858 -0.011208379
0.060814776 -0.06295683 0.0067347125 0.05450125 -0.06099744 -0.027572302 0.056256745 0.05027751
-0.016620992 -0.03919563 0.009475132 -0.07179363 -0.06074823 0.044805307 0.053171378 -0.06340149
-0.005907937 -0.006788015 0.028973198 -0.03025952 -0.03475837 0.030931138 -0.05464806 -0.028852278
-0.012349857 -0.035369903 -0.057771474 0.034241837 0.045284774 0.026488751 0.03159961 0.03663784
0.033478744 0.03904016 -0.060764212 0.06093102 -0.0028391872 0.013085565 0.061099328 0.07135162
-0.02826599 -0.055128798 -0.033277888 0.014579059 0.029927302 -0.032950744 -0.03415344 -0.0011527708
0.071882784 -0.04487116 -0.07101761 0.03941503 -0.06640948 -0.048909426 -0.03379558 -0.056675043
0.037133757 0.048216816 -0.022310495 0.027095778 0.055487584 -0.073532216 -0.066045836 -0.068413064
-0.069954865 -0.041941218 -0.022164136 0.04409329 -0.022486085 0.019753296 0.05338543 -0.052761238
0.02186739 0.00047597932 -0.0662599 -0.011376235 -0.05711086 0.04334562 0.055292297 0.047261722
-0.053037588 -0.04975406 -0.07535143 0.05341755 -0.0102744475 -0.058591936 0.026812993 -0.012869157
0.05110186 0.051609572 0.058622822 0.05245349 -0.050409764 0.034143034 0.009560689 -0.013879617
-0.06431198 -0.05921704 -0.02562629 -0.0038074965 -0.019972797 -0.03130881 0.07111237 0.049918428
0.045933653 -0.039577227 0.0014784589 0.04165105 -0.06966306 -0.070591085 0.04563075 -0.0016254177
0.018415337 -0.015748665 0.026964437 -0.062446285 0.04744338 0.03860801 0.004625422 0.034868248
0.017008943 -0.045762524 0.03971128 0.035121933 0.032881927 0.047152996 0.052994136 -0.0023763631
0.044666845 -0.05041065 -0.06173299 -0.07217265 0.062242113 -0.038259264 0.04945092 -0.035768166
-0.07062579 0.062265377 0.059476383 -0.004260779 0.055060986 0.05382536 -0.011123323 -0.0634774
-0.032045536 -0.04917894 0.06643902 -0.03495953 -0.055361595 0.023101555 0.06773339 0.051304057
-0.06999995 5.5570614e-05 -0.043926112 -0.0039747823 -0.031078527 -0.065208696 -0.054064475 -0.03408181
0.061483245 0.0026862624 0.01585275 -0.0053539304 0.001581084 0.053499036 0.054707896 0.04647172
0.05986955 -0.031040035 -0.03819598 0.03675049 -0.074795775 0.02081488 -0.055405438 -0.043899767
0.01667405 -0.0038340418 0.020239295 -0.0675116 0.00806638 0.024635619 -0.067914836 0.061060563
00000000: e36c 4c3d 1067 743b 7d58 2a3d 9e7d 7ebc
00000010: 0aa6 b03c 9d01 3abb 6600 0dbd f4cf 92bd
00000020: bd48 753d ccbe febc 4530 83bd d5df 5ebd
00000030: 5aa9 4ebd 6b44 29bd f967 d9ba cd10 39bd
00000040: 7c2f ebba 9e34 553d bc0d 873c 7c9c 38bd
00000050: d93c 3fba c2ce 16bb e196 633d c916 85bd
00000060: 15a0 80bc 9e78 e73c 2fab b23d 2af0 b23c
00000070: 1734 a8bb bcc0 d23b dac6 3a3d 3021 603d
00000080: 137d 9bbc 2fcb 923d 2a83 6e3d 5fd7 8abc
00000090: 36ff 873d c9cd 83bd 873e a33c e871 b5b9
000000a0: 6991 2d3c dace 30bd cb8c 563c d156 0bbd
000000b0: 9f1b db3c 108e 84bc b113 f1bc f07e 853b
000000c0: a7c7 7b3d 30d9 203c ed4c 33bd 80e9 47bd
000000d0: 794d e93c e7f1 da3c 2f85 573d 52b7 533d
000000e0: 867e 1abd 353d 763d f40f a0bc b67d 03bd
000000f0: f3ce 4f3d 625b 79bd 88d2 abbc d2a3 64bc
00000100: e9f0 25bd 644e 4b3d 14f3 8ebd db77 313d
00000110: 4579 d83a 070f abbc ec16 3e3d 59a3 37bc
00000120: ea18 793d 83ef 80bd ddae dc3b b43c 5f3d
00000130: 74d8 79bd 4fdf e1bc 796d 663d caef 4d3d
00000140: bf28 88bc 998b 20bd 963d 1b3c 8a08 93bd
00000150: 23d3 78bd c585 373d 3bca 593d a4d8 81bd
00000160: 5e97 c1bb ff6d debb 3359 ed3c d0e2 f7bc
00000170: cb5e 0ebd 4c63 fd3c a5d6 5fbd 9d5b ecbc
00000180: 0e57 4abc 08e0 10bd c8a1 6cbd 2b41 0c3d
00000190: 877c 393d f0fe d83c 986e 013d 8f11 163d
000001a0: 0221 093d 93e8 1f3d e5e3 78bd ce92 793d
000001b0: a811 3abb d664 563c 4a43 7a3d cc20 923d
000001c0: 148e e7bc bcce 61bd 654e 08bd 01dd 6e3c
000001d0: 1a2a f53c 5cf7 06bd 7ae4 0bbd 9218 97ba
000001e0: 4837 933d d2ca 37bd ae71 91bd a871 213d
000001f0: b201 88bd 4055 48bd 3c6d 0abd 1724 68bd
00000200: 9119 183d ff7e 453d 80c4 b6bc f7f7 dd3c
00000210: f346 633d 0f98 96bd 0a43 87bd 261c 8cbd
00000220: 7f44 8fbd 8eca 2bbd 9091 b5bc 2a9b 343d
00000230: bd34 b8bc aad1 a13c aeaa 5a3d 2b1c 58bd
00000240: 3e23 b33c dd8c f939 45b3 87bd 6363 3abc
00000250: 14ed 69bd 2d8b 313d 2d7a 623d 8295 413d
00000260: f13d 59bd eaca 4bbd da51 9abd 5ccc 5a3d
00000270: 2856 28bc 19fe 6fbd eca6 db3c 28d9 52bc
00000280: 2f50 513d 8f64 533d 7c1e 703d 79d9 563d
00000290: 787a 4ebd 91d9 0b3d 70a4 1c3c 5567 63bc
000002a0: 00b6 83bd 918d 72bd 3aee d1bc 3187 79bb
000002b0: fe9d a3bc ab3d 00bd 5da3 913d 4477 4c3d
000002c0: ed24 3c3d bb1b 22bd d9c8 c13a 4b9a 2a3d
000002d0: 82ab 8ebd 0f92 90bd 4fe7 3a3d f80b d5ba
000002e0: c3db 963c 5803 81bc 86e4 dc3c adc7 7fbd
000002f0: fd53 423d 6f23 1e3d da90 973b 02d2 0e3d
00000300: 5756 8b3c 7c71 3bbd 4ca8 223d 04dc 0f3d
00000310: 33af 063d 8023 413d 6110 593d c2bc 1bbb
00000320: 95f4 363d 667b 4ebd bbdb 7cbd 41cf 93bd
00000330: 96f1 7e3d bfb5 1cbd 0c8d 4a3d a481 12bd
00000340: 41a4 90bd fb09 7f3d 829d 733d 019e 8bbb
00000350: a187 613d fb77 5c3d 993e 36bc 7000 82bd
00000360: 2e42 03bd db6f 49bd 2e11 883d b931 0fbd
00000370: d7c2 62bd 793f bd3c ceb7 8a3d 3424 523d
00000380: 225c 8fbd 7e14 6938 deeb 33bd e43e 82bb
00000390: 6598 febc 238c 85bd b672 5dbd 5e99 0bbd
000003a0: dbd5 7b3d 010c 303b a0dd 813c 0670 afbb
000003b0: 603c cf3a ce21 5b3d 6315 603d 2159 3e3d
000003c0: c639 753d ac47 febc 6373 1cbd af87 163d
000003d0: 872e 99bd f883 aa3c d0f0 62bd 3ed0 33bd
000003e0: 0498 883c 8c44 7bbb e1cc a53c 8643 8abd
000003f0: da28 043c a3d0 c93c ef16 8bbd a41a 7a3d

deconv1.weight f4 [2, 4, 5, 5]
-0.008289413 0.012721748 0.059487153 0.03878961 0.072348535 -0.07884702 -0.05829487 0.021011904
-0.045260377 -0.080564626 0.05465089 -0.055290267 0.018422717 0.11471243 0.07485953 -0.007565312
-0.123693824 -0.07927303 0.05372754 -0.022212412 0.017626258 -0.03460398 -0.0022965025 -0.039003137
-0.032337952 -0.0042519122 0.07346309 -0.062192872 0.045180827 0.012547217 -0.06208052 -0.04066075
0.05771732 0.03496603 0.05846296 -0.070749395 -0.04579391 0.025221935 -0.015384555 0.07635389
0.110704884 -0.04208487 -0.05083823 0.030078623 0.069412164 0.07032207 0.064273536 -0.033984907
-0.07986107 -0.038815062 -0.044068255 0.017109066 -0.10259789 -0.014784512 0.03192394 -0.0023680888
-0.034362108 -0.052849047 0.028475974 -0.038706496 -0.012859209 0.062571146 -0.03655207 0.06392292
0.09789254 -0.09215222 0.08832698 0.007839067 -0.02451747 0.005095955 -0.016394708 0.10913704
0.033966124 0.024320398 0.043785725 0.031717137 -0.034153506 0.056220133 0.00379587 0.11870448
-0.013995481 -0.023158027 0.08368418 0.090610094 -0.06386174 0.097399056 0.0681725 -0.030341743
-0.0034155403 0.010011467 0.016368233 -0.06485984 -0.05674189 -0.019470517 -0.03484841 -0.037989885
0.01856531 0.005829698 -0.04648054 0.057729512 -0.0047225216 0.019157503 -0.08307255 0.07492137
0.071032666 -0.041451227 0.0102004865 -0.010445038 -0.046646897 0.04617911 0.053305075 0.016671762
0.01489162 0.06487982 0.009159147 -0.034358088 0.048504833 0.06455039 -0.03792767 0.0008896411
0.03292445 -0.06625237 0.00904153 -0.04375674 0.013377853 0.06511812 -0.05479938 -0.035925694
-0.028110858 0.0103207985 0.07139694 0.08102099 0.019126426 0.024183076 -0.00012152046 -0.0048417654
-0.16152565 -0.08926471 0.061191447 0.029632483 0.014037081 0.015523489 0.105685554 0.07795462
-0.04832791 0.10948997 -0.063361734 -0.02010184 0.06021103 0.0935428 0.06125802 -0.05137082
0.04930759 -0.010805633 0.03289294 -0.016466992 0.10575034 0.01663218 0.09348374 -0.041464195
0.026020149 0.06551335 0.058545627 -0.06713201 0.039090544 0.04046723 0.027899751 -0.008149399
-0.005574822 0.06379713 0.06678163 -0.0064070746 0.0009920549 0.01044382 0.09548369 -0.057522304
-0.08646065 -0.067538224 0.11022305 0.023434116 -0.09623886 0.04215548 0.026000923 -0.05726033
0.052724075 0.025114588 0.043984026 0.013380318 0.03807312 -0.02060845 0.037325308 -0.026106993
-0.04801824 -0.024938365 -0.08409785 -0.064419456 0.04489364 0.06379584 0.0032434845 -0.07221964
00000000: 51d0 07bc e16e 503c cda8 733d dbe1 1e3d
00000010: 782b 943d 8c7a a1bd 9ac6 6ebd 2821 ac3c
00000020: f262 39bd 11ff a4bd 9dd9 5f3d 0c78 62bd
00000030: 3deb 963c 5aee ea3d f44f 993d 70e6 f7bb
00000040: 3053 fdbd e659 a2bd 6911 5c3d cef6 b5bc
00000050: f164 903c e7bc 0dbd eb80 16bb c1c1 1fbd
00000060: cd74 04bd a053 8bbb d173 963d f4bd 7ebd
00000070: 880f 393d d892 4d3c 2548 7ebd e38b 26bd
00000080: ff68 6c3d 8a38 0f3d db76 6f3d 0fe5 90bd
00000090: 6592 3bbd 3b9e ce3c 800f 7cbc 6e5f 9c3d
000000a0: 3eb9 e23d 2f61 2cbd bf3b 50bd 7267 f63c
000000b0: f727 8e3d 0405 903d d8a1 833d c233 0bbd
000000c0: 338e a3bd 8bfc 1ebd ea80 34bd 5028 8c3c
000000d0: d81e d2bd bd3a 72bc adc2 023d f031 1bbb
000000e0: 48bf 0cbd 3e78 58bd 7246 e93c b48a 1ebd
000000f0: 6faf 52bc 4d25 803d a0b7 15bd 05ea 823d
00000100: e27b c83d 4eba bcbd c7e4 b43d 6e6f 003c
00000110: dcd8 c8bc f8fb a63b 324e 86bc 3e83 df3d
00000120: 1020 0b3d 923b c73c a958 333d d4e9 013d
00000130: 8ce4 0bbd 1547 663d 22c4 783b 561b f33d
00000140: 4d4d 65bc e7b5 bdbc 9d62 ab3d c991 b93d
00000150: f2c9 82bd 2879 c73d 069e 8b3d 3f8f f8bc
00000160: 42d7 5fbb 2307 243c ac16 863c 3cd5 84bd
00000170: 2f6a 68bd a280 9fbc 35bd 0ebd 489b 1bbd
00000180: 4716 983c 0d07 bf3b 6162 3ebd c875 6c3d
00000190: 62bf 9abb 32f0 9c3c f121 aabd 6070 993d
000001a0: 9379 913d c3c8 29bd f11f 273c aa21 2bbc
000001b0: d110 3fbd 4e26 3d3d 6c56 5a3d 3893 883c
000001c0: fbfb 733c b6df 843d 3f10 163c 11bb 0cbd
000001d0: 01ad 463d ff32 843d 0b5a 1bbd ce36 693a
000001e0: cadb 063d 53af 87bd ed22 143c 443a 33bd
000001f0: c82e 5b3c a65c 853d 5175 60bd d226 13bd
00000200: be48 e6bc 9118 293c 8f38 923d 55ee a53d
00000210: 06af 9c3c 961b c63c cdd8 feb8 aca7 9ebb
00000220: fb66 25be 6bd0 b6bd e2a3 7a3d d2bf f23c
00000230: c9fb 653c 3b56 7e3c ab71 d83d aca6 9f3d
00000240: 7df3 45bd 473c e03d ccc3 81bd 9dac a4bc
00000250: d79f 763d 5e93 bf3d b1e9 7a3d 356a 52bd
00000260: c1f6 493d 1c0a 31bc bfba 063d c9e5 86bc
00000270: a293 d83d 3640 883c 6774 bf3d 5cd6 29bd
00000280: 3528 d53c dd2b 863d 8acd 6f3d 827c 89bd
00000290: 681d 203d f7c0 253d 058e e43c 0f85 05bc
000002a0: ffac b6bb 12a8 823d cfc4 883d 70f2 d1bb
000002b0: d707 823a 8e1c 2b3c f48c c33d 829c 6bbd
000002c0: 4812 b1bd 7b51 8abd 9fbc e13d e7f8 bf3c
000002d0: e118 c5bd 39ab 2c3d e3ff d43c cf89 6abd
000002e0: 33f5 573d 1cbd cd3c 9828 343d 1f39 5b3c
000002f0: 8ff2 1b3d 0dd3 a8bc 6ce2 183d 55de d5bc
00000300: c6ae 44bd 8b4b ccbc 7e3b acbd 59ee 83bd
00000310: 65e2 373d 65a7 823d a490 543b e4e7 93bd

bn3.running_mean f4 [4]
0.06326932 0.17473993 0.31126773 0.08677742
00000000: 5893 813d 06ef 323e 7c5e 9f3e 5cb8 b13d

bn3.running_var f4 [4]
0.071300946 0.087199956 0.08548912 0.05344548
00000000: 3b06 923d e495 b23d eb14 af3d a6e9 5a3d

deconv2.weight f4 [4, 8, 5, 5]
0.025631765 -0.02126359 0.077801876 0.030509284 0.07063673 0.023069207 0.011404122 -0.024880756
0.022828067 -0.0011476799 -0.0182603 0.018704189 -0.0055611567 0.012234511 -0.03799279 0.0007334518
-0.009672179 0.07396674 0.037477653 -0.023517422 -0.008731337 0.004334076 0.007547693 -0.020022852
0.016001653 -0.0025215687 0.026151339 0.044764027 -0.029522914 0.025443953 0.05985247 0.022114832
0.039810095 0.038196635 0.055054437 -0.009971768 0.0058040177 0.0771262 -0.0017022318 -0.012849379
0.013608245 0.051291358 0.05619615 -0.026413951 0.056497388 0.03303462 -0.011202754 0.06603903
0.060840964 -0.05045728 -0.050691828 -0.08475303 0.01954203 0.014444817 0.000976608 0.036383748
-0.015939005 -0.0517498 0.046913076 0.0027022206 0.006296773 0.004769481 0.036416396 0.042571265
-0.023952022 -0.017364968 -0.03699998 0.025615713 -0.035231747 -0.039502233 -0.00304615 0.0045158826
0.046379916 -0.00014104595 0.01263668 0.0049823048 0.011764538 0.052683637 0.023417985 -0.008051984
0.012203674 0.06330407 -0.042171225 -0.0059804325 0.000120618606 0.02439253 -0.06872901 0.019700017
-0.020267678 0.031668745 -0.016720252 -0.021660464 0.02878083 -0.068175346 0.0530084 -0.032040827
-0.048308916 0.06894392 0.044457592 0.0013848102 0.12936969 0.026962573 0.056968924 0.033950616
0.08080884 0.04231153 -0.058948796 -0.042183027 -0.019156612 -0.019410277 0.01045282 -0.0895947
-0.042475007 0.06288876 0.020250406 0.04483581 0.02706329 -0.012733577 0.05965098 0.067392886
-0.016583856 0.028773235 0.064212896 0.059874933 0.00047021257 -0.062477015 -0.046425104 0.049083695
0.04831152 -0.04576896 0.03488462 0.012065069 -0.05501494 -0.026384147 -0.042664967 -0.09890893
0.022589242 0.06289499 -0.055947304 -0.0048045497 0.016093735 0.03311743 -0.01879742 0.023970654
-0.01307496 -0.037534088 -0.005242825 0.07081314 0.0077926707 -0.034624483 0.019527739 0.00862446
-0.036700107 -0.034946077 0.019993173 0.016974218 -0.028388735 0.048471548 -0.044686787 0.041245714
-0.07423239 0.035330553 0.060836148 0.07105156 0.056555144 0.056458037 0.02144632 -0.073869556
-0.045155965 0.062464584 -0.06819003 -0.042564508 -0.020778479 -0.048325315 -0.018009039 -0.038094696
0.028035091 -0.047598038 0.05227017 0.027389264 0.082247786 0.02333868 0.030129544 0.027437147
-0.011665985 -0.021554379 0.030010238 -0.05428229 -0.013296061 -0.032097887 -0.03462593 0.048289016
-0.053233564 -0.052887615 0.038066573 0.010043503 -0.052410487 0.05923301 0.046072762 -0.010815373
0.056178473 0.0670239 0.0041425666 0.01764903 -0.02364996 -0.047070727 0.030425828 -0.040146034
-0.016101992 -0.074848756 -0.025895754 0.021782614 -0.004861577 -0.015482762 0.019141404 0.042793717
-0.060768865 -0.07627513 -0.06216393 0.066900425 0.0029881727 -0.088896036 0.020174157 0.050617717
0.074138954 -0.053710297 0.02473823 0.072687335 -0.017159576 0.042497776 -0.028176779 0.07866683
0.081049494 0.08492019 0.045236543 -0.040618315 0.009352434 0.004145696 0.10526246 -0.05169159
-0.030015761 -0.013021004 -0.027629381 -0.021406341 0.057107292 -0.03643498 -0.039498188 -0.039638937
-0.015920347 0.068147786 -0.029564727 -0.04761809 -0.058973208 -0.030411102 -0.06559323 0.037966933
00000000: b5f9 d13c fb30 aebc 9756 9f3d 9bee f93c
00000010: fda9 903d a2fb bc3c 5bd8 3a3c bad2 cbbc
00000020: ed01 bb3c bf6d 96ba a096 95bc 8739 993c
00000030: 5d3a b6bb 4273 483c 549e 1bbd 1e45 403a
00000040: 0f78 1ebc e07b 973d 2b82 193d 9ca7 c0bc
00000050: e20d 0fbc dd04 8e3b a352 f73b f706 a4bc
00000060: e615 833c e740 25bb 553b d63c 7c5a 373d
00000070: 0ada f1bc d66f d03c dd27 753d 2a2a b53c
00000080: e90f 233d 1374 1c3d c380 613d a060 23bc
00000090: a12f be3b 57f4 9d3d 6c1d dfba 3486 52bc
000000a0: 1ef5 5e3c e316 523d ef2d 663d 1262 d8bc
000000b0: ce69 673d 4f4f 073d c28b 37bc 793f 873d
000000c0: 6034 793d 4bac 4ebd 3ca2 4fbd ff92 adbd
000000d0: 9b16 a03c f4a9 6c3c 8701 803a 2007 153d
000000e0: 8492 82bc 99f7 53bd ed27 403d bd17 313b
000000f0: 2955 ce3b 4e49 9c3b 5c29 153d 355f 2e3d
00000100: 0837 c4bc fa40 8ebc 4b8d 17bd 0bd8 d13c
00000110: 2a4f 10bd 18cd 21bd eba1 47bb f8f9 933b
00000120: def8 3d3d bce5 13b9 140a 4f3c 9a42 a33b
00000130: 0cc0 403c ccca 573d 13d7 bf3c 78ec 03bc
00000140: ebf1 473c 90a5 813d bcbb 2cbd 81f7 c3bb
00000150: 9ff4 fc38 d8d2 c73c ccc1 8cbd ee61 a13c
00000160: 6708 a6bc 16b7 013d e9f8 88bc 4971 b1bc
00000170: c6c5 eb3c 849f 8bbd 561f 593d 3e3d 03bd
00000180: 92df 45bd 7832 8d3d 2a19 363d 8582 b53a
00000190: 7d79 043e 9de0 dc3c 3f58 693d cd0f 0b3d
000001a0: 1b7f a53d db4e 2d3d 4b74 71bd 1cc8 2cbd
000001b0: 54ee 9cbc 4d02 9fbc 4e42 2b3c 6d7d b7bd
000001c0: 46fa 2dbd d2cb 803d 2ee4 a53c c1a5 373d
000001d0: d5b3 dd3c 7ea0 50bc 9654 743d 4805 8a3d
000001e0: deda 87bc d9b5 eb3c 0d82 833d 6b3f 753d
000001f0: dd86 f639 e6e7 7fbd 4028 3ebd fc0b 493d
00000200: 4de2 453d 3c78 3bbd 2de3 0e3d 91ac 453c
00000210: 5957 61bd 9123 d8bc 76c1 2ebd c490 cabd
00000220: 130d b93c 17cf 803d 0029 65bd 7c6f 9dbb
00000230: 02d7 833c 24a6 073d 0cfd 99bc 1b5e c43c
00000240: 5b38 56bc 58bd 19bd 01cc abbb 7b06 913d
00000250: a959 ff3b 67d2 0dbd a3f8 9f3c 9b4d 0d3c
00000260: da52 16bd 9e23 0fbd b9c8 a33c 840d 8b3c
00000270: 7e8f e8bc 1a8a 463d 7e09 37bd 44f1 283d
00000280: 2707 98bd c5b6 103d 532f 793d 7b83 913d
00000290: 5ea6 673d 8b40 673d 31b0 af3c ec48 97bd
000002a0: 76f5 38bd ddda 7f3d 37a7 8bbd 1f58 2ebd
000002b0: a137 aabc c4f0 45bd b187 93bc 2f09 1cbd
000002c0: d9a9 e53c 29f6 42bd 3f19 563d 735f e03c
000002d0: 8771 a83d c230 bf3c 3cd2 f63c dec3 e03c
000002e0: b022 3fbc cf92 b0bc 08d8 f53c 1b57 5ebd
000002f0: b9d7 59bc 1379 03bd ebd3 0dbd b4ca 453d
00000300: 700b 5abd afa0 58bd b2eb 1b3d 818d 243c
00000310: 61ac 56bd 509e 723d cbb6 3c3d f632 31bc
00000320: 661b 663d d443 893d 5ebe 873b b394 903c
00000330: 90bd c1bc 3ccd 40bd 963f f93c 2b70 24bd
00000340: 53e8 83bc 4e4a 99bd 5523 d4bc 7471 b23c
00000350: dd4d 9fbb 69ab 7dbc 6fce 9c3c 7748 2f3d
00000360: c6e8 78bd 2336 9cbd 9b9f 7ebd 1703 893d
00000370: 38d5 433b 200f b6bd 4644 a53c 8654 4f3d
00000380: 2ad6 973d 54ff 5bbd d4a7 ca3c 19dd 943d
00000390: 3d92 8cbc 2612 2e3d fdd2 e6bc 131c a13d
000003a0: 47fd a53d a3ea ad3d f449 393d 645f 26bd
000003b0: f43a 193c 9ed8 873b d893 d73d 90ba 53bd
000003c0: 9de3 f5bc 0d56 55bc 0357 e2bc 5a5c afbc
000003d0: 56e9 693d d83c 15bd dac8 21bd 705c 22bd
000003e0: 636b 82bc 1191 8b3d ba31 f2bc 300b 43bd
000003f0: e48d 71bd b420 f9bc be55 86bd 3783 1b3d

bn4.running_mean f4 [8]
0.18185282 0.6046075 -0.60875195 0.20696229 0.16757336 -0.49274802 0.042872474 0.15366705
00000000: a037 3a3e 8fc7 1a3f 2bd7 1bbf eced 533e
00000010: 5a98 2b3e 7849 fcbe 0c9b 2f3d e55a 1d3e

bn4.running_var f4 [8]
0.080144055 0.25757864 0.14649585 0.054207563 0.050644614 0.09884253 0.06619984 0.05657569
00000000: 9122 a43d 59e1 833e 0203 163e c008 5e3d
00000010: ba70 4f3d f46d ca3d c893 873d e9bb 673d
