log/mnist_test_class_3/model.tar (torch, 71258 bytes, 21 tensors)

conv1.weight f4 [8, 1, 5, 5]
0	0xbddf8a49	-0.10915048
1	0x3d793d7a	0.060849644
2	0x3e4d1f14	0.20031387
3	0x3e37d610	0.17952752
4	0x3e0b81fd	0.13623805
5	0xbdbd7604	-0.09251025
6	0x3dc0fc96	0.09423177
7	0xbdcef5d6	-0.10105483
8	0x3d8de8e9	0.0692919
9	0x3e52f76b	0.20602195
10	0x3e3f572b	0.18685596
11	0xbd7941c0	-0.06085372
12	0x3e4e674f	0.20156597
13	0x3d949668	0.0725525
14	0x3e107b82	0.14109614
15	0xbdd9854f	-0.1062113
16	0x3e2fd33a	0.1717042
17	0x3d3428da	0.04398427
18	0x3de460cb	0.11151274
19	0x3dd2796b	0.10277065
20	0xbd9a1323	-0.07523181
21	0x3ba37376	0.0049881293
22	0x3cbed7c8	0.023296252
23	0xbde8ecee	-0.11373316
24	0xbd6f3e07	-0.058408763
25	0x3e16c98a	0.14725319
26	0x3c74a52a	0.014931956
27	0xbd7e76fd	-0.062125195
28	0x3e4d70d7	0.20062576
29	0xbd3f0c5b	-0.046642642
30	0xbd5b4681	-0.053534035
31	0x3e2622dd	0.16224237
32	0x3d8db312	0.069189206
33	0x3dcbd37b	0.09952446
34	0xbe208552	-0.15675858
35	0x3d976447	0.07392173
36	0x3cc2d272	0.023781989
37	0x3ddd150c	0.1079503
38	0x3d0257ba	0.031821944
39	0xbdd7d4a9	-0.105386086
40	0xbe3e4583	-0.18581204
41	0x3dd0f86e	0.10203634
42	0xbddbcce6	-0.10732441
43	0xbd108f41	-0.035292868
44	0x3df5307c	0.11972138
45	0x3c8e72af	0.01738867
46	0xbe4d0771	-0.2002237
47	0xbe067696	-0.13131174
48	0xbc656489	-0.01400102
49	0xbc95c07b	-0.018280258
50	0xbdc7fb55	-0.09764735
51	0xbd8b7172	-0.06808747
52	0x3dca0830	0.09864843
53	0xbd10c5c7	-0.035344865
54	0xbe485fd9	-0.19567813
55	0x3d0838ae	0.03325718
56	0xbe277a38	-0.16355217
57	0xbd0496ef	-0.032370504
58	0xbe1aaad1	-0.15104224
59	0x3db7826d	0.089604236
60	0xbe22873c	-0.158719
61	0x3d965e35	0.07342187
62	0xbad1e78d	-0.0016014442
63	0x3e3e19be	0.18564507
64	0xbde20218	-0.110355556
65	0x3e2ac16f	0.16675352
66	0xbe0ee072	-0.13952807
67	0x3e1929f4	0.1495741
68	0xbd9a93c9	-0.07547719
69	0xbc85738e	-0.016290452
70	0x3d4710c7	0.048599984
71	0x3dc4a55d	0.09601853
72	0x3e55c38c	0.20875376
73	0x3e20b710	0.15694833
74	0xbc6514ee	-0.013982041
75	0x3e0212db	0.12702505
76	0x3d959724	0.073042184
77	0x3e5eb4d0	0.21748662
78	0x3e737172	0.23773745
79	0xbdb61d6c	-0.088923305
80	0x3c6ee6ad	0.014581365
81	0x3de5592f	0.11198651
82	0x3afbc7bc	0.0019209306
83	0xbdd1c035	-0.10241739
84	0x3d88a090	0.0667125
85	0xbcb42d24	-0.021994181
86	0x3d458b36	0.048228465
87	0x3d6f6ffc	0.058456406
88	0x3e042c34	0.12907487
89	0x3e186be5	0.14884908
90	0x3cf02540	0.029314637
91	0x3e310af6	0.17289338
92	0xbd805dc3	-0.06267884
93	0xbb0ba744	-0.0021309415
94	0x3e2b3e11	0.16722895
95	0xbd7fdc3f	-0.062465902
96	0x3daca0f9	0.084291406
97	0x3b1b9f27	0.0023745985
98	0x3e22154e	0.1582844
99	0x3db01894	0.08598438
100	0x3e16bd8a	0.14720741
101	0x3d8c6d09	0.06856734
102	0x3e51b135	0.20477755
103	0x3cd7904e	0.026313927
104	0x3da785c0	0.08179808
105	0xbc2b5a13	-0.010458487
106	0xbdcdcf9e	-0.100493655
107	0x3db5a364	0.08869055
108	0x3db8d251	0.0902449
109	0x3e4d6025	0.20056207
110	0x3e14ec8a	0.14543357
111	0x3d1466f2	0.03623099
112	0xbb8f47dc	-0.00437258
113	0x3e0669d4	0.13126308
114	0x3d69373e	0.05693745
115	0x3da3c3d6	0.07996337
116	0xbb53f082	-0.0032339399
117	0x3e03fdbd	0.12889762
118	0x3d77ddac	0.060514137
119	0xbe106795	-0.14102013
120	0x3dfade66	0.122494504
121	0xbaaea82d	-0.0013325267
122	0x3e2cde47	0.16881667
123	0x3d298bdd	0.04139315
124	0x3d17dae0	0.03707397
125	0x3e1aa440	0.15101719
126	0x3d0f48d1	0.034981553
127	0xbdd6d307	-0.10489469
128	0x3d83757b	0.06418892
129	0x3e3cf256	0.18451819
130	0x3d2618e7	0.040551092
131	0x3dc913f8	0.09818262
132	0x3e3325c8	0.17494881
133	0xbd325bb6	-0.043544494
134	0x3da817f1	0.082076915
135	0xbd29404a	-0.041321076
136	0x3cb3cb7d	0.021947617
137	0xbd2ed63b	-0.042684775
138	0x3d25089e	0.04029142
139	0x3e2f2765	0.17104872
140	0x3d86153c	0.06547019
141	0x3d764973	0.06012864
142	0x3dbbedbb	0.09176203
143	0xbd0cfa4b	-0.034418385
144	0x3dd86d64	0.105677396
145	0x3ca8bd9c	0.020598225
146	0x3d0f1e25	0.034940857
147	0x3c84dc91	0.016218456
148	0x3e2e6d37	0.1703385
149	0xbde9d591	-0.11417688
150	0x3ddb4a17	0.10707491
151	0xbe499977	-0.19687448
152	0xbd77765e	-0.060415618
153	0x3e0006dc	0.12502617
154	0xbdc2d4e8	-0.09513265
155	0xbe1142fe	-0.14185712
156	0xbd1a48cc	-0.03766708
157	0xbd8ac49f	-0.06775784
158	0xbe246577	-0.16054331
159	0x3d436120	0.047700047
160	0xbcfff35f	-0.031243978
161	0xbb45e300	-0.0030195117
162	0x3ceb081b	0.028690388
163	0x3e131b04	0.14365774
164	0xbe2e6198	-0.17029417
165	0xbd188766	-0.0372385
166	0x3df8441e	0.12122367
167	0xbdfd2048	-0.12359673
168	0x3db4fc36	0.08837168
169	0xbc4f9b0f	-0.012671246
170	0x3e00b619	0.12569465
171	0x3d585d15	0.052823145
172	0x3e5c804c	0.21533316
173	0x3e02dd7a	0.12779799
174	0x3db5035f	0.088385336
175	0x3def7af1	0.11693371
176	0x3deb5f63	0.11492803
177	0x3d5cdb84	0.053920284
178	0x3db1bd19	0.08678646
179	0x3d691c37	0.056911673
180	0xbd9a2421	-0.07526422
181	0xbd8ca8d4	-0.06868139
182	0x3da95fc7	0.08270221
183	0x3d02d88c	0.031944796
184	0x3d7e09e8	0.062021166
185	0xbd5eb1db	-0.054368835
186	0xbb4ab1b3	-0.003092867
187	0x3d14ecaa	0.036358513
188	0xbc70ca87	-0.014696724
189	0x3e343c96	0.17601237
190	0x3de01307	0.10941129
191	0x3cdd4a55	0.027012983
192	0xbe0331d1	-0.12811972
193	0x3de40a87	0.111348204
194	0xbd2106f5	-0.039313275
195	0xbca94b95	-0.020665923
196	0x3e1734ce	0.14766237
197	0x3de267d3	0.11054959
198	0xbda74afd	-0.081686
199	0x3e58bcaf	0.21165727

bn1.running_mean f4 [8]
0	0x3d921d03	0.0713444
1	0x3b49cec4	0.0030793408
2	0x3b36d9f0	0.0027900897
3	0x3db3def3	0.087827586
4	0x3dbae099	0.0912487
5	0x3d8c8d10	0.06862843
6	0x3bece633	0.0072295903
7	0x3d6c1167	0.057633784

bn1.running_var f4 [8]
0	0x3c459077	0.012058369
1	0x3b475200	0.0030413866
2	0x3b77cfb5	0.0037813012
3	0x3c44d174	0.012012828
4	0x3c503d45	0.01270992
5	0x3bee11df	0.007265314
6	0x3b81eeed	0.0039652498
7	0x3ba24fc1	0.004953355

conv2.weight f4 [4, 8, 5, 5]
0	0xbd02ad65	-0.031903643
1	0xbd48e0fe	-0.049042694
2	0xbd5dd23c	-0.054155573
3	0x3d017e25	0.03161444
4	0x3d3efb13	0.04662616
5	0x3cd797e8	0.026317552
6	0xbdeade6e	-0.11468206
7	0xbc9acf30	-0.018897623
8	0xbd87f88b	-0.06639203
9	0x3ca1fdc7	0.01977433
10	0xbcf81308	-0.030282512
11	0xbde327f8	-0.11091608
12	0x3bff6c0d	0.007794863
13	0xbbba1100	-0.005678296
14	0xbcdddba3	-0.02708227
15	0x3c8254b1	0.015909525
16	0xb9993499	-0.00029221622
17	0x3cac72ac	0.021050774
18	0xbc92a018	-0.017898604
19	0xbd1f4aca	-0.038889684
20	0x3d184373	0.0371737
21	0xbd0b95ac	-0.034078285
22	0x3cc94871	0.024570676
23	0x3c48089c	0.012209084
24	0x3d365b8c	0.0445209
25	0xbd1bc522	-0.038029797
26	0xbd083fc6	-0.033263944
27	0xbdcaf60a	-0.099102095
28	0xbc43f38a	-0.01195992
29	0xbd018da2	-0.031629212
30	0x3d391260	0.04518354
31	0x3bd4e0c5	0.006496521
32	0x3c1d172e	0.009588046
33	0xbdae4b3f	-0.08510446
34	0x3a89ee4a	0.0010523286
35	0x3d0844e9	0.033268843
36	0xbcc64a86	-0.024205457
37	0xbd58e3de	-0.052951686
38	0x3d1cd604	0.03829004
39	0x3d1dd139	0.03852961
40	0x3d42f528	0.04759708
41	0xbc8b523f	-0.017006991
42	0x3d41ecc1	0.047344927
43	0xbd01c915	-0.031685907
44	0xbacf37d3	-0.0015809484
45	0x3c5be2a6	0.013420736
46	0xbd2b9a80	-0.04189539
47	0xbc896a00	-0.016774178
48	0xbcf9570d	-0.030437017
49	0xbd10289f	-0.03519499
50	0xbaf7a6c4	-0.0018894305
51	0xbd19b53e	-0.03752636
52	0xbd0ab097	-0.033859815
53	0x3d3e0ed0	0.046400845
54	0xbd6df3e7	-0.05809393
55	0xbd253220	-0.040331006
56	0x3d6af7f5	0.057365377
57	0xbcb3f320	-0.021966517
58	0x3cf0bc41	0.029386641
59	0xbcd314dd	-0.025766784
60	0x3d1d55bf	0.038411852
61	0xbc0c588f	-0.008566036
62	0xbb16e3c7	-0.002302395
63	0x3d4dc4e3	0.050236594
64	0x39b429e2	0.0003436348
65	0xbd6b9414	-0.057514265
66	0x3d70fb4d	0.05883341
67	0x3d295a42	0.041345842
68	0x3d1b3563	0.03789271
69	0x3cf8495c	0.030308418
70	0x3d437483	0.047718536
71	0x3ce654a7	0.028116537
72	0x3cdd70e1	0.027031364
73	0x3b8cd662	0.0042980174
74	0xbcb5596e	-0.02213737
75	0xbc1c006e	-0.009521587
76	0xbd9a552c	-0.075357765
77	0xbd8b69b6	-0.06807272
78	0xbd2a3bc1	-0.041560892
79	0xbc1a2902	-0.009409191
80	0x3c723d23	0.014785084
81	0xbd8a2240	-0.06744814
82	0xbd750af0	-0.059824884
83	0x3d105380	0.03523588
84	0x3d00fc3e	0.031490557
85	0x3ccc2b87	0.0249231
86	0xbb7c018b	-0.0038453068
87	0xbd6bb763	-0.057547938
88	0x3cf43007	0.029808057
89	0x3c8d497f	0.01724696
90	0xbd0f32bc	-0.034960493
91	0xbc0733a6	-0.00825206
92	0x3d3f2c48	0.04667309
93	0xbbba4e86	-0.0056856303
94	0xbc0bc0f6	-0.008529892
95	0x3d354aa0	0.04426062
96	0xbd36aea7	-0.044600155
97	0x3d064904	0.032784477
98	0xbd40ab47	-0.047038343
99	0x3bb65488	0.005564276
100	0xbc1ec390	-0.00969018
101	0xbdb4e70c	-0.08833131
102	0xbc79d8ef	-0.015249475
103	0xbd83345b	-0.064064704
104	0x3b654178	0.003498165
105	0xbdb86888	-0.09004313
106	0xbd082125	-0.033234734
107	0x3c46e67b	0.012139912
108	0x3c4de992	0.0125678945
109	0xbcaff899	-0.021480845
110	0xbdccb96d	-0.09996305
111	0xbd159748	-0.036521226
112	0xbd823493	-0.06357684
113	0xbdb2ff0b	-0.08740052
114	0x3d30006b	0.04296915
115	0x3d145a9d	0.036219228
116	0xbc901139	-0.017586337
117	0x3d2a5ad0	0.04159051
118	0xbcb66b79	-0.022268044
119	0xbcf1ae57	-0.029502077
120	0xbd64f390	-0.05589634
121	0xbd3670ce	-0.044541173
122	0x3cbf6f8a	0.023368616
123	0xbc898b80	-0.016790152
124	0xbcaacb9b	-0.02084904
125	0xbcad2eb6	-0.021140438
126	0xbde3e384	-0.111273795
127	0xbd27a852	-0.040932007
128	0x3c51c8b3	0.012804198
129	0xbd83df33	-0.06439056
130	0xbdc80af0	-0.09767711
131	0xbd79358d	-0.060842086
132	0xbc1c4c2e	-0.009539647
133	0xbd940db3	-0.072291754
134	0x3bb18bdc	0.005418284
135	0x3c1b23ec	0.009469014
136	0x3c2fe18d	0.010734928
137	0xbbcf844b	-0.006332909
138	0xbd8bcf75	-0.06826679
139	0x3c8149b6	0.015782218
140	0xbc93f8ab	-0.01806291
141	0x3d3e25f0	0.0464229
142	0x3b17e602	0.0023177867
143	0xbd73ffa4	-0.05956997
144	0xbc5cc62e	-0.013474984
145	0xbd874338	-0.06604618
146	0xbcb15bd9	-0.021650242
147	0xbbe0d3e0	-0.006861195
148	0x3cd5429c	0.026032738
149	0x3c104e8f	0.008807792
150	0x3be866d1	0.007092335
151	0xbd12e872	-0.03586621
152	0xbd8816e4	-0.06644991
153	0x3c0e1d9d	0.008674053
154	0x3cd7161f	0.026255665
155	0xbb2b1ec2	-0.0026110862
156	0x3d509b9d	0.050929654
157	0x3b018585	0.0019763422
158	0x3d88bc0e	0.066764936
159	0xbcb6d4e7	-0.022318317
160	0x3cd1db97	0.025617404
161	0xbd31a20b	-0.043367427
162	0x3cc7d69a	0.024394322
163	0xbcfdf471	-0.031000348
164	0x3cf409ed	0.02978989
165	0x3d40355e	0.046925895
166	0x3cf06797	0.02934627
167	0xbd16095a	-0.036630012
168	0x3d70de20	0.058805585
169	0xbd8571e4	-0.065158635
170	0x3c0168fc	0.007898565
171	0xbd47f110	-0.04881388
172	0xbd35d9e1	-0.04439724
173	0xba886ea7	-0.0010408954
174	0x3d0d5bd2	0.034511395
175	0xbcf292e8	-0.029611066
176	0xbd4e2400	-0.0503273
177	0xbdb7cf7c	-0.089751214
178	0xbb1bf243	-0.0023795522
179	0xbd8c24f7	-0.06842988
180	0xbd760bd2	-0.060069866
181	0xbd0ce015	-0.03439339
182	0xbdc6e588	-0.09711748
183	0x3c5307f5	0.012880315
184	0xbd50ec38	-0.051006526
185	0xbd3bdd6b	-0.045865458
186	0xbd7606db	-0.06006513
187	0xbbce6961	-0.0062991832
188	0xbd05f334	-0.03270264
189	0xbcb47aa6	-0.02203114
190	0x3c3b1aef	0.011419996
191	0xbcb6596b	-0.022259435
192	0xbd608db9	-0.054822657
193	0xbcc3d040	-0.023903012
194	0xbd128295	-0.035769064
195	0xbc0850ae	-0.008320017
196	0x3c3177f6	0.010831824
197	0xbcc41c6a	-0.02393933
198	0x3ce4c17e	0.027924296
199	0x3ce7f8b1	0.028316827
200	0xbd9be68f	-0.07612335
201	0xbd6a15ca	-0.057149686
202	0x3d63f9c3	0.055658113
203	0xbc870dcc	-0.016486071
204	0x3cc06cf7	0.023489458
205	0xbd405065	-0.04695167
206	0xb9fe6bdb	-0.00048527014
207	0x3c9e84d2	0.019350443
208	0xbd0b7bd0	-0.034053624
209	0xbd58ad0d	-0.05289941
210	0xbd11a68b	-0.03555922
211	0xbd239cd3	-0.03994448
212	0xbd9b5d01	-0.075860985
213	0xbb98f00f	-0.004667289
214	0xbd756745	-0.05991294
215	0xbdb3d98b	-0.087817274
216	0xbd28a168	-0.041169554
217	0x3b5e6634	0.003393543
218	0xbd4ebf88	-0.050475627
219	0x3d4936f4	0.049124673
220	0xbd469cbb	-0.048489314
221	0xbd7d236a	-0.06180135
222	0xbc81102e	-0.015754785
223	0xbc75c8ba	-0.01500147
224	0x3d47394e	0.048638634
225	0xbd1d69d9	-0.038431022
226	0xbd35d231	-0.044389907
227	0x3d16c453	0.036808323
228	0xbcf13be1	-0.029447498
229	0x3b9366da	0.004498345
230	0x3c6a6ef8	0.014308684
231	0x3b73f21c	0.0037223166
232	0x3d0b43ca	0.034000196
233	0xbc5db54f	-0.013531997
234	0x3bc6fdf2	0.006072753
235	0xbd3c480f	-0.045967158
236	0xbd5a1b56	-0.053248726
237	0xbd672917	-0.05643567
238	0x3d049831	0.032371704
239	0x3c9c8366	0.019105624
240	0xbd176a19	-0.036966417
241	0xbd684936	-0.056710444
242	0x3c780aaa	0.015139261
243	0x3cf6a8a5	0.030109713
244	0xbd3297d3	-0.043601822
245	0x3a99c564	0.0011731801
246	0xbce648fe	-0.028110977
247	0xbbf73629	-0.007544298
248	0x3d1d05e2	0.03833569
249	0x3c25cfbc	0.0101203285
250	0x3c5804cd	0.013184738
251	0x3a6a2bf3	0.00089329405
252	0xbc45b94b	-0.012068103
253	0x3d70562b	0.058675926
254	0x3d1ced2c	0.038312122
255	0x3b8d841b	0.0043187267

bn2.running_mean f4 [4]
0	0xbfb8bd5a	-1.4432786
1	0xbfe20459	-1.7657577
2	0x4021fca6	2.5310454
3	0xbfc2a94d	-1.5207916

bn2.running_var f4 [4]
0	0x404c74e2	3.194634
1	0x405cff25	3.4530728
2	0x40bc31c9	5.8810773
3	0x4048e611	3.1390421

fc1.weight f4 [32, 196]
0	0x3d3d1d10	0.046170294
1	0x3c74c6e5	0.014939998
2	0x3d43bbbf	0.04778647
3	0xbc206bf8	-0.009791367
4	0x3c4d31e4	0.012524102
5	0x3cafe733	0.021472549
6	0xbbb7d3ce	-0.005609966
7	0xbc1c6728	-0.009546079
8	0x3da3a907	0.07991224
9	0xbcb0fd68	-0.021605209
10	0xbd26a9ec	-0.040689394
11	0xbcb6b384	-0.022302397
12	0xbc948b55	-0.018132845
13	0xbcf41c5e	-0.029798683
14	0x3c8ae198	0.016953275
15	0xbd38f6d1	-0.045157257
16	0x3b25103b	0.0025186676
17	0x3d202096	0.039093576
18	0x3c97a8b0	0.018513054
19	0xbc92f2cc	-0.01793804
20	0x3bf8c850	0.0075922385
21	0x3cc8d425	0.02451522
22	0x3d35d25d	0.04439007
23	0xbd4304fd	-0.04761218
24	0xbb2c4ba1	-0.0026290196
25	0x3babb9df	0.0052406634
26	0x3d01c6cb	0.031683724
27	0x3d039359	0.032122944
28	0xbbd98559	-0.0066382107
29	0x3bd20bff	0.0064101215
30	0x3cffe55e	0.0312373
31	0x3d5c9aa9	0.053858433
32	0xbc2383fc	-0.009980198
33	0x3d587c08	0.05285266
34	0x3d8348fb	0.06410404
35	0xbd0e8f65	-0.03480472
36	0x3a4dad83	0.00078459847
37	0xbd4bf25c	-0.04979168
38	0x3cc94824	0.024570532
39	0xbd11a2c7	-0.035555627
40	0x3d1fc916	0.03901013
41	0xbd0d7fd8	-0.03454575
42	0x3bd968ce	0.006634808
43	0xbd8443f6	-0.06458275
44	0xbcd7144e	-0.0262548
45	0xbba63403	-0.0050721182
46	0x3c86fd50	0.01647821
47	0xb94879d9	-0.00019118878
48	0x3d96120b	0.0732766
49	0x3c9fad75	0.01949189
50	0xbd01a408	-0.031650573
51	0xbb96adde	-0.0045983633
52	0x3d6c6149	0.057709966
53	0x3d012432	0.03152866
54	0x3d8db9c8	0.069202006
55	0x3d7ac35a	0.061221458
56	0xbce0b272	-0.02742884
57	0x3ceed889	0.029155986
58	0xbb4a7f3f	-0.0030898598
59	0xbd5a00dc	-0.053223476
60	0x3c4b1a4e	0.012396408
61	0xbd042931	-0.032265846
62	0xbc8ada03	-0.01694966
63	0xbbd9de16	-0.006648789
64	0xbd5ae638	-0.05344221
65	0x3d2a0c9f	0.041515943
66	0xbd7c4ad3	-0.061594795
67	0x3d06bcfa	0.032895066
68	0xbd0584d4	-0.032597378
69	0xbca1202b	-0.01966866
70	0x3d3847c5	0.04499032
71	0xbcc5c0b0	-0.024139732
72	0x3cb9ac9a	0.02266531
73	0xbd334b7f	-0.04377317
74	0x3a355780	0.00069176406
75	0x3d131f19	0.03591833
76	0xbd21f120	-0.039536595
77	0xbd017d73	-0.03161378
78	0x3c6e3b7d	0.01454055
79	0x3d313a8d	0.04326873
80	0xbc0a72e0	-0.00845024
81	0x39b6103c	0.0003472584
82	0x3ca5af97	0.02022533
83	0xbd598ab6	-0.0531108
84	0xbd52dcfe	-0.051480286
85	0x3d1e935a	0.038714744
86	0x3d0cab2f	0.03434294
87	0xbd2637de	-0.040580623
88	0xbc930799	-0.017947959
89	0xbb85bdc9	-0.004081462
90	0x3d1c5b9d	0.038173307
91	0xbc835297	-0.016030593
92	0xbc885c13	-0.016645467
93	0x3ce26307	0.02763511
94	0xbd64acf5	-0.055829007
95	0xbbb4e0d4	-0.0055199657
96	0x3b3a5f9a	0.002843833
97	0xbcc5e302	-0.024156097
98	0xbd2ef91a	-0.04271803
99	0x3cc850ab	0.024452528
100	0x3cb140b2	0.021637294
101	0x3cd4f263	0.025994485
102	0x3cb3ce58	0.021948978
103	0xbaada9f8	-0.0013249507
104	0x3c52e43d	0.012871799
105	0x3d5525b9	0.05203793
106	0xbd4f4313	-0.050601076
107	0x3d23989f	0.039940473
108	0xbd1075e3	-0.035268676
109	0x3abaa56e	0.0014239976
110	0x3d116698	0.03549823
111	0x3d68147d	0.056660164
112	0xbc2795f1	-0.01022862
113	0xbb28751a	-0.0025704564
114	0xbcea5155	-0.028603235
115	0xbcaab2bf	-0.020837186
116	0x3c110085	0.0088502215
117	0xbc2603f8	-0.010132782
118	0xbcafff1f	-0.021483956
119	0x3a97193b	0.0011527905
120	0x3c392297	0.011299751
121	0x3c3d9089	0.011570104
122	0xbc8f1192	-0.017464433
123	0x3d1ac1a7	0.037782338
124	0xbd2fbfb1	-0.04290742
125	0xbd866abd	-0.065633275
126	0x3d063faa	0.03277556
127	0xbb4a4e6e	-0.0030869502
128	0x3cbf3f52	0.023345623
129	0x3d3a711b	0.045518022
130	0xbcc9a50f	-0.024614839
131	0x3ce0c8cc	0.027439497
132	0x3b111f07	0.0022143738
133	0xbc663ae9	-0.014052131
134	0xbcc078d2	-0.023495112
135	0xbceee3b4	-0.029161312
136	0xbd301992	-0.042993136
137	0xbc55c383	-0.013047102
138	0xbb76ffcc	-0.0037689088
139	0x3cf35769	0.029704766
140	0xbcda698d	-0.026661659
141	0xbb2a7458	-0.0026009288
142	0x3d62f672	0.05541081
143	0xbcdb9115	-0.026802579
144	0x3cb4109d	0.021980578
145	0x3d3bd5ad	0.045858074
146	0xbd8274ce	-0.06369935
147	0xb9fed06c	-0.00048601942
148	0xbd241672	-0.040060468
149	0x3d36d967	0.044640925
150	0x3d81ef0b	0.06344422
151	0x3d69be69	0.057066355
152	0xbd2749cb	-0.04084186
153	0xbd132988	-0.03592828
154	0xbd99665b	-0.07490226
155	0x3cf07f0c	0.029357456
156	0xbbf695d6	-0.007525186
157	0xbc6c6f4a	-0.01443083
158	0x3be5a6ba	0.0070084007
159	0xbcb25341	-0.021768214
160	0x3d72a84b	0.059242528
161	0x3d87a2f3	0.06622877
162	0x3d268b13	0.040659975
163	0x3d02017e	0.031739704
164	0xbd721fbf	-0.059112307
165	0xbc52084f	-0.012819364
166	0x3d298a26	0.041391514
167	0xbceb7ad2	-0.028745089
168	0xbd5d86ee	-0.054083757
169	0xbd1ba436	-0.0379984
170	0x3bbf93df	0.005846485
171	0x3cd35722	0.025798384
172	0xbd19d6a3	-0.03755821
173	0xbca38681	-0.019961597
174	0x3d96b669	0.07359011
175	0x3d2e794a	0.04259614
176	0x3cd065ce	0.02543917
177	0xbd23dd72	-0.04000611
178	0x3b785592	0.00378928
179	0x3c85dea9	0.016341524
180	0xbdbe1031	-0.09280432
181	0xbd0460f5	-0.032319028
182	0x3d129203	0.03578378
183	0xbc984c03	-0.018590933
184	0x3c14d8d0	0.009084895
185	0xbb806b77	-0.003919061
186	0x3c20fb3b	0.009825523
187	0xbd4b9b2d	-0.049708534
188	0x3d9b96f2	0.0759715
189	0x3d54f953	0.051995587
190	0x3cac0c55	0.021001974
191	0x3c62ab25	0.013834749
192	0xbc55d200	-0.013050556
193	0xbb31ad53	-0.0027111366
194	0x3d20555b	0.0391439
195	0x3d5da194	0.05410917
196	0x3d3a86e8	0.045538813
197	0x3d1cfe42	0.038328417
198	0x3d35a330	0.04434508
199	0xbc00867d	-0.0078445645
200	0x3d1ed65c	0.038778648
201	0xbd55fdfc	-0.05224417
202	0xbd1d0efe	-0.038344376
203	0xbd8e4d50	-0.0694834
204	0x3d83781f	0.06419396
205	0xbcd7e02f	-0.026352016
206	0x3d0661f7	0.03280827
207	0xbd2c25d1	-0.042028252
208	0xbd907d73	-0.070551775
209	0x3d793ff1	0.060851995
210	0x3d6d1c58	0.05788836
211	0x398e0808	0.00027090334
212	0x3d4c7c35	0.04992314
213	0x3b8c4a4f	0.004281319
214	0xbb98732b	-0.004652401
215	0xbd2a55ea	-0.04158584
216	0xbcf6f288	-0.030144945
217	0xbd396be7	-0.04526892
218	0x3d63d390	0.055621684
219	0xbcb1d65c	-0.02170866
220	0xbd122fac	-0.035689995
221	0x3cb93d9e	0.02261239
222	0x3d8a406d	0.067505695
223	0x3d504bb5	0.05085345
224	0xbd600927	-0.05469623
225	0x3c827b4e	0.015927937
226	0xbccd7d25	-0.025084088
227	0xbb98cf7e	-0.004663407
228	0xbd59b0fb	-0.053147297
229	0xbd3f5913	-0.046715807
230	0xbd579380	-0.0526309
231	0xbd091b75	-0.03347345
232	0x3d21657f	0.039403435
233	0xbc02bfa5	-0.007980262
234	0x3bf62ff2	0.0075130397
235	0x3c172db4	0.009227205
236	0xbc08fc88	-0.008360989
237	0x3d533820	0.051567197
238	0x3d7483ed	0.059696127
239	0x3ac07731	0.0014683959
240	0x3bd4fa6f	0.0064995806
241	0xb9749359	-0.00023324545
242	0xbc390a35	-0.011293937
243	0x3d4116f6	0.047141038
244	0xbd49f5eb	-0.04930679
245	0x3c9dab41	0.0192467
246	0xbd4619cc	-0.048364446
247	0xbce76e4f	-0.028250841
248	0x3c9d358c	0.019190572
249	0xbb2245b6	-0.002476079
250	0x3c841a24	0.016125746
251	0xbd8fa8bc	-0.070146054
252	0x3bdbcc93	0.0067077368
253	0x3cde7a21	0.027157845
254	0xbd6e803c	-0.058227763
255	0xbc77f48a	-0.015133986

conv1.weight f4 [8, 1, 5, 5]
0	0xbe0423a6	-0.12904224
1	0x3d77a572	0.060460515
2	0x3e602526	0.21889171
3	0x3e3e47dc	0.185821
4	0x3de8001c	0.11328146
5	0xbdbc6029	-0.091980286
6	0x3dcbc415	0.09949509
7	0xbdd9dc40	-0.106377125
8	0x3d39052b	0.045170944
9	0x3e3a1bb9	0.18174638
10	0x3e4cd633	0.20003586
11	0xbd5f0432	-0.05444736
12	0x3e4a9bd6	0.19786009
13	0x3cdc68fe	0.026905533
14	0x3de23207	0.11044698
15	0xbdf9f72a	-0.12205346
16	0x3e2f1969	0.17099537
17	0x3d195027	0.037429955
18	0x3dd3fb6e	0.10350691
19	0x3dc2b911	0.09507955
20	0xbde6e91c	-0.11274931
21	0xbca62390	-0.02028063
22	0x3b437a12	0.0029827398
23	0xbe04abb4	-0.12956125
24	0xbd91b4bd	-0.07114551
25	0x3e02b759	0.12765254
26	0xbd0836cd	-0.033255387
27	0xbdc18b90	-0.094504476
28	0x3e514193	0.20435171
29	0xbd51695f	-0.05112588
30	0xbd92c834	-0.07167092
31	0x3e2fc82d	0.17166205
32	0x3d9e1466	0.077187344
33	0x3dddcf1e	0.1083052
34	0xbe299fd6	-0.16564879
35	0x3da816d8	0.08207482
36	0x3d2ae3d9	0.0417212
37	0x3dfa0342	0.12207653
38	0x3d2e81cb	0.04260425
39	0xbdc5f8a8	-0.09666568
40	0xbe33dee3	-0.17565493
41	0x3dfd2c7c	0.12362
42	0xbdb93188	-0.090426505
43	0xbc87b400	-0.016565323
44	0x3e0b9e1d	0.13634534
45	0x3d798bd8	0.06092438
46	0xbe2c3dd1	-0.16820456
47	0xbde94045	-0.113892116
48	0xbc550585	-0.013001804
49	0xbcf1fbed	-0.029539073
50	0xbd7a81a0	-0.061158776
51	0xbd2cdb48	-0.04220131
52	0x3df5455c	0.1197612
53	0xbd2d81ef	-0.042360242
54	0xbe4741f3	-0.19458751
55	0x3dad2deb	0.08456024
56	0xbe1c2eac	-0.15252179
57	0xbd12d866	-0.035850905
58	0xbe1b7160	-0.15179968
59	0x3deafe13	0.11474242
60	0xbe0995f7	-0.13436113
61	0x3d67a9f6	0.05655857
62	0xbc3fe0fe	-0.011711357
63	0x3e3d0698	0.18459547
64	0xbddffd5d	-0.10936997
65	0x3e3c452f	0.18385766
66	0xbe321e21	-0.17394306
67	0x3e073889	0.1320516
68	0xbdcfb88d	-0.10142622
69	0xbd3b67cd	-0.04575329
70	0x3d5c0c04	0.053722396
71	0x3d8bd9b8	0.06828636
72	0x3e485696	0.1956428
73	0x3df081e9	0.117435284
74	0xbd575cb6	-0.05257865
75	0x3dfbba87	0.12291437
76	0x3d899665	0.067181386
77	0x3e43153e	0.19051072
78	0x3e3a3d55	0.18187459
79	0xbe2ac83a	-0.16677943
80	0x3bb8aa69	0.005635549
81	0x3e0571ec	0.13031739
82	0x3b6a236a	0.0035726675
83	0xbe1f5acd	-0.15561981
84	0x3adce893	0.001685398
85	0xbd3743a4	-0.04474224
86	0x3da6ec0c	0.08150491
87	0x3da415c2	0.080119625
88	0x3e043e61	0.1291442
89	0x3e0b0fc6	0.13580236
90	0x3cc91914	0.024548091
91	0x3e4bf095	0.19915994
92	0xbd7a3c3f	-0.06109261
93	0x3c829bca	0.015943427
94	0x3e322165	0.17395552
95	0xbdbbc07d	-0.091675736
96	0x3d5158b3	0.05110998
97	0xbd2ace91	-0.041700903
98	0x3e02162b	0.12703769
99	0x3d2625a1	0.04056323
100	0x3df49b04	0.119436294
101	0x3d427189	0.047471557
102	0x3e502c4f	0.20329402
103	0x3bbd9c6c	0.005786469
104	0x3d400eb8	0.046889037
105	0xbd43c6ab	-0.047796886
106	0xbdd33218	-0.10312289
107	0x3e091b0c	0.13389224
108	0x3e043cef	0.1291387
109	0x3e3dd496	0.18538126
110	0x3e25ec89	0.16203512
111	0x3d63e596	0.055638872
112	0x3cd44d49	0.025915759
113	0x3e188412	0.14894131
114	0x3d0fa903	0.03507329
115	0x3da0bdd3	0.07848706
116	0x3bfd0740	0.0077218115
117	0x3e152b56	0.14567313
118	0x3d04d875	0.032432992
119	0xbe36f4fd	-0.17866893
120	0x3d9c3fb1	0.07629336
121	0xbcd0f43e	-0.025507089
122	0x3e284813	0.16433744
123	0x3c9f9247	0.01947893
124	0x3ad3f6b3	0.0016171545
125	0x3e05e0c0	0.13074017
126	0x3caba95f	0.020954786
127	0xbe0dcdb4	-0.13848001
128	0x3d219f74	0.039458707
129	0x3e29659e	0.1654267
130	0x3c6abe72	0.014327632
131	0x3df147f5	0.11781303
132	0x3e476e03	0.1947556
133	0xbd4f7ea8	-0.0506579
134	0x3d7ab029	0.061203156
135	0xbdd1d9de	-0.10246633
136	0x3cec7940	0.02886641
137	0xbd2069ec	-0.039163515
138	0x3cf5b732	0.02999458
139	0x3e226c57	0.15861641
140	0x3d853f21	0.065061815
141	0x3d99f459	0.07517309
142	0x3dcd773f	0.1003251
143	0xbd52cb70	-0.051463544
144	0x3db0a8e8	0.08625966
145	0x3d020baf	0.031749424
146	0x3cc9af44	0.024619706
147	0xbc4e5f8c	-0.012596022
148	0x3e1338b2	0.14377096
149	0xbe12cf1b	-0.14336817
150	0x3def7b3d	0.11693428
151	0xbe4557fc	-0.19271845
152	0xbd761a64	-0.06008376
153	0x3df60e24	0.12014416
154	0xbdd9d2a0	-0.10635877
155	0xbdcc451e	-0.099741206
156	0xbb7ca191	-0.003854845
157	0xbd6aa67f	-0.05728769
158	0xbe328543	-0.17433648
159	0x3cd50c0b	0.02600672
160	0x3c6f15ea	0.014592627
161	0x3c989734	0.018626787
162	0x3cd0b41b	0.025476506
163	0x3dfef74c	0.12449512
164	0xbe48851f	-0.19582032
165	0xbd45ddfd	-0.048307408
166	0x3dc76d73	0.09737673
167	0xbe20ec80	-0.15715218
168	0x3d8e5b95	0.06951062
169	0xbcf7d176	-0.030251246
170	0x3dfb0210	0.12256253
171	0x3cc5b12f	0.02413234
172	0x3e4c8990	0.19974351
173	0x3dfe0ac9	0.12404401
174	0x3d9a66e5	0.07539157
175	0x3db106de	0.08643888
176	0x3db2954b	0.087198816
177	0x3cd38fa5	0.025825331
178	0x3d839b2c	0.06426081
179	0x3d04bc63	0.032406222
180	0xbdfb2a26	-0.122638986
181	0xbdf3ad7f	-0.11898326
182	0x3d9f1eba	0.077695325
183	0x3d4602d9	0.04834256
184	0x3d8b7fdb	0.06811496
185	0xbdd9de77	-0.10638135
186	0xbd2bd2dc	-0.041949138
187	0x3d26925b	0.04066692
188	0xbba6d16b	-0.0050908825
189	0x3e37b31c	0.17939419
190	0x3dcad201	0.09903336
191	0x3d3df5d7	0.04637703
192	0xbdfcbf73	-0.123412035
193	0x3e0128ee	0.1261327
194	0xbd915474	-0.07096186
195	0xbd57fb5f	-0.05272996
196	0x3e10db28	0.14146101
197	0x3d7f9c70	0.06240505
198	0xbe03120e	-0.12799856
199	0x3e428432	0.18995741

bn1.running_mean f4 [8]
0	0x3d65c90d	0.05609994
1	0x3c23861b	0.009980704
2	0x3966a671	0.00021996514
3	0x3d87bee8	0.06628209
4	0x3da63d8d	0.08117209
5	0x3d564ab9	0.052317355
6	0x3adf71eb	0.00170475
7	0x3d080d9e	0.03321611

bn1.running_var f4 [8]
0	0x3c13354e	0.008984877
1	0x3b119119	0.002221173
2	0x3b0b949a	0.002129829
3	0x3c015e46	0.007896012
4	0x3c3ae7d6	0.011407813
5	0x3b982744	0.0046433527
6	0x3b3427f0	0.0027489625
7	0x3b266739	0.0025391115

conv2.weight f4 [4, 8, 5, 5]
0	0xbcba74bf	-0.022760747
1	0xbcd2add6	-0.025717657
2	0xbcebd48b	-0.028787872
3	0x3c0dcc33	0.008654642
4	0x3d1773d3	0.036975693
5	0x3d334815	0.043769915
6	0xbdb28cf7	-0.08718293
7	0xba2edc64	-0.0006670414
8	0xbd978ef6	-0.074003145
9	0x3cfadeca	0.030623812
10	0xbb0eff6f	-0.002181973
11	0xbd9d014c	-0.07666263
12	0x3cff6ba6	0.03117926
13	0xbb354e33	-0.0027665019
14	0xbc51b252	-0.0127988625
15	0x3c9ea16a	0.019364078
16	0xbc5390cf	-0.012912943
17	0x3c7c9bd3	0.015418011
18	0xbce1fb29	-0.027585583
19	0xbd3f1274	-0.046648458
20	0x3d148924	0.0362636
21	0xbd367cf3	-0.044552755
22	0x3d260977	0.04053637
23	0x3cd5860f	0.0260649
24	0x3d748adb	0.059702735
25	0xbd738c1e	-0.059459798
26	0xbd05ac49	-0.032635007
27	0xbdb29d30	-0.087213874
28	0xbcccc50b	-0.024996301
29	0xbd91f864	-0.07127455
30	0x3c3ddd91	0.01158847
31	0x3bc44be0	0.0059904903
32	0x3cfaccb1	0.030615183
33	0xbda4e041	-0.080505855
34	0xbb8eff5c	-0.0043639373
35	0x3cf90a60	0.030400455
36	0xbce6e357	-0.028184576
37	0xbd4311bd	-0.04762434
38	0x3d52eb37	0.05149385
39	0x3d3c7d24	0.04601778
40	0x3d521eb0	0.051298797
41	0xbc90d65c	-0.01768034
42	0x3d2e47cc	0.04254894
43	0xbd5fd8c1	-0.054650072
44	0xbc0a48ec	-0.0084402375
45	0x3cbe4128	0.023224428
46	0xbd8f49de	-0.06996511
47	0xbd2ec392	-0.04266698
48	0xbd6d654c	-0.057957932
49	0xbd7e7813	-0.06212623
50	0x3c16d5ad	0.009206218
51	0xbbaad6bf	-0.005213588
52	0xbc5f36aa	-0.013623873
53	0x3d589a45	0.052881498
54	0xbd764217	-0.060121622
55	0xbd300cea	-0.042981066
56	0x3d67c70d	0.056586314
57	0xbd12280e	-0.03568273
58	0x3c68a95a	0.014200533
59	0xbd1f2b72	-0.038859792
60	0x3ccae15c	0.024765663
61	0xbcf12c12	-0.02943996
62	0xbc38ae8d	-0.011272085
63	0x3d39e93f	0.045388456
64	0xbc867f65	-0.016418168
65	0xbd99f813	-0.075180195
66	0x3d360113	0.04443462
67	0x3d393c75	0.045223672
68	0x3d68a6bb	0.05679963
69	0x3ce7f946	0.028317105
70	0x3d2f33df	0.042774078
71	0x3cbd35e9	0.023096995
72	0x3d08d387	0.033404853
73	0x3c85996a	0.016308505
74	0xbbc1a001	-0.0059089665
75	0x3bb14014	0.00540925
76	0xbd47315b	-0.048631053
77	0xbd34914f	-0.04408389
78	0xbd165c28	-0.03670898
79	0x3ad00698	0.0015871106
80	0x3c88c321	0.016694607
81	0xbd52fe02	-0.051511772
82	0xbd0724ba	-0.03299401
83	0x3d4da118	0.05020246
84	0x3d4c0a67	0.049814608
85	0x3cfd450e	0.030916717
86	0x3ad2408f	0.0016040968
87	0xbd348391	-0.044070784
88	0x3cf039ce	0.029324438
89	0x3ca74a05	0.020421037
90	0xbd23325a	-0.03984294
91	0xbc8f7687	-0.017512573
92	0x3d434550	0.047673523
93	0xbbb33584	-0.005469026
94	0xbb821c5b	-0.0039706654
95	0x3d727526	0.059193753
96	0xbd63776f	-0.055533823
97	0x3d4db555	0.05022176
98	0xbcf28373	-0.029603695
99	0x3cfc01f8	0.030762658
100	0xbc1b5c3d	-0.009482441
101	0xbd803b12	-0.06261267
102	0x3c3ffead	0.011718434
103	0xbd173c2f	-0.03692263
104	0xb9fc38f8	-0.0004810763
105	0xbd96a3b4	-0.07355443
106	0x3b0cb3bd	0.0021469437
107	0x3d142128	0.036164433
108	0x3ca21a1d	0.019787842
109	0xbc649c08	-0.013953216
110	0xbda9555f	-0.08268236
111	0xba69e9c2	-0.0008923077
112	0xbcb5480d	-0.022129083
113	0xbd9fb09d	-0.07797358
114	0x3d75fa92	0.060053416
115	0x3d5918b3	0.05300207
116	0xbcba0cb7	-0.022711141
117	0x3d1bb42b	0.03801362
118	0xbca45efe	-0.020064827
119	0xbcf47fc2	-0.029846076
120	0xbd821d0e	-0.06353198
121	0xbd5583da	-0.052127697
122	0x3d03f5e8	0.032216936
123	0x3b29b2a8	0.002589384
124	0xbb88045b	-0.00415091
125	0xbccaedc0	-0.024771571
126	0xbdb0a1a7	-0.08624583
127	0xbc8a1ff7	-0.016860945
128	0x3cf5e6b4	0.030017234
129	0xbd7f52c7	-0.062334802
130	0xbd9a9d61	-0.07549549
131	0xbcf46dd4	-0.029837526
132	0x3c882179	0.016617524
133	0xbd81838b	-0.06323918
134	0x3ca04778	0.019565329
135	0x3d325f9c	0.04354821
136	0x3d057121	0.03257859
137	0x3ad0f5ca	0.0015942391
138	0xbd8423ab	-0.064521156
139	0x3d0da0fe	0.034577362
140	0xbcafbd8c	-0.021452688
141	0x3d2a3e25	0.041563172
142	0x3aaa848b	0.0013009472
143	0xbd8539b8	-0.065051496
144	0xbc1b9b5e	-0.009497492
145	0xbd833114	-0.06405845
146	0xbd02da07	-0.03194621
147	0x3b3077a9	0.0026926792
148	0x3d331dd0	0.043729603
149	0x3cff8e1b	0.03119569
150	0x3cee9ec6	0.029128443
151	0xbb1a164b	-0.0023511823
152	0xbd5b9734	-0.053610995
153	0x3c305312	0.010761993
154	0x3d10ebac	0.035381004
155	0xbbda283e	-0.0066576293
156	0x3d32462b	0.04352395
157	0xbc42ea73	-0.011896717
158	0x3d51315e	0.05107247
159	0xbd222bed	-0.039592672
160	0x3c4f037a	0.012635106
161	0xbd7a5a66	-0.061121367
162	0x3c6af51b	0.014340664
163	0xbd2ac971	-0.041696016
164	0x3bf1c0f7	0.0073777395
165	0x3d036792	0.032081194
166	0x3c84534b	0.016152998
167	0xbccb4d5f	-0.024817167
168	0x3d927389	0.07150943
169	0xbd809001	-0.062774666
170	0x3b9f69ea	0.004864921
171	0xbd5684ba	-0.05237267
172	0xbd479331	-0.048724357
173	0x3c3c62e1	0.011498184
174	0x3d76f64a	0.060293473
175	0xbbf76be5	-0.007550704
176	0xbcb7c445	-0.022432456
177	0xbd7de550	-0.061986268
178	0xbb767a58	-0.0037609544
179	0xbd4dac85	-0.050213356
180	0xbd142d70	-0.036176145
181	0xb972da08	-0.00023160141
182	0xbd8fc39d	-0.07019732
183	0x3c5577ae	0.013029022
184	0xbd1e9b09	-0.03872207
185	0xbd2329fc	-0.03983496
186	0xbd895a65	-0.067066945
187	0x3ccf6bdc	0.025319986
188	0xbcb1be0b	-0.021697065
189	0xbba3d403	-0.004999639
190	0x3c6f08fd	0.014589545
191	0xbcab196d	-0.020886147
192	0xbd2d78ad	-0.042351414
193	0xbc844038	-0.016143903
194	0xbcd0070a	-0.025393981
195	0xbc82d6b5	-0.01597152
196	0x3c3b5dda	0.01143595
197	0x3a927349	0.0011173274
198	0x3d35ec4a	0.044414796
199	0x3d5e861b	0.05432711
200	0xbd65669a	-0.05600605
201	0xbd3964b3	-0.04526205
202	0x3d995668	0.07487184
203	0xbc045528	-0.008076943
204	0x3b9ebe67	0.004844475
205	0xbd0f5667	-0.03499451
206	0x3c27acf4	0.010234106
207	0x3cc2faef	0.023801295
208	0xbd35a095	-0.044342596
209	0xbd8fda75	-0.07024089
210	0xbcf2754f	-0.029596953
211	0xbcaf3662	-0.021388236
212	0xbd669837	-0.056297507
213	0x3c5d815e	0.013519613
214	0xbd9596e0	-0.07304168
215	0xbd9a2c71	-0.07528008
216	0xbc051398	-0.008122347
217	0x3cc8849a	0.024477292
218	0xbd482383	-0.04886199
219	0x3d2b94ff	0.04189014
220	0xbd264132	-0.04058952
221	0xbd5f012b	-0.054444473
222	0xbbb60541	-0.0055548255
223	0xbc3624e4	-0.011117194
224	0x3d15bc0c	0.03655629
225	0xbcd9c789	-0.026584404
226	0xbcf873d3	-0.030328667
227	0x3d5ccee3	0.05390824
228	0xbc86c4c2	-0.016451243
229	0xbc36ad06	-0.01114965
230	0x3d0febc6	0.03513696
231	0x3c879b12	0.016553435
232	0x3d39bcd6	0.045346104
233	0xbd2f8fc8	-0.04286173
234	0xb9539f9a	-0.00020181984
235	0xbd019deb	-0.031644743
236	0xbd4ab4d4	-0.049488857
237	0xbd563924	-0.052300587
238	0x3cfda14a	0.030960698
239	0x3c894bc3	0.016759759
240	0xbd9a3c8f	-0.07531082
241	0xbd322736	-0.043494426
242	0x3d296358	0.041354507
243	0x3d43e513	0.047825884
244	0xbd8cbda9	-0.06872112
245	0x3b800a71	0.0039074947
246	0xbd0bb853	-0.034111332
247	0x3c05c6cb	0.008165072
248	0x3d6f1c2f	0.058376487
249	0x3c75c896	0.015001437
250	0x3ce51e92	0.027968679
251	0x3bd476d5	0.0064838924
252	0xbd016dea	-0.031598963
253	0x3d743d83	0.059628975
254	0x3d0f8913	0.035042834
255	0xbcc53fec	-0.024078332

bn2.running_mean f4 [4]
0	0xbf4efc5f	-0.8085384
1	0xbf61375b	-0.8797509
2	0x3f88007f	1.0625151
3	0xbf96ef88	-1.1791849

bn2.running_var f4 [4]
0	0x3f8ff0f8	1.1245413
1	0x3f5c7d94	0.86129117
2	0x3fddd85a	1.733165
3	0x3fbddde7	1.4833344

fc1.weight f4 [32, 196]
0	0x3d14f3d1	0.036365334
1	0x3ba04638	0.004891183
2	0x3d33b068	0.043869406
3	0xbc17c69c	-0.009263661
4	0x3c7535f3	0.014966476
5	0x3ca4d862	0.02012271
6	0xbbe23543	-0.006903322
7	0xbb6cc4b7	-0.0036127993
8	0x3dc3d48a	0.09562023
9	0xbcfe3369	-0.031030374
10	0xbd9cdfa5	-0.07659844
11	0xbd4ce6df	-0.050024863
12	0xbd0f90ef	-0.03505033
13	0xbd01b155	-0.031663258
14	0x3cf6f479	0.03014587
15	0xbb367a57	-0.0027843916
16	0x3cc07ff1	0.023498507
17	0x3d5e9956	0.05434545
18	0x3c050305	0.008118396
19	0xbd3bdeeb	-0.045866888
20	0x3c0b98ac	0.0085202865
21	0x3cb07f85	0.021545181
22	0x3d203c41	0.039119963
23	0xbdbd9a4a	-0.09257944
24	0xbc363906	-0.011121994
25	0x3cea82bb	0.02862679
26	0x3d8902a4	0.06689957
27	0x3d04aa7d	0.032389153
28	0x3b5193ad	0.003197889
29	0x3ad3828b	0.0016136927
30	0x3cdc4e65	0.02689285
31	0x3d5a26dc	0.053259715
32	0xbc3385fc	-0.010957237
33	0x3d762ef6	0.06010338
34	0x3d81c695	0.06336705
35	0xbcbf304e	-0.023338463
36	0x3ced0bc5	0.028936276
37	0xbd7ea54e	-0.062169366
38	0x3cca6948	0.024708405
39	0x3aa335e8	0.0012451978
40	0xbaf428d2	-0.0018627888
41	0xbd1e012e	-0.038575344
42	0x396e411b	0.00022721702
43	0xbdbcfa19	-0.0922739
44	0xbc64e72f	-0.013971134
45	0xbc59c45b	-0.013291444
46	0xbd015887	-0.031578567
47	0x3bbda24b	0.005787169
48	0x3d952daf	0.07284104
49	0x3cd471d1	0.025933178
50	0xbc9728b5	-0.018452028
51	0xbc642e75	-0.013927092
52	0x3ccb974e	0.024852421
53	0x3affc5d9	0.0019513919
54	0x3d5f8396	0.05456885
55	0x3d749f48	0.059722215
56	0xbc3d58ba	-0.011556799
57	0x3d93beb4	0.07214108
58	0x3bbd0296	0.0057681305
59	0xbd019890	-0.031639636
60	0x3d0dee70	0.03465122
61	0xbd80f3fe	-0.06296538
62	0xbca35a8c	-0.019940637
63	0xbb22d059	-0.0024843423
64	0xbd50cf15	-0.05097874
65	0x3d2f8d67	0.04285946
66	0xbd963c53	-0.07335725
67	0x3d5fdd7a	0.054654576
68	0x3ab4f2ba	0.0013805248
69	0xbc735ac2	-0.014853181
70	0x3d4e9c34	0.050441936
71	0xbd07979e	-0.033103578
72	0x3d9caefb	0.076505624
73	0xbd566b49	-0.05234841
74	0x3bab4dc0	0.0052277744
75	0x3cc19985	0.023632774
76	0xbd3be04a	-0.045868196
77	0xbcca7232	-0.024712656
78	0x3d37cd76	0.044873677
79	0x3d212353	0.03934033
80	0xbc7894ca	-0.015172193
81	0x39441b6a	0.00018702229
82	0xbc745d95	-0.01491489
83	0xbd7063d6	-0.05868896
84	0xbd734f06	-0.059401534
85	0x3d01adad	0.03165977
86	0x3d3fc5c9	0.046819482
87	0xbd85271f	-0.065016024
88	0xbcfd37c9	-0.03091039
89	0x3b0a554f	0.0021107977
90	0x3d1b4a86	0.037912868
91	0xbca3bc1b	-0.019987157
92	0xbccc37c5	-0.024928937
93	0x3cec4001	0.028839113
94	0xbd6418dc	-0.05568777
95	0xbb5bd20c	-0.0033541946
96	0x3aebdda4	0.0017995131
97	0xbcd63445	-0.02614797
98	0xbd7ee57b	-0.06223057
99	0x3ad5bceb	0.0016306912
100	0x3d2f74a6	0.042835854
101	0x3d7a8116	0.061158262
102	0x3d5c447f	0.05377626
103	0x3d017ffd	0.0316162
104	0x3c667f5a	0.014068449
105	0x3d0f6de7	0.03501692
106	0xbdbc9900	-0.0920887
107	0x3d3cace4	0.04606332
108	0xbcaee206	-0.02134801
109	0x3c78f7fd	0.015195844
110	0x3d8b9201	0.068149574
111	0x3d61c021	0.05511487
112	0xbca5856a	-0.020205218
113	0xbd0f52b6	-0.03499099
114	0xbcb4683b	-0.022022357
115	0xbcc5960b	-0.024119398
116	0x3c035f6a	0.008018354
117	0xbceb6105	-0.028732786
118	0xbd019f21	-0.031645898
119	0xbb1f764b	-0.0024331983
120	0x3d7b38c3	0.06133343
121	0x3c2171cb	0.0098537905
122	0xbcf2eec8	-0.029654875
123	0x3d064934	0.032784656
124	0xbd83d23d	-0.06436584
125	0xbd48be05	-0.04900934
126	0xbc4ee756	-0.012628397
127	0xbcf77024	-0.03020484
128	0x3d0df4b2	0.034657188
129	0x3d3d27e0	0.046180606
130	0xbccaea7a	-0.02477001
131	0x3d036ba9	0.032085095
132	0x3d4fc0bb	0.05072091
133	0xbd71c9fb	-0.059030514
134	0xbd619f8b	-0.055083793
135	0xbd6549aa	-0.055978455
136	0xbd8b236f	-0.06793868
137	0xbcc4da09	-0.024029749
138	0xbbddff85	-0.006774845
139	0x3d3248d2	0.043526478
140	0xbc945655	-0.018107573
141	0x3ca451fe	0.020058628
142	0x3d778ea2	0.06043876
143	0xbd4a62a0	-0.049410462
144	0x3c072c5d	0.008250323
145	0x3b362b9a	0.0027796985
146	0xbd85f091	-0.06540025
147	0x3ae7e1ca	0.0017691192
148	0xbd2d956a	-0.04237882
149	0x3d1e3470	0.038624227
150	0x3d66496d	0.056222368
151	0x3d6707dd	0.056403983
152	0xbd24f3c7	-0.040271547
153	0xbd0e7213	-0.03477676
154	0xbd7e5a93	-0.062098097
155	0x3d82d5df	0.06388449
156	0x3c3d5356	0.011555513
157	0xbd5e6a6b	-0.054300707
158	0xbced9fa3	-0.029006785
159	0xbd269137	-0.04066583
160	0x3d6776c8	0.056509763
161	0x3d996432	0.07489814
162	0x3d9cc765	0.07655219
163	0x3d582055	0.05276521
164	0xbd56a042	-0.052398928
165	0x39f0843b	0.00045874887
166	0x3cc9a9a4	0.024617024
167	0xbce7536c	-0.02823802
168	0xbd5fa3db	-0.054599624
169	0xbd73e716	-0.059546553
170	0xbcd17267	-0.025567247
171	0xbaa72928	-0.0012753354
172	0xbc818720	-0.015811503
173	0x3b58d503	0.003308595
174	0x3d9a39dc	0.07530567
175	0x3d5cf5b3	0.053945255
176	0x3d28decb	0.041228097
177	0xbd5ebbb5	-0.05437823
178	0xbb9d2973	-0.004796201
179	0x3d23ea3c	0.040018305
180	0xbe0238ed	-0.12717028
181	0xbd132b42	-0.035929926
182	0x3d2dacd6	0.042401157
183	0xbc0430b5	-0.008068253
184	0x3c246e7f	0.01003611
185	0xbc753997	-0.014967344
186	0x3d09308c	0.033493564
187	0xbdc31089	-0.09524638
188	0x3d990701	0.07472039
189	0x3d46a279	0.04849479
190	0x3bfe69b0	0.007764064
191	0x3cb03d3d	0.021513576
192	0xbb270cdf	-0.002548985
193	0xbcf69a1f	-0.030102788
194	0x3d372cf1	0.044720594
195	0x3d5d4ff9	0.054031346
196	0x3d5328de	0.051552646
197	0x3d438418	0.047733396
198	0x3d595ce3	0.0530671
199	0xbb1e0de2	-0.0024117162
200	0x3d3715b3	0.04469843
201	0xbd4d698e	-0.050149493
202	0xbd0cec26	-0.034404896
203	0xbd894e35	-0.0670437
204	0x3d80b448	0.06284386
205	0xbd19ba42	-0.037531145
206	0x3d49765c	0.049185142
207	0xbd14609d	-0.03622495
208	0xbd91dc9a	-0.071221545
209	0x3d85e9a1	0.06538702
210	0x3d7fa870	0.062416494
211	0xbb8fb07c	-0.0043850522
212	0x3d6041d7	0.05475029
213	0x3d597404	0.053089157
214	0xbc3b134e	-0.011418177
215	0xbd839234	-0.064243704
216	0xbd025bde	-0.031825893
217	0xbd3baaae	-0.04581707
218	0x3d88cb70	0.066794276
219	0xbd0e1156	-0.0346845
220	0xbd6346db	-0.055487495
221	0x3cb8ed0c	0.02257397
222	0x3d8934ba	0.0669951
223	0x3d50d53e	0.050984614
224	0xbd8c7da9	-0.06859905
225	0xb99e24a0	-0.00030163396
226	0xbd33fb41	-0.043940786
227	0xbb6b538a	-0.0035907947
228	0xbcfd7e08	-0.030943885
229	0xbd8de5ef	-0.06928622
230	0xbd5b9e2a	-0.053617634
231	0xbd073d65	-0.033017535
232	0x3d78dc2b	0.060756844
233	0x3b2612ab	0.0025340717
234	0x3c80f194	0.015740193
235	0xbbafd3a7	-0.005365807
236	0xbb61171b	-0.0034346047
237	0x3d774bdc	0.06037508
238	0x3da88eae	0.08230339
239	0x3cf9de89	0.03050162
240	0x3d64d6fe	0.055869095
241	0xbd003bbf	-0.03130698
242	0xbcdd0771	-0.026981087
243	0x3d62291b	0.055214982
244	0xbd3198ac	-0.04335849
245	0x3cab970b	0.020946046
246	0xbd614333	-0.054995727
247	0xbd311e26	-0.043241642
248	0x3c8dbb23	0.017301148
249	0xbb8a0b6e	-0.0042127883
250	0x3ca461bd	0.020066136
251	0xbd8a313f	-0.06747674
252	0x3c0435df	0.0080694845
253	0x3cd03a7c	0.025418513
254	0xbd8a2bcd	-0.067466356
255	0x3d7c49fc	0.061593994

deconv1.weight f4 [2, 4, 5, 5]
0	0xbbff111c	-0.007784022
1	0x3c426b95	0.01186647
2	0x3d4ea63d	0.050451506
3	0x3cc33757	0.023830099
4	0x3db3efb7	0.08785956
5	0xbda1471f	-0.078748934
6	0xbd017708	-0.031607658
7	0x3cdd88d4	0.027042784
8	0xbd4fedb9	-0.05076382
9	0xbd9cd1cb	-0.07657202
10	0x3d75edf6	0.06004139
11	0xbc82fa71	-0.01598856
12	0x3c9eeae6	0.019399118
13	0x3dc0020c	0.093753904
14	0x3dae3741	0.085066326
15	0x3d81fd2b	0.06347116
16	0xbdada336	-0.08478396
17	0xbd9141ac	-0.07092604
18	0x3c891219	0.016732262
19	0xbd17a5dc	-0.03702341
20	0x3d1cb2a6	0.03825631
21	0x3c88edcb	0.016714951
22	0x3cf2b491	0.029627116
23	0xbd137adc	-0.03600584
24	0xbd299573	-0.04140229
25	0x3d885c72	0.066582575
26	0x3db68015	0.089111485
27	0xbc44bc49	-0.012007781
28	0x3d7cc3b4	0.061710075
29	0x3cd526ab	0.026019415
30	0x3cb90123	0.02258355
31	0xbcd2e1d2	-0.025742445
32	0x3db4d715	0.08830086
33	0x3cb62246	0.02223314
34	0xbb2ed258	-0.0026675668
35	0xbc27c944	-0.010240857
36	0xbd82d562	-0.06388356
37	0x3cffe722	0.031238142
38	0x3c401ac6	0.011725133
39	0x3d9208ca	0.07130583
40	0x3dc0426b	0.09387668
41	0xbd97678d	-0.073927976
42	0xbd553183	-0.05204917
43	0x3d1254c0	0.035725355
44	0x3dac21be	0.08404873
45	0x3ddb6721	0.1071303
46	0x3daf969c	0.08573648
47	0xbcabd94c	-0.020977639
48	0xbda0a125	-0.07843236
49	0xbda9ecbb	-0.08297106
50	0xbd6f9170	-0.05848831
51	0x3cbf7d01	0.023375036
52	0xbdb5f997	-0.08885496
53	0x3985481f	0.0002542147
54	0x3d5a1a06	0.053247474
55	0xbd45b6c3	-0.04827
56	0xbca66cf4	-0.020315625
57	0xbc69d4b3	-0.014271903
58	0x3d0416b2	0.032248206
59	0xbd06ed7f	-0.032941338
60	0xbd02e426	-0.03195586
61	0x3d316424	0.043308392
62	0xbc443b93	-0.011977094
63	0x3d3a892c	0.045540974
64	0x3d90dd53	0.07073464
65	0xbd7e3a4c	-0.062067315
66	0x3cdb25c4	0.026751406
67	0x3affbd68	0.0019511404
68	0xbd990cc8	-0.07473141
69	0x3bbecdaa	0.005822857
70	0x3b456c55	0.0030124385
71	0x3dcbb9de	0.09947561
72	0x3d76ba9a	0.06023655
73	0x3c4989dc	0.012300935
74	0x3d1284d9	0.035771225
75	0x3c182be0	0.009287804
76	0xbd4148e4	-0.047188655
77	0x3d412abb	0.04715989
78	0xbc969a9b	-0.018384269
79	0x3dc22012	0.09478773
80	0xbce2e5e3	-0.02769751
81	0xbd06a65b	-0.032873493
82	0x3d8aa075	0.06768886
83	0x3d7310b3	0.059342097
84	0xbdb9ebec	-0.09078202
85	0x3e268424	0.16261345
86	0x3db6ff48	0.0893541
87	0xbd1162d7	-0.03549465
88	0xbd2ab11c	-0.04167281
89	0x3c792f6d	0.015209061
90	0x3cfd8dd4	0.030951418
91	0xbd9628e9	-0.07332022
92	0xbd781fba	-0.06057713
93	0x3cbd42c1	0.02310312
94	0x3d17b573	0.037038278
95	0xbd34211f	-0.0439769
96	0x3b7d4dce	0.0038651112
97	0x3ce109d5	0.027470509
98	0xbba6f456	-0.005095045
99	0x3dda25a7	0.10651713
100	0x3b6bdbf8	0.0035989266
101	0x3a8a03ed	0.0010529734
102	0xbdba3b3f	-0.090933315
103	0x3dae7292	0.08517946
104	0x3db43402	0.08798982
105	0x3b9550a3	0.004556732
106	0xbc105370	-0.008808956
107	0xbd4d9fab	-0.0502011
108	0xbd57334a	-0.052539147
109	0x3d71a593	0.058995795
110	0x3dd88d23	0.10573795
111	0x3caf0163	0.021362966
112	0x3b52a7d9	0.0032143502
113	0x3d529321	0.051409844
114	0x3bacc1a5	0.0052721077
115	0xbd27d17d	-0.040971268
116	0x3d724f6c	0.059157774
117	0x3d15a486	0.036533855
118	0xbd9d1f19	-0.07671947
119	0xbb930a50	-0.0044873133
120	0x3d1df7c2	0.03856636
121	0xbd8fe28b	-0.070256315
122	0x3c54560c	0.012959968
123	0xbd74ccc7	-0.059765603
124	0xbd57d0c0	-0.052689314
125	0x3d653772	0.05596108
126	0xbdec2753	-0.11530938
127	0x3c2bd417	0.010487578
128	0xbae419bf	-0.0017402692
129	0xb930e1c3	-0.00016868771
130	0x3d0c7414	0.03429039
131	0x3d45b568	0.048268706
132	0x3c640921	0.013918192
133	0x3d1aa995	0.037759382
134	0x3c11502a	0.00886921
135	0x3d0bbeaf	0.034117397
136	0xbdf46847	-0.11933952
137	0xbd8087ec	-0.06275925
138	0x3d54a144	0.051911607
139	0x3c070753	0.008241492
140	0xbb980a58	-0.004639905
141	0x3ba95fc2	0.005168886
142	0x3c8b9908	0.017040744
143	0x3d5abf78	0.053405255
144	0xbdd95517	-0.10611933
145	0x3ddfa391	0.1091987
146	0x3cf1af5a	0.02950256
147	0xbd405793	-0.046958517
148	0x3d8ccee6	0.068754
149	0x3e0796da	0.13241139
150	0x3dd0a71c	0.101881236
151	0x3c71f05f	0.014766782
152	0x3d8cdd9e	0.068782076
153	0x3b0bdff3	0.00213432
154	0x3d3d3b25	0.046198983
155	0x3bf746fe	0.0075463047
156	0x3dbc2416	0.0918657
157	0x3c9cca4e	0.019139435
158	0x3d9e135b	0.077185355
159	0xbd3fb0c9	-0.046799455
160	0xbcf75948	-0.03019394
161	0x3cf52c2a	0.029928286
162	0x3d8118eb	0.06303581
163	0xbd9d5c68	-0.07683641
164	0x3d6fd69f	0.058554288
165	0x3cf7dfb8	0.030258045
166	0x3cd750b5	0.026283601
167	0x3ce1a6cd	0.027545357
168	0xbbc5567d	-0.006022273
169	0x3d8806bb	0.06641909
170	0x3d797591	0.060903136
171	0x3cb0ba6d	0.02157327
172	0x3d4bb271	0.04973072
173	0x3d69dfb6	0.057098113
174	0x3de42412	0.11139692
175	0xbd66ff19	-0.056395624
176	0xbd4d2c48	-0.050091058
177	0xbd59bcf8	-0.05315873
178	0x3dccb96f	0.09996306
179	0x3caeb9d0	0.021328837
180	0xbe028206	-0.12744913
181	0x3d39af14	0.045332983
182	0x3ccdb060	0.025108516
183	0xbd7d694a	-0.06186799
184	0x3cd40724	0.025882311
185	0xbd090a8a	-0.033457316
186	0x3d0bbccf	0.03411561
187	0xbcd0cd77	-0.025488598
188	0xbc7b1eb0	-0.015327141
189	0x3cc2fc08	0.023801818
190	0x3c96200b	0.018325826
191	0xbcb7aa82	-0.022420172
192	0xbcedcbc1	-0.029027821
193	0xbcfb1e34	-0.03065405
194	0xbc9976cf	-0.01873341
195	0xbe0dfcb7	-0.13865934
196	0x3d8da04c	0.0691534
197	0x3d76af25	0.060225625
198	0xbcb822f1	-0.022477599
199	0xbd82b626	-0.06382398

bn3.running_mean f4 [4]
0	0x3d969940	0.07353449
1	0x3e550b5b	0.20805113
2	0x3e6c9b6c	0.23106164
3	0x3de07497	0.10959738

bn3.running_var f4 [4]
0	0x3d701d31	0.05862159
1	0x3d7a54bb	0.06111596
2	0x3dc08c7f	0.094017975
3	0x3cde8774	0.027164198
