log/mnist_test_class_7/model.tar (torch, 71258 bytes, 21 tensors)

conv1.weight f4 [8, 1, 5, 5]
-0.10624202 0.07259177 0.20012404 0.19455181 0.13082308 -0.07599232 0.09840833 -0.10436791
0.092159435 0.20013113 0.17737363 -0.056991477 0.1931083 0.07123901 0.13680337 -0.1324814
0.17137492 0.042888597 0.13712096 0.110977456 -0.11483143 -0.0098725995 0.082109004 -0.107654825
-0.04142701 0.2028526 0.023404298 -0.05506025 0.21399212 -0.040225327 -0.025868354 0.15825918
0.07280525 0.12582833 -0.11457526 0.1514797 0.048258625 0.14638019 0.07108696 -0.0625022
-0.103108995 0.18224433 -0.046648253 0.0069675576 0.16215996 0.12853172 -0.08787546 -0.0630829
0.008619162 -0.00093649037 -0.08827436 -0.05881247 0.12995769 -0.012215268 -0.1480615 0.07184219
-0.11883544 0.0016133678 -0.112656325 0.12967345 -0.14142303 0.094377376 0.012094346 0.21639997
-0.09567983 0.18359432 -0.10301326 0.18482135 -0.047320556 -0.022480369 0.03690165 0.10696834
0.23060074 0.14621246 -0.034984045 0.11067009 0.045918338 0.16303411 0.19026524 -0.13163967
-0.006148317 0.11126106 -0.0010929907 -0.11754883 0.051868152 -0.03541971 0.05842805 0.08211068
0.16854984 0.18161908 0.024721775 0.16923995 -0.031945083 0.043256406 0.20267898 -0.0959121
0.05806588 0.0052744634 0.16036174 0.08814837 0.14035617 0.065568805 0.2097232 0.02547093
0.071533516 -0.020234358 -0.10449836 0.084465675 0.12428208 0.20261548 0.15415068 0.040639825
-0.008676261 0.1334173 0.07734615 0.07211965 0.0021972375 0.1286006 0.057712857 -0.13517766
0.06876172 -0.015273465 0.16992241 0.046734218 0.03201678 0.1351942 0.03981521 -0.11896211
0.05205616 0.18044493 0.031114021 0.12191559 0.17857611 -0.05025903 0.079877 -0.074074045
0.03733041 -0.053661574 0.051619694 0.16737486 0.07516775 0.05674628 0.09144499 -0.029484851
0.15303056 0.04109703 0.04209564 0.035011265 0.19753964 -0.11625418 0.08662329 -0.24902983
-0.11805951 0.06293952 -0.15054841 -0.1336332 -0.04972254 -0.1040605 -0.21322387 0.02193929
-0.007794213 -0.01655241 -0.0037014652 0.11459499 -0.1643722 -0.054696545 0.094609 -0.13572511
0.08805376 -0.0002447463 0.09311837 -0.009750677 0.15806778 0.080306426 0.057197314 0.10289135
0.09780782 0.0555628 0.08977659 0.07818234 -0.11841731 -0.117128395 0.09478363 0.06631668
0.10185223 -0.109729126 -0.06194531 0.037786398 0.018669594 0.1987486 0.073183715 0.027304994
-0.12695058 0.13667805 -0.051947076 -0.06768005 0.1206218 0.053155355 -0.09883601 0.19119567
00000000: 6b95 d9bd feaa 943d 51ed 4c3e 9738 473e
00000010: 7cf6 053e dda1 9bbd 4e8a c93d d8be d5bd
00000020: 16be bc3d 2def 4c3e 6fa1 353e e56f 69bd
00000030: 2fbe 453e c2e5 913d 2f16 0c3e 34a9 07be
00000040: e87c 2f3e f4ab 2f3d 7069 0c3e 2648 e33d
00000050: be2c ebbd afc0 21bc c428 a83d 227a dcbd
00000060: 5eaf 29bd 98b8 4f3e 5fba bf3c db86 61bd
00000070: c020 5b3e 50c3 24bd dfe9 d3bc b20e 223e
00000080: eb1a 953d 24d9 003e 6fa6 eabd 7f1d 1b3e
00000090: d6aa 453d b0e4 153e 0a96 913d 2701 80bd
000000a0: cf2a d3bd 429e 3a3e 3d12 3fbd 1c50 e43b
000000b0: 430d 263e d29d 033e 0df8 b3bd 9c31 81bd
000000c0: 6337 0d3c ce7e 75ba 30c9 b4bd 58e5 70bd
000000d0: a113 053e 8c22 48bc 6f9d 17be 0022 933d
000000e0: ff5f f3bd a477 d33a 5cb8 e6bd 1ec9 043e
000000f0: 33d1 10be ed48 c13d 5d27 463c f497 5d3e
00000100: c9f3 c3bd 2600 3c3e 9ef8 d2bd cf41 3d3e
00000110: 33d3 41bd c028 b8bc 2f26 173d 3812 db3d
00000120: 9a22 6c3e b8b8 153e 6e4b 0fbd 00a7 e23d
00000130: de14 3c3d 6af2 263e e4d4 423e 8dcc 06be
00000140: d277 c9bb d7dc e33d af42 8fba 71bd f0bd
00000150: b373 543d 4214 11bd 4052 6f3d a529 a83d
00000160: 5498 2c3e 5afa 393e 5285 ca3c 3d4d 2d3e
00000170: d9d8 02bd a12d 313d 148b 4f3e 906d c4bd
00000180: 7dd6 6d3d 68d5 ac3b de35 243e 2287 b43d
00000190: 87b9 0f3e f048 863d aec1 563e 69a8 d03c
000001a0: 2a80 923d 86c2 a5bc 3c03 d6bd 57fc ac3d
000001b0: 9a87 fe3d 6f7a 4f3e add9 1d3e f275 263d
000001c0: e026 0ebc 8b9e 083e a967 9e3d 78b3 933d
000001d0: 87ff 0f3b e0af 033e 5164 6c3d 036c 0abe
000001e0: f2d2 8c3d 8e3d 7abc 2400 2e3e 616c 3f3d
000001f0: 0724 033d 5970 0a3e 4615 233d 68a2 f3bd
00000200: d738 553d 8ec6 383e d5e2 fe3c e1ae f93d
00000210: a8dc 363e 6adc 4dbd 8d96 a33d 22b4 97bd
00000220: c6e7 183d 3dcc 5bbd 2c6f 533d 5164 2b3e
00000230: 8df1 993d ca6e 683d 8347 bb3d 378a f1bc
00000240: 0bb4 1c3e 5c55 283d 7a6c 2c3d f967 0f3d
00000250: d547 4a3e ac16 eebd 8d67 b13d ad01 7fbe
00000260: 2fc9 f1bd 6fe6 803d 5d29 1abe 24d7 08be
00000270: dda9 4bbd ac1d d5bd 5c57 5abe 07ba b33c
00000280: 9966 ffbb eb98 87bc 4894 72bb c7b0 ea3d
00000290: 3051 28be 7c09 60bd 5dc2 c13d 86fb 0abe
000002a0: 8855 b43d 4b51 80b9 d8b4 be3d 4ec1 1fbc
000002b0: 85dc 213e b277 a43d bb47 6a3d b3b8 d23d
000002c0: 774f c83d d295 633d cadc b73d 101e a03d
000002d0: c684 f2bd 03e1 efbd eb1d c23d 0ad1 873d
000002e0: e797 d03d aab9 e0bd 5eba 7dbd e9c5 1a3d
000002f0: faf0 983c c184 4b3e 58e1 953d b9ae df3c
00000300: 55ff 01be 55f5 0b3e 75c6 54bd d79b 8abd
00000310: 9008 f73d 6eb9 593d 896a cabd ccc8 433e

bn1.running_mean f4 [8]
0.07482627 0.06047888 0.031244194 0.08211253 0.088990875 0.07252909 -0.03020658 0.043075625
00000000: 843e 993d b4b8 773d d3f3 ff3c 9d2a a83d
00000010: d940 b63d 228a 943d ca73 f7bc 1170 303d

bn1.running_var f4 [8]
0.018619997 0.009904389 0.0060088695 0.015002412 0.017710267 0.011253442 0.0065928325 0.0060381223
00000000: f788 983c 0546 223c 0de6 c43b adcc 753c
00000010: 1f15 913c 5b60 383c b008 d83b 71db c53b

conv2.weight f4 [4, 8, 5, 5]
-0.022477884 -0.03162978 -0.030175628 0.029929632 0.050038777 -0.0009333441 -0.13149229 -0.021251887
-0.062805526 0.03169597 -0.047703084 -0.10938138 0.019005116 0.008575739 -0.015535659 0.022917166
-0.0063292794 0.022102851 -0.022667224 -0.0408167 0.035331424 -0.026776478 0.034822617 0.016045664
0.052413948 -0.061041616 -0.039048325 -0.09555006 -0.026838789 -0.046203136 -0.003983707 -0.0401074
-0.0039021496 -0.10344554 -0.004563047 0.0014328012 -0.06865253 -0.07790262 0.038948514 0.0546963
0.02423377 -0.010992282 0.039435282 -0.041552518 -0.008311709 -0.011305761 -0.039372865 -0.031754915
-0.056001246 -0.058958437 0.029685238 -0.047078386 -0.042746484 0.0418686 -0.037394375 -0.037966467
0.02083443 -0.01842816 0.024675999 -0.026345799 0.044946995 0.006349722 0.0035125264 0.042054966
-0.0069484003 -0.05770775 0.04772985 0.03929473 0.0305015 0.019231705 0.04119311 0.010975594
0.02341161 0.015373887 -0.014334223 -0.019470155 -0.07005337 -0.055627298 -0.036301225 0.0036795482
-0.01463833 -0.10363348 -0.06629098 0.052266464 0.02856648 0.014543061 -0.032432992 -0.06550056
0.031047674 0.015334321 -0.01641096 0.0039367196 0.04617698 0.0025386724 -0.012063081 0.039119318
-0.046195943 0.03202841 -0.024920011 0.008080495 -0.010491797 -0.080834076 -0.0016047978 -0.037373643
0.025709918 -0.09845016 -0.03676981 0.008003379 0.00043714474 -0.0010603862 -0.097162366 -0.04246403
-0.043457843 -0.068538986 0.060254913 0.042022876 -0.025427388 0.04070547 -0.01837599 -0.030390196
-0.049529817 -0.041593794 0.024588762 -0.0022332647 -0.0015454402 -0.027624557 -0.1094407 -0.025149914
0.028074764 -0.047544964 -0.09580935 -0.073126554 -0.014439991 -0.06570183 0.01027506 0.01901781
0.0032046267 -0.018908808 -0.0473846 0.020131096 -0.01723991 0.051745355 0.007170347 -0.049760714
-0.0074126697 -0.05870189 -0.013293407 -0.005545524 0.038600232 0.028631568 0.013045019 -0.029057957
-0.050081167 0.010238012 0.01027311 -0.008888352 0.043558337 0.018923916 0.05963 -0.03755467
0.046734355 -0.028806122 0.027011255 -0.03881916 0.012880451 0.046233255 0.033294518 -0.026044812
0.0595753 -0.060718592 0.004559412 -0.031327207 -0.019425 0.01963113 0.036943667 -0.024050806
-0.02927122 -0.040841285 0.029368743 -0.04718953 -0.0868072 -0.028382296 -0.076566696 0.0386132
-0.05267489 -0.083530776 -0.100828335 0.019142108 -0.016946485 -0.026729742 -0.0107738925 -0.021900132
-0.033305857 -0.017048402 -0.03778136 -0.0042419485 0.011236723 -0.008586121 0.033506542 0.03566021
-0.062487613 -0.044958603 0.060144503 -0.023576843 0.004978398 -0.044960473 0.0053711096 0.055139773
-0.04312386 -0.047257036 -0.022358954 -0.03655811 -0.057068717 0.017350797 -0.049813893 -0.073508374
-0.06955469 -0.009460938 -0.049152046 0.03803456 -0.067638166 -0.1166608 -0.018963696 -0.01138759
0.026524862 -0.04959832 -0.01942152 0.03111788 -0.039339937 -0.039468616 0.024552114 0.013732938
0.03684798 -0.025622405 -0.00920973 -0.04066463 -0.04143433 -0.056766238 0.018341998 0.01705949
-0.073235355 -0.0638369 -0.02081166 0.019652793 -0.058773633 -0.018772503 -0.05975526 -0.052344132
0.03825247 0.0034405584 0.0328689 0.0012529533 0.005652844 0.053241953 0.026215138 -0.00026268608
00000000: 8a23 b8bc 3a8e 01bd e132 f7bc fd2e f53c
00000010: 76f5 4c3d aaab 74ba eaa5 06be 7018 aebc
00000020: 2fa0 80bd a2d3 013d 4f64 43bd 5803 e0bd
00000030: 9eb0 9b3c 4281 0c3c 4789 7ebc c8bc bb3c
00000040: d865 cfbb 0a11 b53c 9db0 b9bc 692f 27bd
00000050: afb7 103d 585a dbbc 29a2 0e3d 3272 833c
00000060: 02b0 563d c606 7abd 23f1 1fbd c0af c3bd
00000070: 05dd dbbc 803f 3dbd c289 82bb a847 24bd
00000080: 35bb 7fbb 41db d3bd 9d85 95bb d5cc bb3a
00000090: b399 8cbd 698b 9fbd 7a88 1f3d 3a09 603d
000000a0: e685 c63c f918 34bc e486 213d f932 2abd
000000b0: d62d 08bc cc3b 39bc 7145 21bd 7111 02bd
000000c0: 9061 65bd 677e 71bd 752e f33c 44d5 40bd
000000d0: f016 2fbd 697e 2b3d d82a 19bd ba82 1bbd
000000e0: f7ac aa3c a7f6 96bc 5225 ca3c 25d3 d7bc
000000f0: 571a 383d 5411 d03b 6a32 663b d441 2c3d
00000100: 68af e3bb f65e 6cbd 6080 433d 83f3 203d
00000110: 48de f93c cf8b 9d3c 1bba 283d fad2 333c
00000120: b4c9 bf3c c1e2 7b3c 17da 6abc e07f 9fbc
00000130: 2478 8fbd 73d9 63bd 98b0 14bd 9324 713b
00000140: 9bd5 6fbc ca3d d4bd 91c3 87bd 5c15 563d
00000150: 4004 ea3c 0546 6e3c 75d8 04bd 2825 86bd
00000160: b157 fe3c ce3c 7b3c 4770 86bc 99ff 803b
00000170: 1324 3d3d db5f 263b 3ba4 45bc 943b 203d
00000180: f537 3dbd 3930 033d 0d25 ccbc 0d64 043c
00000190: c9e5 2bbc 568c a5bd 1458 d2ba 1b15 19bd
000001a0: 9b9d d23c 3da0 c9bd f19b 16bd 9b20 033c
000001b0: 9330 e539 a8fc 8aba 10fd c6bd c3ee 2dbd
000001c0: da00 32bd 2b5e 8cbd dbcd 763d 2e20 2c3d
000001d0: 194d d0bc c7ba 263d 3f89 96bc dcf4 f8bc
000001e0: c7df 4abd 415e 2abd 5f6e c93c f75b 12bb
000001f0: 5e90 caba e54c e2bc 7222 e0bd 3107 cebc
00000200: 0cfd e53c 82be 42bd b137 c4bd 60c3 95bd
00000210: b695 6cbc ae8e 86bd ba58 283c 3dcb 9b3c
00000220: b704 523b a5e6 9abc 5b16 42bd f8e9 a43c
00000230: b63a 8dbc f0f2 533d 3bf5 ea3b e4d1 4bbd
00000240: fbe5 f2bb 6571 70bd 97cc 59bc 3ab7 b5bb
00000250: 471b 1e3d c08c ea3c c6ba 553c f40a eebc
00000260: e921 4dbd 56bd 273c 8c50 283c 73a0 11bc
00000270: 3a6a 323d 5406 9b3c 963e 743d edd2 19bd
00000280: 866c 3f3d d1fa ebbc b546 dd3c d700 1fbd
00000290: 8708 533c 155f 3d3d d55f 083d ee5b d5bc
000002a0: 3b05 743d 0fb4 78bd 1f67 953b f550 00bd
000002b0: 2d21 9fbc 77d1 a03c 3e52 173d 3206 c5bc
000002c0: 33ca efbc 3149 27bd b896 f03c cf49 41bd
000002d0: f9c7 b1bd fd81 e8bc 00cf 9cbd e028 1e3d
000002e0: a0c1 57bd 2f12 abbd 167f cebd e9cf 9c3c
000002f0: 5bd3 8abc 55f8 dabc fb84 30bc e867 b3bc
00000300: b96b 08bd 17a9 8bbc a1c0 1abd 0b00 8bbb
00000310: 3b1a 383c cdac 0cbc 283e 093d 7110 123d
00000320: 03f3 7fbd 8326 38bd 155a 763d 3924 c1bc
00000330: d421 a33b 7928 38bd 2200 b03b 3eda 613d
00000340: a5a2 30bd 9890 41bd 202a b7bc f5bd 15bd
00000350: e3c0 69bd 4223 8e3c a709 4cbd 8f8b 96bd
00000360: b072 8ebd 0d02 1bbc a853 49bd 20ca 1b3d
00000370: e185 8abd dceb eebd c159 9bbc 0493 3abc
00000380: ab4a d93c 9c27 4bbd e119 9fbc edea fe3c
00000390: ea22 21bd d8a9 21bd 8421 c93c 1e00 613c
000003a0: e8ed 163d 14e6 d1bc 68e4 16bc f48f 26bd
000003b0: 0bb7 29bd b783 68bd f541 963c 58c0 8b3c
000003c0: 6bfc 95bd ecbc 82bd 377d aabc e5fe a03c
000003d0: 9fbc 70bd cbc8 99bc eec1 74bd cd66 56bd
000003e0: 9fae 1c3d fe7a 613b 8aa1 063d 233a a43a
000003f0: 7e3b b93b 3c14 5a3d 21c1 d63c 21b9 89b9

bn2.running_mean f4 [4]
-1.3047273 -1.6937892 -1.4749231 -1.3430305
00000000: 4e01 a7bf 16ce d8bf 48ca bcbf 6ce8 abbf

bn2.running_var f4 [4]
4.1804056 3.9066157 4.2657337 3.9275193
00000000: e2c5 8540 fe05 7a40 e480 8840 7a5c 7b40

fc1.weight f4 [32, 196]
0.06078113 0.00491129 0.037441794 -0.017907891 0.016521968 0.00045898516 -0.018043077 -0.060607415
0.05660819 -0.02602773 -0.052912813 -0.047887847 -0.04734382 -0.034686003 0.01113432 -0.03887444
-0.006894152 0.044266514 -0.009022889 -0.01027253 0.006098819 0.015609931 0.041591562 -0.039748073
0.006959711 0.0104713105 0.055675823 0.020519651 -0.00024335089 0.007330954 0.05190905 0.0071038725
-0.0073918547 0.05541576 0.05744308 -0.0044532903 0.057293132 -0.036633592 0.04196827 0.019872088
0.026476879 -0.052153952 0.011333072 -0.045670528 -0.009487459 -0.019963667 0.0009298284 -0.010824176
0.057256237 0.0103077665 -0.041850477 -0.043569967 0.03314822 0.027612027 0.051091883 0.051596053
-0.03393227 0.04458017 -0.0012379113 -0.00258914 0.018374858 -0.02546789 -0.01397775 -0.010322094
-0.029941395 0.034411162 -0.051875357 0.019989494 0.0050330497 -0.022245783 0.04288312 -0.0016314691
-0.004269424 -0.054047607 0.03663653 0.0020833684 -0.052417748 -0.026060175 0.050945655 0.03230238
-0.003553505 0.0031881141 0.0054235794 -0.068546556 -0.0532622 0.039636668 0.024677645 -0.02191751
0.0064239465 -0.013257633 0.025802422 -0.027578639 -0.03322762 0.019581374 -0.03882914 -0.021086467
-0.013322949 -0.035164908 -0.048654627 0.052306797 0.055013135 0.028267218 0.02162859 0.03658854
0.021363327 0.04774702 -0.042693403 0.050340235 -0.010671371 0.009943499 0.057417993 0.056993213
-0.019269632 -0.034302488 0.0061949724 -0.033071436 0.008403084 -0.013683839 -0.02670532 0.00653544
0.040862076 -0.030154102 -0.058933794 0.022069223 -0.04672855 -0.050431397 -0.040185325 -0.034950286
0.0020172088 0.057760146 -0.016811995 0.019610202 0.052117 -0.07163765 -0.04838213 -0.054449417
-0.042083263 -0.031840436 -0.025115617 0.04250556 -0.006881521 -0.010524023 0.017715175 -0.016050689
0.011860918 -0.007609197 -0.06306008 -0.014667183 -0.059753183 0.035856042 0.050696556 0.04584529
-0.04940669 -0.038955003 -0.07270152 0.05064535 -0.00422245 -0.046060394 0.031836033 -0.019105203
0.05164376 0.051547572 0.04875873 0.04665687 -0.03868646 0.0130138025 0.039138746 -0.019042538
-0.06066 -0.04534394 -0.025340835 0.004329986 -0.034647793 -0.053268563 0.06371884 0.050661173
0.04807947 -0.02344624 -0.008412137 0.03204618 -0.040281627 -0.049421992 0.050411623 -0.0013765164
0.026802788 -0.010064946 0.01885206 -0.01098694 0.053442337 0.046975538 0.0047731455 0.0074909525
0.002207745 0.03258189 0.035517666 0.033952218 0.055171035 0.050463505 0.050200563 -0.010918332
0.036266763 -0.046747133 -0.012991302 -0.068354145 0.059184026 -0.037690964 0.045374807 -0.026347613
-0.055728264 0.07446505 0.050890345 -0.025169542 0.028424574 0.04851755 0.010358263 -0.042001646
-0.033191234 -0.02777098 0.06697317 -0.0053916913 0.004932975 -0.017117867 0.048942514 0.035978653
-0.044313952 0.018929958 0.00049968855 -0.00979104 0.011008374 -0.065694444 -0.025450129 -0.03662454
0.048867147 -0.014848376 0.012249567 0.0071053035 0.004304635 0.09104008 0.06970773 0.0045262063
0.036667954 0.009238596 -0.010903581 0.050500978 -0.031342838 0.021518799 -0.054374352 -0.039326064
0.02167886 0.0013787616 0.020029344 -0.06678119 -0.0005681753 0.018548738 -0.01687394 0.027194094
00000000: a2f5 783d e3ee a03b 915c 193d 92b3 92bc
00000010: 1459 873c f2a3 f039 13cf 93bc 7b3f 78bd
00000020: fddd 673d 1b38 d5bc 1bbb 58bd 0c26 44bd
00000030: 98eb 41bd e912 0ebd b96c 363c ce3a 1fbd
00000040: 57e8 e1bb ce50 353d bdd4 13bc 1d4e 28bc
00000050: 9ad8 c73b ccc0 7f3c ea5b 2a3d e0ce 22bd
00000060: 4a0e e43b dc8f 2b3c 550c 643d d418 a83c
00000070: 022c 7fb9 8038 f03b 969e 543d 9ac7 e83b
00000080: 5f37 f2bb a3fb 623d 6f49 6b3d e8ec 91bb
00000090: 34ac 6a3d 1b0d 16bd ece6 2b3d caca a23c
000000a0: 0ae6 d83c 629f 55bd 59ae 393c 0511 3bbd
000000b0: 4a71 1bbc d88a a3bc babf 733a e257 31bc
000000c0: 8485 6a3d e8e1 283c 686b 2bbd 6c76 32bd
000000d0: 6ec6 073d 9e32 e23c b945 513d 6256 533d
000000e0: 90fc 0abd b299 363d 6941 a2ba 90ae 29bb
000000f0: df86 963c 09a2 d0bc ef02 65bc 001e 29bc
00000100: a847 f5bc b8f2 0c3d 417b 54bd 02c1 a33c
00000110: 48ec a43b ca3c b6bc 36a6 2f3d 05d7 d5ba
00000120: 86e6 8bbb 0661 5dbd 3010 163d 1f89 083b
00000130: feb3 56bd 267c d5bc 64ac 503d 804f 043d
00000140: ece1 68bb aeef 503b 48b8 b13b 2362 8cbd
00000150: 7729 5abd 0f5a 223d c628 ca3c 5a8c b3bc
00000160: f87f d23b 8b36 59bc 9a5f d33c 99ec e1bc
00000170: af19 08bd 1e69 a03c 4e0b 1fbd 87bd acbc
00000180: 8048 5abc 1409 10bd 134a 47bd a73f 563d
00000190: 7455 613d a790 e73c 712e b13c dddd 153d
000001a0: 2502 af3c 6192 433d 47df 2ebd 9031 4e3d
000001b0: f9d6 2ebc 0fea 223c 212f 6b3d b771 693d
000001c0: 59db 9dbc c480 0cbd 32ff ca3b ea75 07bd
000001d0: 17ad 093c 2e32 60bc 1ec5 dabc 3f27 d63b
000001e0: fe5e 273d bc05 f7bc 9064 71bd 84ca b43c
000001f0: 7066 3fbd 2791 4ebd 5e99 24bd 0828 0fbd
00000200: 2633 043b e795 6c3d 4fb9 89bc 93a5 a03c
00000210: a378 553d c3b6 92bd 572c 46bd 5a06 5fbd
00000220: 805f 2cbd 1e6b 02bd 44bf cdbc 4f1a 2e3d
00000230: 627e e1bb f46c 2cbc 6a1f 913c bc7c 83bc
00000240: 4c54 423c 9256 f9bb a525 81bd a04e 70bc
00000250: c1bf 74bd c9dd 123d 31a7 4f3d 45c8 3b3d
00000260: ab5e 4abd 488f 1fbd 89e4 94bd 8071 4f3d
00000270: 7a5c 8abb d3a9 3cbd 8066 023d 8482 9cbc
00000280: 6888 533d 8c23 533d 3cb7 473d 461b 3f3d
00000290: b275 1ebd d837 553c f34f 203d 19ff 9bbc
000002a0: 9f76 78bd 91ba 39bd 9597 cfbc 8ee2 8d3b
000002b0: d8ea 0dbd 2330 5abd 067f 823d 1782 4f3d
000002c0: faee 443d 5412 c0bc 0fd3 09bc db42 033d
000002d0: 59fe 24bd b76e 4abd 6b7c 4e3d 3a6c b4ba
000002e0: 8591 db3c 71e7 24bc a36f 9a3c 9102 34bc
000002f0: 5ae6 5a3d 6c69 403d 0c68 9c3b aa76 f53b
00000300: d1af 103b 9674 053d f97a 113d 7b11 0b3d
00000310: 06fb 613d d2b2 4e3d 1b9f 4d3d cee2 32bc
00000320: 758c 143d ec79 3fbd 78d9 54bc 42fd 8bbd
00000330: f36a 723d d761 1abd efda 393d f3d6 d7bc
00000340: 5243 64bd 2281 983d 6572 503d 5b30 cebc
00000350: a7da e83c 57ba 463d b4b5 293c eb09 2cbd
00000360: 88f3 07bd f77f e3bc 3b29 893d c9ac b0bb
00000370: cba4 a13b c53a 8cbc f277 483d 5a5e 133d
00000380: 8c82 35bd 0013 9b3c 88fd 023a 996a 20bc
00000390: 785c 343c cf8a 86bd ca7c d0bc 9d03 16bd
000003a0: eb28 483d 9a46 73bc 68b2 483c 9bd3 e83b
000003b0: e50d 8d3b 3973 ba3d edc2 8e3d 9250 943b
000003c0: 2331 163d 7b5d 173c efa4 32bc 1dda 4e3d
000003d0: 5961 00bd 3148 b03c a4b7 5ebd 5e14 21bd
000003e0: dd97 b13c 90b7 b43a 9414 a43c 94c4 88bd
000003f0: 99f1 14ba 86f3 973c 383b 8abc 26c6 de3c

conv1.weight f4 [8, 1, 5, 5]
-0.11882153 0.07106672 0.2206346 0.17717446 0.10444164 -0.08778909 0.10717216 -0.10355841
0.046114203 0.18054764 0.20856461 -0.039451838 0.20471993 0.032633748 0.1280509 -0.11195162
0.1838048 0.04170324 0.11863953 0.11076344 -0.10810976 -0.022051673 -0.0043514296 -0.13547668
-0.05153862 0.17005023 -0.01577303 -0.10764171 0.20499715 -0.04132651 -0.062144388 0.16952686
0.071389854 0.118348494 -0.1450241 0.088824 0.04783838 0.13183205 0.047119815 -0.08879172
-0.14552204 0.16284026 -0.07185534 -0.016274298 0.14835054 0.08818144 -0.12397236 -0.094732076
-0.016010461 -0.021990601 -0.07604134 -0.043938927 0.11919765 -0.04200636 -0.18852673 0.0772164
-0.15398875 -0.029001333 -0.14949352 0.119884975 -0.14339894 0.051222973 -0.024022702 0.18825379
-0.09673148 0.19066861 -0.16534887 0.13431145 -0.09411012 -0.032568548 0.061918307 0.07985076
0.1972953 0.13030715 -0.038762793 0.09232371 0.048347276 0.17693107 0.16553035 -0.1644746
-0.01946143 0.12112106 0.003750346 -0.15534315 0.025799545 -0.03508914 0.07482502 0.09240194
0.15069576 0.16075692 0.031383548 0.19351512 -0.051725633 0.033323545 0.18713953 -0.097251534
0.048832923 -0.034072917 0.13668513 0.04733562 0.09051484 0.030913522 0.20434803 0.0082050655
0.04943761 -0.06554036 -0.11225228 0.13013607 0.13064067 0.18696289 0.15773387 0.054377098
0.015043814 0.15388738 0.052895524 0.08565101 0.016536828 0.15460524 0.05454059 -0.15935294
0.08190162 -0.01745673 0.16917187 0.034249038 0.016158028 0.11761565 0.02552272 -0.13484338
0.049587894 0.1772149 0.013545466 0.12323636 0.1971148 -0.037047625 0.072140865 -0.100217946
0.039479505 -0.025253864 0.05779037 0.16337934 0.0638009 0.07482303 0.1092522 -0.024162661
0.102619104 0.02829257 0.018537683 -0.01866946 0.1373071 -0.16492161 0.116824724 -0.22235057
-0.09142456 0.090476386 -0.118889414 -0.10757567 -0.024129303 -0.078032285 -0.18774147 0.04077822
0.007527018 -0.0007272268 0.0077463356 0.11664858 -0.1721691 -0.050392218 0.08914927 -0.15960743
0.08175715 0.008395184 0.11426731 0.006750413 0.1839243 0.12463388 0.10111551 0.09195933
0.092829354 0.043750606 0.067981765 0.03679626 -0.1455956 -0.13824439 0.078165755 0.04629549
0.07298491 -0.14110166 -0.08146724 0.016300386 -0.010316416 0.1751506 0.0831508 0.023461299
-0.1437345 0.11471736 -0.08397064 -0.07302162 0.114547454 0.029960228 -0.15506384 0.16114591
00000000: b458 f3bd 6e8b 913d 09ee 613e 396d 353e
00000010: 80e5 d53d c4ca b3bd 147d db3d 6f16 d4bd
00000020: 3fe2 3c3d 7be1 383e f691 553e 4098 21bd
00000030: 1aa2 513e f7aa 053d c61f 033e e446 e5bd
00000040: 5337 3c3e 04d1 2a3d 48f9 f23d f1d7 e23d
00000050: a668 ddbd b6a5 b4bc 7096 8ebb 66ba 0abe
00000060: 291a 53bd a621 2e3e 7136 81bc 4273 dcbd
00000070: c6ea 513e fd45 29bd 1d8b 7ebd 7398 2d3e
00000080: d834 923d b260 f23d 3381 14be 5be9 b53d
00000090: 2df2 433d fbfe 063e b500 413d 6fd8 b5bd
000000a0: bb03 15be 99bf 263e e428 93bd ad51 85bc
000000b0: 34e9 173e 7998 b43d 38e5 fdbd e402 c2bd
000000c0: 5f28 83bc a225 b4bc 90bb 9bbd 4ef9 33bd
000000d0: e61d f43d dc0e 2cbd 270d 41be a223 9e3d
000000e0: 3aaf 1dbe 3494 edbc d414 19be 4186 f53d
000000f0: 2cd7 12be 2ecf 513d 42cb c4bc 9ac5 403e
00000100: 271b c6bd a23e 433e 3751 29be f188 093e
00000110: cebc c0bd 9966 05bd 0d9e 7d3d cc88 a33d
00000120: c707 4a3e 3d6f 053e bcc5 1ebd 3714 bd3d
00000130: cb07 463d 6b2d 353e ca80 293e 086c 28be
00000140: 946d 9fbc 510e f83d 5dc8 753b 4612 1fbe
00000150: 9159 d33c a1b9 0fbd dc3d 993d 3a3d bd3d
00000160: fd4f 1a3e 769d 243e 098c 003d d428 463e
00000170: 42de 53bd 457e 083d 81a1 3f3e d02b c7bd
00000180: 0805 483d 0b90 0bbd 30f7 0b3e ffe2 413d
00000190: d85f b93d 5b3e fd3c 9c40 513e 8a6e 063c
000001a0: 177f 4a3d 063a 86bd 86e4 e5bd 6442 053e
000001b0: abc6 053e 3373 3f3e fd84 213e 85ba 5e3d
000001c0: 547a 763c a794 1d3e faa8 583d cc69 af3d
000001d0: 3e78 873c d650 1e3e f465 5f3d 6b2d 23be
000001e0: 09bc a73d 6b01 8fbc 643b 2d3e b848 0c3d
000001f0: d75d 843c 79e0 f03d 0615 d13c 6214 0abe
00000200: ad1c 4b3d d377 353e cded 5d3c 5863 fc3d
00000210: 76d8 493e 40bf 17bd 97be 933d 113f cdbd
00000220: 43b5 213d 31e1 cebc 98b5 6c3d ea4c 273e
00000230: 0caa 823d d13c 993d 9ebf df3d c6f0 c5bc
00000240: f729 d23d d2c5 e73c 57dc 973c b2f0 98bc
00000250: 3c9a 0c3e 36e1 28be cd41 ef3d deaf 63be
00000260: cd3c bbbd af4b b93d 4b7c f3bd a250 dcbd
00000270: d1aa c5bc 64cf 9fbd 4d3f 40be 1007 273d
00000280: 34a5 f63b 5da3 3eba f9d4 fd3b 73e5 ee3d
00000290: 194d 30be 1268 4ebd e493 b63d 2170 23be
000002a0: 4b70 a73d f48b 093c fb04 ea3d 9232 dd3b
000002b0: a756 3c3e 0c40 ff3d a615 cf3d 2c55 bc3d
000002c0: 511d be3d d633 333d 063a 8b3d adb7 163d
000002d0: 0317 15be f08f 0dbe 5e15 a03d 57a0 3d3d
000002e0: 1d79 953d f47c 10be 4cd8 a6bd 6388 853c
000002f0: 2f06 29bc ae5a 333e f74a aa3d e931 c03c
00000300: 232f 13be eff0 ea3d cdf8 abbd 5c8c 95bd
00000310: db97 ea3d 276f f53c 0ec9 1ebe 6f03 253e

bn1.running_mean f4 [8]
0.06337451 0.027330378 0.0042809555 0.06776587 0.08368862 0.058444876 -0.00668 0.014810146
00000000: 7fca 813d f5e3 df3c 4247 8c3b d5c8 8a3d
00000010: f064 ab3d e563 6f3d e7e3 dabb 41a6 723c

bn1.running_var f4 [8]
0.01405172 0.003825084 0.002667526 0.010693135 0.017306076 0.008391659 0.004086121 0.00234689
00000000: 2f39 663c 43ae 7a3b a9d1 2e3b 4232 2f3c
00000010: 79c5 8d3c 2b7d 093c dee4 853b 48ce 193b

conv2.weight f4 [4, 8, 5, 5]
-0.014509877 -0.013953733 -0.026493317 -0.0021802587 0.014467538 0.028941771 -0.09474294 -0.012693002
-0.086914815 0.013193251 -0.015509808 -0.07733316 0.027804332 -0.009494715 -0.018235305 0.013328697
-0.013048711 0.008571912 -0.03461697 -0.038971037 0.033719745 -0.038825873 0.048845395 0.031207157
0.06812313 -0.038389955 -0.026272811 -0.08098275 -0.029414816 -0.08497034 0.011476079 0.0009948738
0.028789926 -0.095559895 -0.021444762 0.024698444 -0.03334216 -0.055039093 0.047243807 0.03978129
0.035615213 -0.024350423 0.040039033 -0.058694374 -0.022456026 0.009390878 -0.055685513 -0.041153826
-0.049627 -0.04790881 0.0075592445 0.0044541787 -0.005370739 0.053601168 -0.06484421 -0.046462484
0.056819525 -0.034510363 0.012052429 -0.041385293 0.021237528 -0.022458404 -0.008774046 0.039966855
-0.020039648 -0.08425469 0.035623796 0.040869195 0.049166005 0.026169933 0.0603841 0.026159393
0.035174392 0.018458439 -0.0081775235 0.016252588 -0.04492006 -0.04547212 -0.048729733 -0.02125556
0.006076465 -0.063509755 -0.0398913 0.042580973 0.040020958 0.017000187 -0.0057895673 -0.04998726
0.021475645 0.020354277 -0.035590895 -0.0070178118 0.050221458 0.004402126 -0.004599106 0.056419186
-0.050901555 0.050600648 -0.01802511 0.028084822 0.0050820666 -0.059535522 0.013662623 -0.041026242
-0.018285105 -0.06979167 0.0015349606 0.02565543 0.0067172525 -0.031339303 -0.07908561 -0.002815328
-0.022496708 -0.07939571 0.056582686 0.04955398 -0.019355694 0.03565545 -0.02392737 -0.018253507
-0.04993929 -0.046683665 0.033318583 0.009403362 0.011120271 -0.0069981897 -0.085224435 -0.012036454
0.021172356 -0.085954234 -0.06537592 -0.035789687 0.009661899 -0.07698375 0.003604383 0.05063691
0.026809605 -0.0025104526 -0.06546766 0.03168771 -0.01529814 0.043617688 -0.002145726 -0.06242738
0.0028436545 -0.051039785 -0.02169232 0.008086684 0.051646423 0.04311446 0.03796435 0.015556725
-0.043646473 0.010741451 0.030796977 0.012960553 0.048261944 -0.005582177 0.054150034 -0.033992976
0.032288082 -0.05154982 0.014552609 -0.05057116 -0.0028795116 0.02894516 0.012404618 -0.029956318
0.06558534 -0.061232492 0.017974515 -0.044043034 -0.04135577 0.014904004 0.050206047 -0.00983985
-0.010543176 -0.060193196 -0.013982069 -0.06418224 -0.04941058 -0.0014355745 -0.075518146 0.0005226138
-0.05096703 -0.050928935 -0.07813108 0.014073875 -0.029779136 -0.012990872 0.009707551 -0.018105043
-0.040533356 -0.029445143 -0.024991756 -0.0033614838 0.01568845 0.0029407553 0.04827952 0.054439116
-0.07823613 -0.045670554 0.06319781 -0.022763062 0.013010601 -0.07079333 -0.0040263757 0.016641071
-0.034114737 -0.042576782 -0.049212564 -0.035644915 -0.058567546 0.03078079 -0.042603742 -0.07133912
-0.017541114 0.012712797 -0.040429037 0.043425433 -0.04758926 -0.06019893 -0.005296701 -0.0047056796
0.028959487 -0.07432841 -0.03113859 0.043428596 -0.04225868 -0.042190135 0.01808192 -0.0097475
0.024720779 -0.049028706 0.0011195781 -0.051963728 -0.081516534 -0.07207103 0.022049015 0.029483307
-0.08870466 -0.04665384 0.031508196 0.037489526 -0.05349123 -0.0041534062 -0.041700967 -0.0017259092
0.051001597 0.009885076 0.023140514 -0.004981306 -0.040418074 0.0516267 0.043497536 -0.01765418
00000000: d6ba 6dbc 339e 64bc 8308 d9bc ace2 0ebb
00000010: 4109 6d3c 4b17 ed3c 9608 c2bd 4ff6 4fbc
00000020: 6500 b2bd 8128 583c da1c 7ebc d960 9ebd
00000030: e9c5 e33c b98f 1bbc 3562 95bc 9b60 5a3c
00000040: 43ca 55bc 3471 0c3c 86ca 0dbd 18a0 1fbd
00000050: b71d 0a3d e107 1fbd 1c12 483d 27a6 ff3c
00000060: 2484 8b3d c93e 1dbd 143a d7bc 49da a5bd
00000070: 57f7 f0bc ee04 aebd 2a06 3c3c 6d66 823a
00000080: dad8 eb3c e8b4 c3bd edac afbc 6454 ca3c
00000090: ca91 08bd ac70 61bd b982 413d b5f1 223d
000000a0: 42e1 113d 8a7a c7bc f8ff 233d 8369 70bd
000000b0: b3f5 b7bc 32dc 193c 7e16 64bd ea90 28bd
000000c0: ae45 4bbd 073c 44bd 8ab3 f73b 5cf4 913b
000000d0: 06fd afbb e68c 5b3d 0bcd 84bd 724f 3ebd
000000e0: 97bb 683d bd5a 0dbd 8d77 453c a083 29bd
000000f0: 53fa ad3c b0fa b7bc 04c1 0fbc 49b4 233d
00000100: 302a a4bc b98d acbd 42ea 113d 7566 273d
00000110: 4b62 493d 5462 d63c 5155 773d 394c d63c
00000120: 0613 103d 2736 973c 05fb 05bc 2624 853c
00000130: 19fe 37bd f940 3abd d498 47bd 2420 aebc
00000140: 151d c73b 6711 82bd 0f65 23bd 6369 2e3d
00000150: 04ed 233d fa43 8b3c 69b6 bdbb 71bf 4cbd
00000160: b1ed af3c 03be a63c c2c7 11bd acf5 e5bb
00000170: 04b5 4d3d b63f 903b 19b4 96bb ce17 673d
00000180: 267e 50bd a042 4f3d 65a9 93bc 2412 e63c
00000190: 7787 a63b 85db 73bd 32d9 5f3c 220b 28bd
000001a0: a5ca 95bc efee 8ebd bb30 c93a 562b d23c
000001b0: 661c dc3b a45d 00bd a3f7 a1bd 5e81 38bb
000001c0: 044b b8bc 389a a2bd 3fc3 673d 1df9 4a3d
000001d0: d58f 9ebc 730b 123d 5503 c4bc 6188 95bc
000001e0: 248d 4cbd 5f37 3fbd 1179 083d 8f10 1a3c
000001f0: cc31 363c 1251 e5bb 268a aebd 8c34 45bc
00000200: a671 ad3c c608 b0bd cfe3 85bd 3598 12bd
00000210: f14c 1e3c a8a9 9dbd 8337 6c3b a668 4f3d
00000220: d19f db3c 6886 24bb e913 86bd f9ca 013d
00000230: 0da5 7abc 76a8 323d 4f9f 0cbb dab3 7fbd
00000240: 9b5c 3a3b 180f 51bd 18b4 b1bc 037e 043c
00000250: 338b 533d ca98 303d 8280 1b3d a2e1 7e3c
00000260: a5c6 32bd e9fc 2f3c f149 fc3c 8058 543c
00000270: 51ae 453d b2ea b6bb 6dcc 5d3d 383c 0bbd
00000280: 8240 043d e725 53bd 116e 6e3c b423 4fbd
00000290: 30b6 3cbb 661e ed3c bd3c 4b3c f466 f5bc
000002a0: 9b51 863d ecce 7abd 4a3f 933c 7866 34bd
000002b0: ab64 29bd ec2f 743c dba4 4d3d 5237 21bc
000002c0: 49bd 2cbc 248d 76bd 0c15 65bc fa71 83bd
000002d0: c062 4abd e329 bcba 42a9 9abd 0500 093a
000002e0: cec2 50bd dc9a 50bd 3003 a0bd 1c96 663c
000002f0: 60f3 f3bc abd7 54bc 6c0c 1f3c 0751 94bc
00000300: 4e06 26bd f136 f1bc 83bb ccbc 574c 5cbb
00000310: 1085 803c b0b9 403b bfc0 453d 8dfb 5e3d
00000320: 443a a0bd 0c11 3bbd da6d 813d 9a79 babc
00000330: 6a2a 553c 18fc 90bd b0ef 83bb db52 883c
00000340: e5bb 0bbd fe64 2ebd 1d93 49bd 6700 12bd
00000350: 86e4 6fbd ff27 fc3c 4381 2ebd 3f1a 92bd
00000360: 62b2 8fbc 5649 503c eb98 25bd dede 313d
00000370: f5ec 42bd 2793 76bd f38f adbb 1a32 9abb
00000380: 723c ed3c 7e39 98bd 5b16 ffbc 2fe2 313d
00000390: 7017 2dbd 90cf 2cbd 8920 943c fab3 1fbc
000003a0: 3b83 ca3c 53d2 48bd cfbe 923a ebd7 54bd
000003b0: 24f2 a6bd fa99 93bd 23a0 b43c fa86 f13c
000003c0: caaa b5bd 1918 3fbd bd0e 013d 9e8e 193d
000003d0: 9f19 5bbd 4c19 88bb a2ce 2abd e737 e2ba
000003e0: 0de7 503d 04f5 213c 2d91 bd3c 393a a3bb
000003f0: 6c8d 25bd 8576 533d 792a 323d 809f 90bc

bn2.running_mean f4 [4]
-0.85654086 -1.0920864 -0.9588537 -0.39582288
00000000: 4346 5bbf 7dc9 8bbf 7077 75bf 4ca9 cabe

bn2.running_var f4 [4]
1.7663819 1.8049475 1.3812298 1.7988902
00000000: cd18 e23f 8508 e73f 23cc b03f 0942 e63f

fc1.weight f4 [32, 196]
0.060067672 0.006289895 0.041850563 -0.013871707 0.023528924 0.0035084933 -0.017194025 -0.062874556
0.060202498 -0.031928554 -0.063184686 -0.054826014 -0.050287385 -0.034853444 0.017433595 -0.034301154
-0.0039026502 0.051808517 0.015230285 -0.047830295 0.0015976421 0.021371245 0.062111642 -0.06419321
-0.01379009 0.029339816 0.06568603 0.023968875 -0.0028756033 0.0018137114 0.042918637 0.05604268
-0.01805046 0.07625738 0.056383006 -0.0059995977 0.06304394 -0.06696925 0.020749941 0.008531525
0.030754523 -0.049347706 0.011106977 -0.051305644 0.018752947 -0.008872766 -0.0055925464 0.0044447943
0.06272074 0.011381917 -0.042730756 -0.050661985 0.025824277 0.026305044 0.052402128 0.05358399
-0.032154426 0.06155821 -0.014530785 -0.033089332 0.047644023 -0.07082929 -0.020577453 -0.0136476215
-0.03868505 0.060429104 -0.070746824 0.042476308 -0.0014200417 -0.01972768 0.04637792 -0.008118984
0.044112615 -0.063984014 0.0065147816 0.052290674 -0.05663322 -0.026506355 0.05766523 0.048214257
-0.018967351 -0.04020046 0.011210507 -0.06810256 -0.058514714 0.05094763 0.05328423 -0.06256913
0.0077036247 -0.001050462 0.031078832 -0.027606308 -0.03545998 0.01872603 -0.047109205 -0.025989106
-0.010136265 -0.03340434 -0.047201186 0.057581555 0.05880996 0.02956669 0.023812592 0.034082044
0.02182719 0.05594872 -0.055100374 0.06267932 -0.003828115 0.01567961 0.06486668 0.058154814
-0.014069653 -0.053168222 -0.04277515 -0.010235259 0.024695573 -0.030863062 -0.027322479 -0.000318752
0.068281226 -0.058979217 -0.06260539 0.033400644 -0.064927444 -0.04846548 -0.03227973 -0.06801531
0.039250392 0.047834788 -0.0229295 0.020980258 0.055187516 -0.06894169 -0.07207893 -0.065855235
-0.06755276 -0.03518533 -0.019774843 0.045855213 -0.016835818 0.018799283 0.06531235 -0.048941858
0.024248263 0.0021122256 -0.06107434 -0.016068188 -0.058484398 0.040450733 0.05546705 0.05109122
-0.046472885 -0.035888236 -0.07443505 0.05483556 -0.0070810737 -0.055999365 0.027026407 -0.021289766
0.053005442 0.056350976 0.06474807 0.06265805 -0.05366792 0.03358081 0.0023558452 -0.026585545
-0.061136413 -0.05497341 -0.025936857 -0.0028906849 -0.019319542 -0.030022271 0.068286866 0.05694908
0.047332153 -0.041355778 -8.708957e-05 0.038677104 -0.05411683 -0.054243322 0.05340603 0.0008997012
0.017063262 -0.01999799 0.03641236 -0.016276427 0.057029612 0.046291847 0.0041847136 0.031534154
0.007772162 0.0047012432 0.04891618 0.042855054 0.05151177 0.04778439 0.052989323 -0.0023785648
0.04498305 -0.04771304 -0.015831096 -0.06670363 0.06306194 -0.03769057 0.049326304 -0.036067814
-0.0709985 0.072403975 0.06316244 -0.0032055497 0.055227898 0.053360365 -0.011058816 -0.06354639
-0.029886082 -0.043422073 0.06771183 -0.0340303 -0.055668633 0.027626485 0.069596075 0.05686721
-0.055910777 -2.7835375e-05 -0.044181738 -0.004171733 -0.031270877 -0.06477157 -0.039416082 -0.035629697
0.060567465 0.0024893412 0.015196013 -0.0058715413 -0.0012428522 0.08864131 0.07576796 0.033545796
0.058689293 -0.03134333 -0.029719546 0.0666856 -0.03075497 0.021398604 -0.054778975 -0.042934112
0.016780116 -0.003996329 0.020429617 -0.06713042 0.008570217 0.025799606 -0.06710761 0.06336598
00000000: 8509 763d 771b ce3b 7f6b 2b3d 2846 63bc
00000010: bbbf c03c c0ee 653b 7cda 8cbc 60c4 80bd
00000020: e596 763d 84c7 02bd f966 81bd 3e91 60bd
00000030: 25fa 4dbd 7cc2 0ebd e6d0 8e3c 5e7f 0cbd
00000040: 9bc3 7fbb 2b35 543d 7288 793c b3e9 43bd
00000050: f967 d13a c012 af3c c768 7e3d bb77 83bd
00000060: d4ef 61bc 0e5a f03c 6686 863d 605a c43c
00000070: 9e74 3cbb 0eba ed3a 74cb 2f3d 028d 653d
00000080: 8fde 93bc d42c 9c3d def1 663d 4698 c4bb
00000090: 2e1d 813d 2d27 89bd c8fb a93c cfc7 0b3c
000000a0: e9f0 fb3c d220 4abd 0afa 353c de25 52bd
000000b0: c89f 993c 145f 11bc ae41 b7bb a3a5 913b
000000c0: bb73 803d 387b 3a3c 7206 2fbd f182 4fbd
000000d0: 6f8d d33c ad7d d73c 9da3 563d e37a 5b3d
000000e0: 5cb4 03bd 7624 7c3d 8812 6ebc ae88 07bd
000000f0: 6126 433d f20e 91bd 0c92 a8bc 469a 5fbc
00000100: 3774 1ebd 8284 773d b6e3 90bd a3fb 2d3d
00000110: b120 baba f29b a1bc c6f6 3d3d 7d05 05bc
00000120: 6eaf 343d 0d0a 83bd f379 d53b bf2e 563d
00000130: 3cf8 67bd db23 d9bc 6032 6c3d 507c 453d
00000140: 6b61 9bbc 3da9 24bd 46ac 373c 5b79 8bbd
00000150: 20ad 6fbd 76ae 503d 9140 5a3d 3e24 80bd
00000160: b06e fc3b a8af 89ba 0999 fe3c a026 e2bc
00000170: 7c3e 11bd 5567 993c 95f5 40bd 1be7 d4bc
00000180: 9412 26bc fdd2 08bd 0856 41bd a3da 6b3d
00000190: b6e2 703d d835 f23c a012 c33c 9d99 0b3d
000001a0: efce b23c 7c2a 653d eeb0 61bd 045e 803d
000001b0: 1de1 7abb 8772 803c d2d8 843d be33 6e3d
000001c0: 6784 66bc ecc6 59bd ff34 2fbd cab1 27bc
000001d0: 5f4e ca3c 88d4 fcbc 64d3 dfbc 2b1e a7b9
000001e0: 07d7 8b3d 3194 71bd 4137 80bd 1dcf 083d
000001f0: aef8 84bd bd83 46bd c037 04bd 9c4b 8bbd
00000200: 05c5 203d 69ee 433d a6d6 bbbc cade ab3c
00000210: 4e0c 623d 4d31 8dbd 1e9e 93bd 1cdf 86bd
00000220: 1a59 8abd 7e1e 10bd dafe a1bc add2 3b3d
00000230: 45eb 89bc f400 9a3c 7bc2 853d 4277 48bd
00000240: 4ba4 c63c 446d 0a3b 1629 7abd 6fa1 83bc
00000250: 568d 6fbd abaf 253d 6b31 633d 0745 513d
00000260: 5a5a 3ebd 8bff 12bd 6771 98bd 419b 603d
00000270: 5a08 e8bb 975f 65bd 7c66 dd3c e067 aebc
00000280: 3c1c 593d 48d0 663d a39a 843d dd52 803d
00000290: e5d2 5bbd 088c 093d 8664 1a3b eec9 d9bc
000002a0: 2d6a 7abd cc2b 61bd 8879 d4bc a571 3dbb
000002b0: 0444 9ebc 44f1 f5bc fcd9 8b3d 7043 693d
000002c0: 5cdf 413d ad64 29bd dba3 b6b8 e26b 1e3d
000002d0: 9ca9 5dbd 3f2e 5ebd 48c0 5a3d edd9 6b3a
000002e0: 41c8 8b3c d3d2 a3bc 2025 153d 2456 85bc
000002f0: e297 693d 859c 3d3d ec1f 893b f529 013d
00000300: 9fad fe3b e30c 9a3b 555c 483d c888 2f3d
00000310: 01fe 523d 91b9 433d 550b 593d b2e1 1bbb
00000320: 2640 383d c06e 43bd 37b0 81bc ea9b 88bd
00000330: 9e26 813d 6d61 1abd 610a 4a3d d8bb 13bd
00000340: a967 91bd 8948 943d 4f5b 813d 3314 52bb
00000350: a636 623d 6690 5a3d 0930 35bc 9c24 82bd
00000360: a8d3 f4bc 58db 31bd 80ac 8a3d 5b63 0bbd
00000370: cb04 64bd f050 e23c 6388 8e3d 97ed 683d
00000380: b302 65bd 0380 e9b7 e9f7 34bd 08b3 88bb
00000390: e415 00bd f5a6 84bd c272 21bd 72f0 11bd
000003a0: 9715 783d 3724 233b b3f8 783c 0f66 c0bb
000003b0: 33e7 a2ba 9389 b53d 3b2c 9b3d 5167 093d
000003c0: 2f64 703d dd61 00bd 6876 f3bc 7692 883d
000003d0: d9f1 fbbc 204c af3c eb5f 60bd aedb 2fbd
000003e0: 7476 893c a3f3 82bb 035c a73c ac7b 89bd
000003f0: 186a 0c3c b259 d33c b76f 89bd 06c6 813d

deconv1.weight f4 [2, 4, 5, 5]
-0.035533868 0.014660178 0.088971026 0.03670133 0.07834671 -0.07976789 -0.033555225 0.06065971
-0.038269274 -0.087055944 0.081595354 -0.0036423905 0.023553832 0.095068395 0.06956176 0.09717352
-0.042442407 -0.06397448 0.011304489 -0.072583035 0.03377675 0.022646321 0.027746163 -0.036218394
-0.04388103 0.046768546 0.045927327 -0.00083263684 0.084109746 0.0056141345 -0.025155004 -0.055578567
0.08925003 0.049629353 -0.010869875 -0.016394425 -0.072422065 0.039546054 -0.017230606 0.056327563
0.10766625 -0.030155491 -0.012214492 0.050320357 0.07747505 0.08047548 0.04491604 0.0068701333
-0.0811115 -0.11300034 -0.05928601 0.010505507 -0.06851736 -0.008336582 0.04114171 -0.077734396
-0.11382782 -0.0195048 0.03293256 -0.04352505 -0.030254006 -0.011216708 -0.0072237295 0.077048816
0.08519602 -0.024338495 0.0674663 0.044580303 -0.021176167 -0.00017265079 0.004949049 0.08005725
0.017553676 0.017840536 0.053803712 0.017032482 -0.02858485 0.04224396 0.008421684 0.108427465
-0.03738822 -0.0013303526 0.0978281 0.08171038 -0.06878375 0.090063415 0.08574948 -0.032581694
-0.025207981 -0.003250257 0.025299333 -0.08010604 -0.06002246 0.007188591 -0.0016342169 -0.02493013
0.027111648 0.044969983 -0.0233948 0.073848896 0.017426895 0.040497757 -0.07937277 0.07697102
0.05450103 0.025236456 0.014107738 -0.007660295 -0.052925672 0.052986335 0.066401616 0.03141651
0.017994463 0.0651606 0.0004500139 -0.033153944 0.05923516 0.044403125 -0.03103851 -0.0049035074
0.020485027 -0.1068402 -0.011947666 -0.062091526 -0.02485237 0.02033046 -0.08180177 0.01892225
-0.004290311 -0.0019290264 0.10428352 0.09044502 0.026555711 0.013303062 -0.027998706 0.064025
-0.1138508 -0.046973262 0.02714002 -0.017179582 -0.01120991 -0.014261474 0.0827726 0.07511541
-0.06986876 0.09924616 -0.016165324 0.027171463 0.06079842 0.100388065 0.05620708 -0.02110632
0.0473243 8.14074e-05 0.07094249 0.060242232 0.07466266 -0.017673988 0.06807241 -0.04186989
0.041867338 0.014071872 0.064406835 -0.08220703 0.02844069 0.066885844 0.00895169 0.005187283
0.009544459 0.06107442 0.09721468 0.009383266 0.013722087 0.047395527 0.09664596 -0.013952357
-0.08550989 -0.05967098 0.12979947 0.038825218 -0.14387809 0.012195272 0.02012545 -0.06868306
0.04234579 -0.08752669 0.029788325 -0.025059765 0.03988161 -0.008483609 -0.014956276 0.0040180697
-0.063283056 0.015180293 -0.01665093 -0.06399467 0.0744943 0.056786425 -0.008077235 -0.039775256
00000000: f68b 11bd 3e31 703c 7136 b63d 2254 163d
00000010: 3d74 a03d 595d a3bd 3471 09bd 5176 783d
00000020: 3ec0 1cbd 634a b2bd 771b a73d 2cb5 6ebb
00000030: f7f3 c03c 38b3 c23d 6576 8e3d e902 c73d
00000040: 17d8 2dbd 0d05 83bd 7736 393c 6aa6 94bd
00000050: 7d59 0a3d c784 b93c ec4b e33c bd59 14bd
00000060: 98bc 33bd 6090 3f3d 4b1e 3c3d 5045 5aba
00000070: bb41 ac3d c6f6 b73b de11 cebc 5aa6 63bd
00000080: b8c8 b63d 2648 4b3d 8f17 32bc 9a4d 86bc
00000090: 0552 94bd 0bfb 213d 3327 8dbc bbb7 663d
000000a0: 1f80 dc3d a608 f7bc 4b1f 48bc b81c 4e3d
000000b0: 3dab 9e3d 54d0 a43d e2f9 373d db1e e13b
000000c0: c91d a6bd b96c e7bd e3d5 72bd 4a1f 2c3c
000000d0: d452 8cbd 2996 08bc 3684 283d 3633 9fbd
000000e0: 8f1e e9bd 88c8 9fbc 4be4 063d 5347 32bd
000000f0: 40d7 f7bc 49c6 37bc 09b5 ecbb c5cb 9d3d
00000100: 407b ae3d 8661 c7bc c62b 8a3d d699 363d
00000110: a479 adbc 9809 35b9 a22b a23b 0ef5 a33d
00000120: bacc 8f3c 5126 923c 4861 5c3d b487 8b3c
00000130: c62a eabc 0108 2d3d 1afb 093c 380f de3d
00000140: 6424 19bd 3a5f aeba 195a c83d c657 a73d
00000150: 7fde 8cbd 2b73 b83d 6c9d af3d 6274 05bd
00000160: f880 cebc 4402 55bb 8c40 cf3c a30e a4bd
00000170: 1cda 75bd 468e eb3b 3833 d6ba 463a ccbc
00000180: 3f19 de3c 7232 383d 74a6 bfbc 173e 973d
00000190: d9c2 8e3c fae0 253d 318e a2bd fba2 9d3d
000001a0: 793c 5f3d afbc ce3c 2424 673c 3603 fbbb
000001b0: 97c8 58bd 3308 593d 92fd 873d 99ae 003d
000001c0: 2069 933c ec72 853d d8ef eb39 6ecc 07bd
000001d0: 91a0 723d 0de0 353d 7944 febc 9aad a0bb
000001e0: 37d0 a73c 09cf dabd 25c0 43bc af53 7ebd
000001f0: 3397 cbbc 118c a63c b087 a7bd d602 9b3c
00000200: bd95 8cbb 63d7 fcba 9992 d53d 3d3b b93d
00000210: 5d8b d93c 16f5 593c 8b5d e5bc 8a1f 833d
00000220: 9c2a e9bd 0967 40bd bf54 de3c 32bc 8cbc
00000230: c5a9 37bc f5a8 69bc ae84 a93d 1cd6 993d
00000240: 5a17 8fbd 9241 cb3d 246d 84bc b096 de3c
00000250: c407 793d 4298 cd3d 6539 663d 29e7 acbc
00000260: 20d7 413d 44b9 aa38 4c4a 913d 8fc0 763d
00000270: bde8 983d 0ac9 90bc 8c69 8b3d c37f 2bbd
00000280: 167d 2b3d b68d 663c bbe7 833d 295c a8bd
00000290: 73fc e83c 72fb 883d 1caa 123c 15fa a93b
000002a0: 5d60 1c3c 2c29 7a3d 7d18 c73d 45bc 193c
000002b0: 9bd2 603c d021 423d 51ee c53d 6d98 64bc
000002c0: cf1f afbd 8f69 74bd 27ea 043e 3107 1f3d
000002d0: c754 13be aece 473c 21de a43c b4a9 8cbd
000002e0: c772 2d3d 3141 b3bd a506 f43c 234a cdbc
000002f0: e65a 233d d6fe 0abc 2b0b 75bc 03aa 833b
00000300: 8c9a 81bd c3b6 783c 8867 88bc a30f 83bd
00000310: 7890 983d e298 683d 6156 04bc 61eb 22bd

bn3.running_mean f4 [4]
0.170366 0.27819726 0.20744766 0.16331755
00000000: 6d74 2e3e df6f 8e3e 296d 543e b73c 273e

bn3.running_var f4 [4]
0.056590397 0.049224555 0.08420858 0.034448635
00000000: 55cb 673d b09f 493d 8c75 ac3d 031a 0d3d

deconv2.weight f4 [4, 8, 5, 5]
0.031128658 -0.022764327 0.06751384 0.032808658 0.084506065 0.0138592655 -0.002937188 -0.04524389
0.029582614 0.025643565 -0.033574402 0.0014601025 -0.04044916 0.020593006 -0.03654886 -0.0071457275
-0.033370156 0.03712082 0.053962592 -0.05698923 -0.016595207 0.0013598575 0.01706971 -0.0011169594
0.0030464896 0.0075105326 0.04817583 0.065609075 -0.020517401 0.0021500879 0.075653195 0.01151314
0.019523293 0.021089116 0.020837702 -0.01693351 -0.0117649315 0.06631347 -0.011546919 -0.022471085
0.010718247 0.058714002 0.06438883 -0.029456599 0.0664483 0.012974367 -0.020613946 0.05869941
0.01569964 -0.046114784 -0.04197631 -0.07390841 0.03245281 0.010065924 -0.0067929043 0.05027089
0.0023797343 -0.042995255 0.04321489 -0.003238828 0.014066168 0.01856461 0.021503659 0.03513359
-0.033958055 -0.013857082 -0.018945388 0.023906026 -0.057572775 -0.049523912 -0.0005555917 0.03250509
0.040107597 -0.03451239 -0.02569733 0.020144705 0.030939886 0.050194103 0.003872282 -0.009127914
-0.028138135 0.033287607 -0.02216424 -0.0032555813 0.012844526 0.040969983 -0.040908687 0.024327472
-0.0048890836 -0.005150772 0.015642408 0.019405011 0.042451367 -0.049821172 0.022631673 -0.016397145
-0.022563992 0.058689985 0.044388283 -0.036857966 0.087756306 0.046917997 0.07194842 0.044083726
0.07238659 -0.0022457275 -0.059623826 -0.034679037 -0.010019489 -0.056336924 0.0028238576 -0.07116222
-0.0140439095 0.060127713 0.026869327 0.0770362 0.063330434 0.005955851 0.029967016 0.0325916
0.009399174 0.053321064 0.054143358 0.015598419 -0.02983626 -0.05404845 -0.02896654 0.05975
0.038469832 -0.026270833 0.04951995 0.019402778 -0.024474548 -0.025790174 -0.05094299 -0.08148265
0.02378333 0.07241597 -0.06759552 -0.028729215 0.026636828 0.023812247 -0.023634704 0.018622331
-0.01765584 -0.020147605 -0.003412732 0.048250273 -0.02875302 -0.064864986 0.0320703 0.026381262
0.012637493 0.018284444 0.028720703 0.03987335 -0.011778248 0.0617932 -0.036468267 -0.02808415
-0.06361317 0.019937234 0.031790525 0.060868002 -0.01707212 0.066249326 0.013799685 -0.061135978
-0.043430418 0.054813396 -0.05997519 -0.04359382 -0.010608856 -0.027424673 -0.013427364 -0.0585095
0.00039977403 -0.055333115 0.05804058 0.057204563 0.036864866 -0.003546297 0.03028607 0.028621208
0.0063371607 -0.026082054 0.04244993 -0.004023811 0.010072438 -0.012262435 -0.041682187 0.06742306
-0.00037939244 -0.024170855 0.03207351 0.012239406 -0.038142502 0.049806863 0.02903187 -0.044179387
0.064445406 0.071965665 -0.01847029 0.019637827 -0.022912238 -0.04230501 0.026648154 -0.05660068
-0.00061709806 -0.075327575 -0.0047302754 0.07535218 0.025728505 0.007710281 0.005287636 0.06597631
-0.014630519 -0.035396893 -0.020139422 0.028135056 0.047582667 -0.03207367 0.028499065 0.027614683
0.024280747 -0.03741719 0.03128705 0.058089662 -0.02772488 0.04070379 -0.018266864 0.07585243
0.06747492 0.07355482 0.05704263 -0.05068395 -0.024285903 -0.052214064 0.0840189 -0.0333511
-0.07515292 -0.06818097 -0.03010898 -0.023775162 0.059580516 -0.049169958 -0.07925936 -0.039052926
-0.011966246 0.046454772 -0.036727678 -0.048565097 -0.0505163 -0.013607389 -0.037367903 0.03126935
00000000: 8701 ff3c 417c babc b244 8a3d 5f62 063d
00000010: 8411 ad3d f911 633c d67d 40bb a851 39bd
00000020: 3d57 f23c 7412 d23c 5085 09bd e960 bf3a
00000030: 05ae 25bd aab2 a83c 42b4 15bd b526 eabb
00000040: 25af 08bd 000c 183d e107 5d3d 8a6d 69bd
00000050: acf2 87bc 3f3d b23a c7d5 8b3c f066 92ba
00000060: 9da7 473b ea1a f63b 0554 453d 0d5e 863d
00000070: 1c14 a8bc 7de8 0c3b 10f0 9a3d 9ca1 3c3c
00000080: 50ef 9f3c 15c3 ac3c d4b3 aa3c 25b8 8abc
00000090: b3c1 40bc 5bcf 873d 4a2f 3dbc 4815 b8bc
000000a0: 969b 2f3c 187e 703d 4ade 833d f74e f1bc
000000b0: 0c16 883d 7092 543c 94de a8bc cb6e 703d
000000c0: 889c 803c dbe2 3cbd 5aef 2bbd 4b5d 97bd
000000d0: 3ded 043d 8ceb 243c 0397 debb d9e8 4d3d
000000e0: 51f5 1b3b cb1b 30bd 1902 313d 8442 54bb
000000f0: c975 663c cf14 983c 7128 b03c 3de8 0f3d
00000100: 9a17 0bbd d108 63bc 5c33 9bbc 92d6 c33c
00000110: 6ed1 6bbd 96d9 4abd 21a5 11ba 0f24 053d
00000120: dd47 243d dd5c 0dbd 3583 d2bc 8206 a53c
00000130: a575 fd3c 5598 4d3d 1dc6 7d3b 3f8d 15bc
00000140: f281 e6bc 9658 083d c891 b5bc 975b 55bb
00000150: d971 523c 24d0 273d de8f 27bd 684a c73c
00000160: 9b34 a0bb cfc7 a8bb 8224 803c 42f7 9e3c
00000170: 7ce1 2d3d 4911 4cbd 0f66 b93c 4e53 86bc
00000180: 1fd8 b8bc e964 703d 7dd0 353d 61f8 16bd
00000190: 94b9 b33d 162d 403d b159 933d 2391 343d
000001a0: 6c3f 943d 0e2d 13bb 1d38 74bd 9b0b 0ebd
000001b0: c828 24bc 8cc1 66bd 7810 393b 7fbd 91bd
000001c0: 6d18 66bc 7a48 763d 101d dc3c 28c5 9d3d
000001d0: 63b3 813d 4d29 c33b 637d f53c c57e 053d
000001e0: fefe 193c 3067 5a3d 6dc5 5d3d 8390 7f3c
000001f0: 2c6b f4bc e861 5dbd 3d4b edbc 6abc 743d
00000200: 8b92 1d3d ee35 d7bc 6ed5 4a3d 93f2 9e3c
00000210: d97e c8bc ea45 d3bc 99a9 50bd 60e0 a6bd
00000220: 42d5 c23c d34e 943d 856f 8abd 8859 ebbc
00000230: 7a35 da3c e711 c33c 919d c1bc dc8d 983c
00000240: fba2 90bc 970c a5bc 24a8 5fbb 14a2 453d
00000250: 748b ebbc efd7 84bd 265c 033d 841d d83c
00000260: 7d0d 4f3c 42c9 953c ae47 eb3c 3d52 233d
00000270: 8df9 40bc de1a 7d3d c05f 15bd bb10 e6bc
00000280: 9f47 82bd 6953 a33c c836 023d ba50 793d
00000290: d5da 8bbc baad 873d 1318 623c b869 7abd
000002a0: 18e4 31bd 0384 603d 8ba8 75bd 6f8f 32bd
000002b0: c4d0 2dbc b5a9 e0bc 72fe 5bbc a8a7 6fbd
000002c0: c398 d139 faa4 62bd f6bb 6d3d 554f 6a3d
000002d0: 9dff 163d fe68 68bb 7e1a f83c 0677 ea3c
000002e0: f5a7 cf3b 08aa d5bc fadf 2d3d 2cda 83bb
000002f0: de06 253c 61e8 48bc f1ba 2abd 1a15 8a3d
00000300: 31e9 c6b9 f501 c6bc 835f 033d ca87 483c
00000310: 503b 1cbd 4802 4c3d 3fd4 ed3c 72f5 34bd
00000320: f4fb 833d bc62 933d 014f 97bc 82df a03c
00000330: 72b2 bbbc 0548 2dbd 3b4d da3c 1dd6 67bd
00000340: c0c4 21ba 5845 9abd 6d00 9bbb 3e52 9a3d
00000350: 96c4 d23c 86a6 fc3b e843 ad3b 961e 873d
00000360: d8b4 6fbc 55fc 10bd 6efb a4bc 7d7b e63c
00000370: 0be6 423d ae5f 03bd df76 e93c 3038 e23c
00000380: 6be8 c63c c442 19bd da26 003d 6def 6d3d
00000390: 4a1f e3bc 04b9 263d 64a4 95bc 8558 9b3d
000003a0: 4a30 8a3d e9a3 963d 88a5 693d f999 4fbd
000003b0: 3bf3 c6bc 6ade 55bd 1a12 ac3d 2a9b 08bd
000003c0: c6e9 99bd 77a2 8bbd 1ca7 f6bc 21c4 c2bc
000003d0: b30a 743d 7066 49bd bb52 a2bd f6f5 1fbd
000003e0: 130e 44bc 5c47 3e3d c36f 16bd 32ec 46bd
000003f0: 2eea 4ebd 87f1 5ebc 160f 19bd 4a14 003d

bn4.running_mean f4 [8]
0.15280998 0.4263436 -0.5519476 0.12081136 0.14104334 -0.4865018 0.08210781 0.17497334
00000000: 387a 1c3e b549 da3e 704c 0dbf f26b f73d
00000010: aa6d 103e c416 f9be 2428 a83d 362c 333e

bn4.running_var f4 [8]
0.070661396 0.25005436 0.15393314 0.035024665 0.08354729 0.13344647 0.0651894 0.059663873
00000000: ecb6 903d 2007 803e a6a0 1d3e 0676 0f3d
00000010: d71a ab3d 31a6 083e 0582 853d 1b62 743d
