log/mnist_test_class_8/model.tar (torch, 71258 bytes, 21 tensors)

conv1.weight f4 [8, 1, 5, 5]
000000 69 1e 02 be 69 46 6a 3d 07 e2 41 3e 6a d9 27 3e
       -0.12706913 0.057196055 0.18933879 0.1639153
000010 0d 52 f9 3d 23 e4 de bd bf a6 99 3d ea b3 07 be
       0.12173853 -0.108833574 0.075025074 -0.13252226
000020 62 df 2b 3d d4 95 39 3e 04 e0 30 3e 39 04 97 bd
       0.04196108 0.18123561 0.17272955 -0.07373852
000030 ec 69 4c 3e 8d 89 96 3d fb fa 0e 3e 3d ea 03 be
       0.19962281 0.073504545 0.13962929 -0.12882324
000040 ca 9a 2d 3e 97 7f 2a 3d 7c 1b 0e 3e 4d 42 f4 3d
       0.16953579 0.041625585 0.13877672 0.11926708
000050 48 c3 f3 bd b4 89 2d bd 98 5a a0 bc 6f bd 13 be
       -0.11902481 -0.042367652 -0.019574448 -0.14427732
000060 0c ef 99 bd 28 f6 48 3e 23 81 4c 3d b3 1e 35 bd
       -0.07516298 0.19625151 0.049927842 -0.04421873
000070 a2 a1 56 3e 93 d5 80 bd 96 e1 e1 bc 56 a9 3b 3e
       0.20960096 -0.06290736 -0.027573388 0.18326315
000080 2b 2d a7 3d 3f e7 df 3d e5 05 17 be f3 ee 00 3e
       0.08162912 0.109327786 -0.14748342 0.12591152
000090 95 55 84 3d 2f d3 04 3e a0 94 51 3d a4 de 00 bd
       0.06461636 0.12971185 0.05116713 -0.031462327
0000a0 e9 e9 fc bd 7a 66 33 3e 4a 19 58 bd 68 b8 ab 3c
       -0.12349302 0.1751956 -0.052758493 0.020961955
0000b0 a3 aa 2e 3e 1b f4 cc 3d 7f b2 03 be 53 9a 7f bd
       0.1705728 0.10007497 -0.1286106 -0.062403034
0000c0 44 4d 85 3c 0c ef 3a 3a 2a 25 89 bd 6c 45 e0 bc
       0.016272195 0.00071309577 -0.066965416 -0.027376853
0000d0 1f 54 07 3e 90 4d 70 bc bb 47 26 be da 65 ab 3d
       0.13215683 -0.01466693 -0.162383 0.08369036
0000e0 e9 7f 0b be 4a 85 57 bc 34 9c ed bd 36 98 09 3e
       -0.13623013 -0.013154337 -0.11602059 0.1343697
0000f0 d9 6a de bd 7a 2d ad 3d 92 ee fd ba 29 40 57 3e
       -0.10860223 0.084559396 -0.0019373468 0.21020569
000100 69 7e a7 bd 26 3f 4b 3e c6 11 f6 bd 1a 90 1b 3e
       -0.08178408 0.19848308 -0.12015109 0.15191689
000110 59 f2 9e bd 37 44 3c bc 9b 8f 90 3d a9 f2 00 3e
       -0.07761068 -0.011490873 0.070586406 0.12592568
000120 1b ec 64 3e 45 e5 0c 3e 2c 30 06 bd cd 09 01 3e
       0.22355692 0.13759334 -0.032760784 0.12601395
000130 a1 97 4d 3d af 86 34 3e 0a 2e 3b 3e e1 b7 23 be
       0.050193433 0.17629503 0.18279281 -0.15988113
000140 93 da 79 bc ae 67 d6 3d df 57 f2 ba 4e e8 04 be
       -0.015249866 0.10468994 -0.0018489322 -0.12979242
000150 1d d4 0e 3d de d3 ec bc 00 00 39 3d da 85 b9 3d
       0.034870256 -0.02890962 0.045166016 0.09058733
000160 bb 87 2e 3e de e8 33 3e 7e 99 f0 3c ab 54 2d 3e
       0.17043965 0.175693 0.029370066 0.1692683
000170 a6 37 41 bd 7b 2d 22 3d 3e e7 3f 3e 9d c9 bb bd
       -0.04717221 0.039594155 0.18740556 -0.09169314
000180 49 5d 6d 3d 1c 60 d7 bb 26 8c 2a 3e ba fa a4 3d
       0.05795029 -0.0065727364 0.16655025 0.08055635
000190 3f 5d 15 3e 9f 41 63 3d 6b 2f 3a 3e ca 7c c1 bc
       0.14586352 0.055482503 0.18182151 -0.023619074
0001a0 dc 50 7f 3d a9 cd fb bc 16 81 b8 bd ed 76 54 3d
       0.062332973 -0.030737715 -0.09008996 0.05187123
0001b0 a9 b1 a0 3d 94 e6 4e 3e d1 f4 34 3e bf 8a 4c 3d
       0.07846386 0.20205146 0.17671515 0.049937006
0001c0 46 14 8f bb 93 6e 05 3e ab 8e 97 3d e2 03 d5 3d
       -0.0043664305 0.13030462 0.07400259 0.10401131
0001d0 61 a5 cb bb 0a 36 ed 3d 2b 97 4a 3d 0d b9 14 be
       -0.006214783 0.11582573 0.04946057 -0.14523716
0001e0 01 32 01 3e 56 e7 ed 3b c5 74 22 3e 6a 82 0b 3d
       0.12616731 0.0072602434 0.15864857 0.03405992
0001f0 35 a9 0e 3d 43 e2 34 3e 4e 36 51 3d c8 71 da bd
       0.034829337 0.17664437 0.05107718 -0.10666233
000200 ba a5 0b 3d 17 31 21 3e 2f dc 49 3d f7 e3 d3 3d
       0.034093596 0.15741383 0.04928225 0.10346215
000210 25 2e 33 3e 49 e1 63 bd 17 07 78 3d c1 5b 83 bd
       0.17498071 -0.05563477 0.060553636 -0.06413985
000220 3a 89 c9 3c 92 8a f4 bc bc 8a 2a 3d aa 65 26 3e
       0.024601568 -0.029851232 0.041636214 0.1624972
000230 dd f5 89 3d b9 48 85 3d 3a bb c9 3d a7 0d e9 bc
       0.06736348 0.06508011 0.09850164 -0.028448893
000240 ff 76 f0 3d 71 1a 5b 3d f4 26 1b 3d aa 4e 8e bb
       0.11741447 0.053492013 0.037878945 -0.0043428736
000250 9f 74 28 3e 55 dc 97 bd 38 38 17 3e df 4d 24 be
       0.16450737 -0.07415072 0.1476754 -0.1604533
000260 6a a1 3b bd f8 09 09 3e 19 ba 91 bd 11 ad 89 bd
       -0.045808233 0.13382709 -0.071155734 -0.06722463
000270 9e b7 e2 3c a6 10 30 bd 56 fb 1a be c3 1f 98 3d
       0.027675446 -0.042984627 -0.1513494 0.07427933
000280 0c 49 08 3d 07 ac 0a 3d 4b ca 2c 3d c9 bb 1f 3e
       0.033272788 0.033855464 0.04218511 0.15598978
000290 dc 84 0b be 5f ce df bc bc 11 e4 3d 72 bd 0b be
       -0.136249 -0.027320085 0.11136195 -0.13646486
0002a0 41 fa d8 3d e1 35 40 ba f3 76 1a 3e ce 81 40 3d
       0.10594607 -0.00073322473 0.15084438 0.04699879
0002b0 2a 80 68 3e dd 76 18 3e fd cc c2 3d c8 e1 a8 3d
       0.2270514 0.14889093 0.09511755 0.08246189
0002c0 3b 5c c3 3d 0a c5 70 3d ec f5 b3 3d db 91 51 3d
       0.09539076 0.05878166 0.0878714 0.05116449
0002d0 f1 8d 16 be ee 49 f9 bd 8c 41 b4 3d 76 f6 59 3d
       -0.14702584 -0.12172304 0.088015646 0.05321356
0002e0 57 64 b2 3d d2 11 02 be 08 fa 61 bd 90 5e 12 3d
       0.087105446 -0.1270211 -0.05517009 0.035734713
0002f0 7b 90 a0 3a 3a e2 4e 3e 73 86 b0 3d 39 44 39 3d
       0.001225009 0.20203486 0.08619394 0.045231078
000300 d4 11 fa bd 66 ff 06 3e 37 d2 21 bd 5d 88 5a bd
       -0.12210432 0.13183364 -0.039507117 -0.053352702
000310 96 e2 0f 3e 83 8e 43 3d 41 a3 04 be f8 f1 3f 3e
       0.1405128 0.04774333 -0.12952901 0.18744648

bn1.running_mean f4 [8]
000000 8a 41 86 3d a4 a1 92 3d 22 79 2a 3d e2 2c cd 3d
       0.06555469 0.07159737 0.041619428 0.10018326
000010 5f 1f e0 3d f6 83 b9 3d 85 79 49 3d 03 d3 46 3d
       0.109434836 0.09058373 0.049188156 0.04854108

bn1.running_var f4 [8]
000000 f7 f5 39 3c c1 9f 1a 3c 02 9f aa 3b af 01 77 3c
       0.0113501465 0.009437502 0.0052069435 0.015076085
000010 a2 9f 87 3c 56 e6 33 3c 92 da b1 3b 44 2a b2 3b
       0.016555611 0.010980209 0.005427667 0.0054371674

conv2.weight f4 [4, 8, 5, 5]
000000 a7 e0 a1 bb 5d 66 08 bd 51 82 3c bd 41 05 c1 3c
       -0.0049401107 -0.033300746 -0.046022717 0.023562076
000010 7e 39 57 3d 75 83 3d 3d 9d ed f6 bd dd 6a 62 bc
       0.052545063 0.046267945 -0.1205704 -0.0138194235
000020 11 69 7f bd de 6a ef 3c 01 76 b3 bb 02 5d b8 bd
       -0.06235606 0.029225763 -0.0054767136 -0.09002115
000030 33 2f 81 3c d4 73 21 3c c0 50 02 bc 06 16 6c 3c
       0.015769577 0.009854276 -0.007953823 0.014409548
000040 f3 96 63 bc ac 66 38 3c a8 4d 31 bc 65 e0 16 bd
       -0.01389097 0.011254948 -0.010821737 -0.036835093
000050 f4 36 70 3d 9a 2a 6c bc 9c 35 50 3d b1 5f d0 3c
       0.058646157 -0.014414454 0.050832376 0.025436254
000060 08 7d 55 3d a8 20 55 bd 9f 3c d6 bc 7f f8 cd bd
       0.052121192 -0.052033097 -0.026151953 -0.100571625
000070 33 16 32 bd dd b9 85 bd 67 e8 00 3d 15 45 2d 3c
       -0.043478202 -0.06529591 0.031471636 0.0105755525
000080 03 c1 67 3b 53 b5 d0 bd 7d e3 21 3b b5 1f d7 3c
       0.0035362847 -0.10190835 0.0024702244 0.026260236
000090 e2 cf 08 bd 9b c0 84 bd fa 9e cf 3c 30 8b 65 3d
       -0.033401377 -0.06482049 0.02534436 0.056040943
0000a0 5d 82 37 3d 9d ec a0 bc 64 01 19 3d 60 77 7e bd
       0.04480206 -0.019644076 0.03735484 -0.062125564
0000b0 b5 79 4c b8 42 15 c8 3c 16 c4 50 bd 59 54 f4 bc
       -4.875074e-05 0.024424199 -0.050968252 -0.029825376
0000c0 ba 37 58 bd c5 57 4d bd ba dc fb ba e8 21 50 bc
       -0.05278752 -0.05013253 -0.0019215562 -0.012703396
0000d0 e7 bb 30 bd b2 98 d5 3c 62 ec 3a bd e3 41 58 bd
       -0.043147948 0.026073787 -0.04563559 -0.05279721
0000e0 17 40 48 3d e4 0e 1c bd 7c b2 0c bb 31 92 fc bc
       0.048889246 -0.03810014 -0.002146869 -0.030831428
0000f0 25 48 e0 3c cd f0 56 3b 2c 76 41 bb b4 93 11 3d
       0.027378151 0.0032797337 -0.0029519899 0.03554125
000100 dc 0f ea bb 47 65 6d bd 9a b1 4a 3d a7 11 54 3d
       -0.007143004 -0.057957914 0.04948578 0.051774647
000110 63 8d 4f 3d fd 11 38 3d 7a ac 34 3d 83 b5 ac 3c
       0.050671946 0.04493903 0.0441098 0.021082645
000120 57 01 11 3d d8 41 ba 3b cf e1 29 3c 9b 89 06 3c
       0.03540167 0.0056841187 0.010368778 0.008211519
000130 c0 dd 71 bd 4b ea 85 bd ce 95 db bc b6 25 7b 3b
       -0.059049368 -0.065388285 -0.02680483 0.0038322038
000140 63 41 5e 3c ec ec 7b bd e2 41 8c bd c5 3a 60 3d
       0.013565394 -0.061505243 -0.06848504 0.054743547
000150 2b a7 54 3d b8 b3 b4 3c 31 0a 72 bb 52 b6 96 bd
       0.051917236 0.022058353 -0.0036932344 -0.073589936
000160 49 72 db 3c 64 e1 f9 3c fd 48 5e bd 81 fb c8 bc
       0.026787894 0.030502982 -0.054268826 -0.024533989
000170 44 d8 1b 3d e5 e2 7b bc b5 61 89 bc 90 33 15 3d
       0.038048044 -0.01537392 -0.016770223 0.036426127
000180 f1 ff 76 bd 9c 70 f3 3c a2 40 0e bd ec 5f 96 3b
       -0.06030268 0.029716782 -0.034729607 0.0045890715
000190 30 34 0e 3c 88 b5 91 bd 03 77 b9 bc 8d 01 5e bd
       0.008679435 -0.071147025 -0.022639757 -0.054200698
0001a0 80 82 9f 3c 5f b4 8f bd 5c c2 8b bc a3 e3 09 3b
       0.019471407 -0.07016825 -0.017060451 0.0021040223
0001b0 09 e2 0a 3c 46 51 21 bc 2f 5b bb bd f3 aa 73 bc
       0.008476743 -0.009846037 -0.09148251 -0.0148723
0001c0 8d fc 46 bd 5a 23 b6 bd 13 36 6a 3d f8 89 27 3d
       -0.048580695 -0.088934615 0.057180475 0.04090306
0001d0 ae 98 0c bd 41 05 af 3c 08 bf aa bc 8a 8d 0c bd
       -0.034325294 0.02136481 -0.020843044 -0.03431467
0001e0 4c 1b b9 bd e3 8a 87 bd 74 59 91 3c 57 8d 75 3b
       -0.090384096 -0.066182874 0.01774285 0.0037468278
0001f0 19 d3 9e bc 6c d2 6d bc 2b f5 d8 bd 4b 9c 34 bd
       -0.019387769 -0.0145155005 -0.10593637 -0.044094365
000200 2d fd 7d 3c 23 43 44 bd a5 e4 8a bd e6 6f 46 bd
       0.015502256 -0.04791559 -0.06781892 -0.04844656
000210 3e d1 37 bc c3 32 9a bd 53 98 a5 3c 30 ab 1f 3d
       -0.011219321 -0.07529213 0.020214235 0.038981616
000220 20 51 42 3c 98 0a fe bc 89 16 a7 bd ec cc c8 3c
       0.011860162 -0.03101091 -0.08158595 0.024511777
000230 fd 83 e7 bc 0c 62 04 3d 4e 93 78 bc ac 2b 84 bd
       -0.02826118 0.032320067 -0.015171839 -0.06453642
000240 32 df 85 bc 7a c0 b0 bd a1 14 48 bd 31 34 92 bc
       -0.01634178 -0.08630462 -0.0488478 -0.017847152
000250 f2 b0 d1 3c c4 03 6b 3b c3 db 4e 3c ca fc c2 bc
       0.02559707 0.0035860399 0.012625637 -0.02380218
000260 2c 9a b6 bd 64 6d 67 bc 5e 2f ff 3c 43 e5 9d bc
       -0.08916125 -0.014125202 0.031150516 -0.01927436
000270 ed d0 21 3d d1 83 e3 b9 83 11 1d 3d 84 86 0e bd
       0.039505888 -0.00043395025 0.03834678 -0.034796253
000280 85 ff 7b 3c 69 8b 3d bd 89 69 f4 3c 70 f5 26 bd
       0.015380745 -0.04627553 0.02983548 -0.04076141
000290 69 10 0c 3c 39 30 4a 3d 58 9e f2 3c 59 a5 85 bc
       0.008548834 0.049362395 0.02961652 -0.016314195
0002a0 67 69 88 3d c3 b1 56 bd f4 cf 7b 3c bd 35 12 bd
       0.06660729 -0.05241562 0.015369404 -0.03569578
0002b0 53 66 f6 bc 88 81 b9 3c f3 17 07 3d 54 ab 6f bc
       -0.030078089 0.022644773 0.032981824 -0.01462825
0002c0 53 35 5a bd a9 9b 51 bd 0d 51 5b 3c 43 de 28 bd
       -0.05327351 -0.05117384 0.013386023 -0.04122759
0002d0 e5 70 fe bc ce 80 cf bc 9e 76 49 bd 11 22 f2 3c
       -0.031059692 -0.025329974 -0.049185388 0.02955726
0002e0 9c 8b 1a bd 81 8e 2d bd 22 ee ac bd be 42 3e 3c
       -0.037730798 -0.04237223 -0.08443858 0.011612592
0002f0 3b b0 0f bc 57 b3 29 bc 08 ec 8c 3c dc da 92 bc
       -0.008770044 -0.010357699 0.017202392 -0.017926626
000300 9c 6b 42 bd 1b 8c 98 bb 92 1a 04 bd 24 98 1d 3b
       -0.047465906 -0.0046553737 -0.032251902 0.0024046982
000310 29 48 73 3c ba 34 6c bb 0b 12 4f 3d 27 7a dc 3c
       0.014848747 -0.003604217 0.050554316 0.026913716
000320 ee 58 7e bd e4 c5 3d bd 71 c4 a2 3d fa 1f a7 3b
       -0.06209653 -0.0463313 0.079476245 0.0051002475
000330 ee 46 ab b8 d1 1a 5c bd 74 71 0c bd 49 20 8a 3c
       -8.167127e-05 -0.05373651 -0.034287885 0.016861098
000340 18 d5 38 bd 17 17 1b bd ee 6d 5c bd 88 05 76 bd
       -0.045125097 -0.037863817 -0.053815775 -0.06006387
000350 06 93 83 bd 5a 9f 03 37 59 fe 44 bd 50 2d 4e bd
       -0.06424527 7.84531e-06 -0.048094127 -0.050336182
000360 96 2e e9 bc 40 83 7e 3b a5 e9 4b bd e5 8a 5b 3d
       -0.028464597 0.0038835555 -0.049783368 0.053599257
000370 55 a8 96 ba 92 56 2b bd 69 be 32 bc f8 c2 93 ba
       -0.0011494259 -0.041830607 -0.010909655 -0.0011273315
000380 fc 20 5f 3d 5c 11 a1 bd 06 d5 06 bd 98 c8 39 3d
       0.054474816 -0.07864639 -0.032918 0.045357317
000390 1f 80 4b bc 73 f7 ac bb 25 94 60 3c 0c 4b 4d bc
       -0.012420683 -0.0052785217 0.013707195 -0.0125301
0003a0 de 14 d5 3a 58 98 3c bd 0b a1 6f 3a c6 ac 40 bd
       0.0016256829 -0.046043724 0.0009141124 -0.04703977
0003b0 8f d1 b0 bd 0f 95 d7 bd 13 67 64 3c 1d d9 70 3b
       -0.0863372 -0.105264775 0.01394059 0.0036750503
0003c0 81 f6 5e bd d5 e4 39 bc 63 a4 82 3c e5 24 ba 3c
       -0.054434303 -0.011346062 0.015947526 0.02272267
0003d0 b0 a3 85 bd f7 53 25 3c 6c e8 4b 3b 5a 33 9a 3c
       -0.065253615 0.01009082 0.0031113876 0.018823314
0003e0 05 69 2a 3d d8 d8 b3 3c e1 de a2 3c 9f 83 6c bb
       0.04160406 0.021953985 0.019881668 -0.0036089194
0003f0 ae 46 81 bd 3f f2 2c 3d b1 35 30 3d 6a e1 29 39
       -0.06312309 0.04222321 0.043019954 0.00016201069

bn2.running_mean f4 [4]
000000 69 c1 a1 bf c3 8a d7 bf 1e ef f3 bf f7 04 dc bf
       -1.2637149 -1.6839222 -1.9057348 -1.7189015

bn2.running_var f4 [4]
000000 98 07 42 40 d6 33 8c 40 9d 94 9f 40 75 42 8a 40
       3.0317135 4.3813276 4.9868913 4.3206124

fc1.weight f4 [32, 196]
000000 9c 23 30 3d a3 ba 22 bc c8 99 27 3d ea c9 1e bb
       0.04300271 -0.009932193 0.04091814 -0.0024229237
000010 69 5c 24 3c 04 f8 52 3c 54 8d 2e ba bf 00 17 bd
       0.010031798 0.012876514 -0.0006658633 -0.036865946
000020 bf 33 8c 3d 97 b2 1a bd ef 2a 5a bd fb 0c 1d bc
       0.06845807 -0.037767973 -0.0532636 -0.009585614
000030 44 b7 d7 bc 2b b7 07 bd 0e 87 59 3d 42 f6 0a bd
       -0.026332505 -0.033133667 0.053107314 -0.033926256
000040 c3 89 c4 bc 21 4b 4f 3d ac fa 97 bc 5e 66 e3 bc
       -0.023991471 0.050608758 -0.018552147 -0.027758773
000050 53 a1 01 bc 10 33 d5 3c 2b d6 1d 3d 90 b5 03 bd
       -0.007911998 0.026025325 0.038534325 -0.032155573
000060 cb df 69 bc 45 42 93 3c 3d ef e6 3c 0e d4 43 3d
       -0.014274548 0.017975936 0.02819025 0.047809653
000070 21 be bd bb 1a 05 fd ba d5 e7 c3 3c 02 2a 75 3d
       -0.0057904874 -0.0019303889 0.023914257 0.059854515
000080 8b 4b a7 bb a8 99 3c 3d 5c bc 9b 3d 67 4b dc bb
       -0.005105441 0.046044976 0.07604286 -0.006722856
000090 f2 0b 53 3d c3 2b 4c bd 73 d9 d8 3c cb 74 8e 3c
       0.051525064 -0.049846422 0.026470875 0.017389676
0000a0 6f 34 64 3c ef 30 e3 bc 85 0a af 3c 37 59 26 bd
       0.013928517 -0.027733294 0.02136732 -0.040612426
0000b0 18 ba 28 bc d3 b8 15 3d d1 0a 97 bc 79 b5 f1 bc
       -0.010298274 0.036553215 -0.018437775 -0.029505478
0000c0 1d 15 69 3d 13 bb 86 3c 3a b0 10 bd 09 c6 23 bd
       0.0569049 0.016446626 -0.035324313 -0.039983783
0000d0 bd 67 a6 3c cd 28 8a 3c 15 e2 3f 3d 3a 14 69 3d
       0.020313138 0.016865158 0.046846468 0.056904055
0000e0 4c 2a bc bc 3e 88 65 3d 8e a6 bf bc d6 ed 04 bb
       -0.022969387 0.056038134 -0.02339485 -0.0020283363
0000f0 18 22 c4 3c 87 81 ae 3a 72 32 bc bc 5f f4 42 bb
       0.023942038 0.0013313749 -0.022973273 -0.0029747707
000100 b5 5b 10 bd 41 a2 13 3d c4 43 b0 bc d0 01 1d bc
       -0.03524371 0.03604341 -0.021516688 -0.009582952
000110 bf 93 e8 3a 18 3f ba bc 93 72 62 3d e1 29 b2 bc
       0.0017744227 -0.022735164 0.055285048 -0.021748485
000120 28 45 2a 3d ba 06 51 bd 78 32 ac 3c 79 d7 05 3c
       0.04156986 -0.051031806 0.02102016 0.0081690485
000130 c5 25 44 bd 57 e3 b8 bc 81 6d 33 3d 83 1a 86 3b
       -0.047887582 -0.022569342 0.043805603 0.004092516
000140 78 ba 05 bc 47 ac f8 bc df 68 b3 3c d5 b8 64 bd
       -0.008162133 -0.030355586 0.021900592 -0.055840332
000150 98 9a 54 bd 72 8b 45 3d 75 14 3d 3d d7 e9 9a bc
       -0.051905245 0.04822869 0.046162087 -0.018910332
000160 e3 90 df 3c 21 5e 1f 3c 03 78 f9 3c a8 4d c0 bc
       0.027290767 0.009727032 0.030452734 -0.02347453
000170 2e 12 d6 bc 1f f6 ea 3b 8d cc 90 bc d6 0f 10 3b
       -0.026131716 0.007170453 -0.017675662 0.0021982095
000180 ee 89 64 bc 66 98 0e bd 9e 23 2e bd 18 dc 61 3d
       -0.013948901 -0.034813307 -0.042514436 0.05514154
000190 b8 a7 5d 3d 97 b0 2a 3d 9e 1f 20 3d 7f a4 ec 3c
       0.054115027 0.041672315 0.039092652 0.028887032
0001a0 4c 92 d8 3c a1 be 69 3d b7 36 4e bd dd 0f d2 3c
       0.026436947 0.057066564 -0.05034515 0.02564233
0001b0 36 8b c7 3b 1e be 0d bd a6 00 00 3d dc c5 39 3d
       0.0060895933 -0.034605138 0.03125062 0.04535471
0001c0 b9 a7 e2 bb 76 c6 50 bd 16 de 07 bb 6e 72 76 bc
       -0.0069169668 -0.050970517 -0.0020731739 -0.015041931
0001d0 bd 68 95 3b aa e3 1c bc 9e 81 0a bd 60 62 a2 3b
       0.004559605 -0.009575764 -0.03381502 0.004955575
0001e0 e2 54 2b 3d f3 3d cb bb 0b 5c 99 bd c2 80 50 3d
       0.041828997 -0.0062024533 -0.07488259 0.050904043
0001f0 cb b7 1d bd 71 30 3c bd 8d b5 ba bc 7f 8f 5d bd
       -0.038505357 -0.045944635 -0.022791648 -0.054091927
000200 41 48 04 3d ff 9f 5a 3d bc 21 00 bd 98 df 01 3d
       0.03229547 0.05337524 -0.03128217 0.031707376
000210 6b c1 5a 3d 07 b3 74 bd 34 36 80 bd 38 d8 d8 bc
       0.053407114 -0.059741046 -0.062603384 -0.026470289
000220 66 1d 02 bd 9c df a3 bc 89 6b b2 bc bd 5d 5c 3d
       -0.031766318 -0.020004086 -0.021779792 0.053800333
000230 2b 05 44 bc 08 9d 8a 3c ee 20 52 3d c9 07 7c bc
       -0.011964123 0.016920581 0.051300935 -0.0153827155
000240 36 ad 80 3c 9e bc e6 3b 15 36 66 bd ab da 30 bd
       0.015707593 0.007041528 -0.05620392 -0.043177288
000250 89 ab 8e bd f7 7e 34 3d 11 88 87 3d b6 9f 45 3d
       -0.069663115 0.044066396 0.066177495 0.048248015
000260 1e 59 4f bd a0 82 32 bd 6e 63 06 be 73 49 35 3d
       -0.0506221 -0.043581605 -0.13123867 0.0442595
000270 b1 a5 5e bb 21 91 01 bd 8d 69 12 bc 21 f6 0c bd
       -0.0033973271 -0.031632546 -0.008936298 -0.034414414
000280 10 2b 56 3d c7 6d 05 bc f6 e1 8d 3d 3a 35 c2 3c
       0.05228716 -0.008143849 0.06927864 0.023707021
000290 51 10 c9 bc 23 35 8f 3d 6d 22 d7 bb 5b 61 da bc
       -0.024543913 0.06992557 -0.006565383 -0.02665775
0002a0 8f 86 8a bd c8 52 00 bd 39 1e 00 bd 7f e6 45 35
       -0.06763946 -0.031328946 -0.031278823 7.3723635e-07
0002b0 82 c3 e8 3c 74 26 81 bc 3a 86 63 3d 51 56 78 3d
       0.028413538 -0.015765406 0.05554793 0.060629193
0002c0 4d 26 81 3d 20 68 1d bd e7 b0 22 bd 1b 96 0c 3d
       0.063061334 -0.03842938 -0.03971949 0.03432284
0002d0 a8 7d f2 bc ba 36 87 bd 79 04 81 3d 78 15 7d 3c
       -0.029600933 -0.06602235 0.06299681 0.015447013
0002e0 00 14 8f 3c 92 5d 63 3a b4 4b ef bb 53 47 8d bb
       0.017465591 0.0008673306 -0.0073027257 -0.004311481
0002f0 ef 36 e2 3c 63 2a 2d 3d 99 06 26 3c 2a e4 dd 3a
       0.027614085 0.04227675 0.010133409 0.001692896
000300 c5 3c 83 ba 77 18 d6 3c 6e 22 d0 3c 7c d2 d9 3c
       -0.0010012618 0.026134713 0.025407042 0.026589625
000310 e3 2d 04 3d a3 0c 2b 3d 1b 72 59 3d 38 32 d5 bb
       0.032270323 0.0417601 0.053087335 -0.0065062307
000320 cf 55 04 3d 7c 1f 4a bd 60 54 60 bd 71 fb a2 bd
       0.032308396 -0.049346432 -0.054767966 -0.07958115
000330 7c f4 50 3d 62 2e 17 bd 1d 3a e3 3c db 9c 0f bc
       0.05101441 -0.03690947 0.027737672 -0.008765425
000340 b4 14 ee bc 14 af 70 3d c9 68 60 3d 93 3f 09 bb
       -0.029062606 0.058760718 0.05478743 -0.0020942434
000350 16 95 13 3d 47 eb cd 3c 24 54 4d 3b c7 ff d9 bc
       0.03603085 0.025136603 0.003133067 -0.026611222
000360 f2 41 17 bd b1 95 38 bd 99 82 a3 3d ec 44 b5 bc
       -0.036928125 -0.04506463 0.07983894 -0.022127591
000370 03 d3 93 bd 4e 38 d1 3c a4 15 18 3d b2 14 28 3d
       -0.07217982 0.025539543 0.037130013 0.04103536
000380 1d ec 8e bd 39 0b 93 3c 5d 6a 63 bc a3 01 1a 3b
       -0.06978629 0.017949687 -0.013880339 0.002349951
000390 a9 c0 94 bc 05 b4 22 bd 32 a4 48 bd 26 85 6d bd
       -0.018158274 -0.03972246 -0.048984714 -0.05798831
0003a0 d0 69 48 3d 5e b1 8d bc 22 01 83 3c 65 1f e7 bb
       0.048929036 -0.01729649 0.015991751 -0.007053303
0003b0 9b fe fd 3b 35 0f 66 3d e6 70 36 3d 60 2b 88 3c
       0.0077512986 0.056166846 0.044541262 0.016622245
0003c0 44 48 80 3c 80 b4 2c bc e1 48 78 bc 6e ab 33 3d
       0.015659459 -0.010541081 -0.015154094 0.04386466
0003d0 da 96 9c bd e5 f7 98 3c 6a 2b 71 bd e3 93 48 bd
       -0.0764596 0.018672893 -0.058879294 -0.04896916
0003e0 41 8e 60 3c 60 55 71 bb c6 ed fd 3c 16 ff 8a bd
       0.013705791 -0.003682457 0.030997168 -0.06786935
0003f0 b8 fa fb 3b 4b 71 c3 3c a8 0c 64 bd 29 ed 63 3c
       0.0076898 0.023857733 -0.055676132 0.013911524

conv1.weight f4 [8, 1, 5, 5]
000000 a4 43 12 be a8 d8 51 3d 9e b9 57 3e 25 28 2b 3e
       -0.14283615 0.05123201 0.21066901 0.16714533
000010 e7 af ca 3d 0c bb e6 bd 62 81 b5 3d 1e 25 de bd
       0.09896832 -0.11266145 0.088625684 -0.10846923
000020 a0 43 0f 3d c6 1c 30 3e cb 8b 3c 3e a2 39 80 bd
       0.0349766 0.17198476 0.18412702 -0.062609926
000030 1e 37 55 3e ca 2c 16 3d a8 c2 f9 3d 32 78 09 be
       0.20821807 0.036663808 0.12195331 -0.13424757
000040 a3 c5 28 3e 9d 66 1d 3d ab 44 ef 3d 86 b5 e6 3d
       0.16481642 0.038427938 0.11683019 0.112650916
000050 f8 84 02 be 62 2f 37 bd 65 a7 a5 bc b3 72 14 be
       -0.12746036 -0.044722922 -0.020221421 -0.1449688
000060 fb 68 7f bd dc 83 2b 3e f1 f5 c2 3a 65 11 df bd
       -0.062355977 0.16749519 0.0014874322 -0.108919896
000070 a6 04 32 3e e4 e4 c3 bd 66 e4 85 bd 04 06 2d 3e
       0.17384586 -0.09565142 -0.06537704 0.16896826
000080 11 0f 44 3d 6d 4a 9a 3d 67 e4 46 be 47 ae b6 3d
       0.04786593 0.07533727 -0.19423066 0.089199595
000090 ba b2 52 3d aa db f1 3d 4b ca 22 3d b5 7e be bd
       0.05143998 0.11809476 0.039743703 -0.09301511
0000a0 0a 79 1c be bc 4a 20 3e ea dd 9d bd c4 91 27 bc
       -0.15280548 0.15653509 -0.077083424 -0.010227624
0000b0 f2 0a 0d 3e 3e 02 95 3d eb 14 22 be 4f 69 c6 bd
       0.13773707 0.07275818 -0.15828292 -0.09688055
0000c0 0c d1 85 bc 16 e7 01 bd 09 9a 87 bd 34 8b 2d bd
       -0.016335033 -0.03171452 -0.06621177 -0.042369083
0000d0 9e af f4 3d 77 ca 18 bd b9 77 40 be 1d 1d a0 3d
       0.11947559 -0.03730246 -0.1879567 0.07818053
0000e0 c0 85 21 be a7 71 f3 bc 43 09 0e be 8c 88 02 3e
       -0.15773678 -0.02971728 -0.1387072 0.12747401
0000f0 f5 b7 11 be b6 7d 51 3d a3 75 b5 bc 44 e9 46 3e
       -0.1423033 0.051145278 -0.02215082 0.19424921
000100 87 e8 c5 bd 11 2d 3d 3e a4 b5 30 be 29 d9 fe 3d
       -0.09663492 0.18474223 -0.1725679 0.12443764
000110 d0 ec e3 bd bd 7e 4e bd f6 01 6a 3d fa 5a 95 3d
       -0.11129153 -0.050413836 0.057130776 0.07292743
000120 c3 6a 43 3e 5d e8 e0 3d 74 73 71 bd 8f 70 ca 3d
       0.19083695 0.1098182 -0.058947995 0.0988475
000130 bc 6e 40 3d 91 9a 2e 3e 06 e6 1d 3e 8f 4d 42 be
       0.046980605 0.1705115 0.15419778 -0.18974899
000140 58 ca ed bc 30 50 e6 3d ef a3 81 bc a5 fe 1f be
       -0.02902715 0.11245763 -0.01582524 -0.15624483
000150 50 c4 5a 3b e5 cb 34 bd f8 03 7f 3d 6f 17 b9 3d
       0.0033381172 -0.04413976 0.062259644 0.09037673
000160 6f 0c 23 3e e6 d6 1a 3e 94 b4 a1 3c c6 d9 36 3e
       0.15922712 0.1512104 0.019739427 0.17856511
000170 61 5b 60 bd be 7e 14 3d b9 cb 40 3e 0c b6 fb bd
       -0.054774646 0.036253683 0.18827714 -0.12290582
000180 a7 1c f6 3c e2 dd 23 bd fd d2 0b 3e 0e eb 4d 3d
       0.03004296 -0.040006526 0.13654704 0.050272994
000190 77 f9 c7 3d 0d 2e 03 3d 9f 68 4c 3e 73 90 13 3c
       0.097643785 0.03202634 0.19961785 0.009006607
0001a0 dc 7c 4d 3d a3 5e 92 bd 7d fe eb bd 17 78 03 3e
       0.050167903 -0.07146957 -0.11523149 0.1283878
0001b0 58 e7 08 3e 63 88 46 3e 20 96 1a 3e 5a 96 5c 3d
       0.133695 0.19387965 0.1509633 0.053854324
0001c0 44 02 c0 3c 2d 25 1d 3e eb 94 47 3d 9b 2d a2 3d
       0.02343858 0.15346213 0.048726004 0.07918855
0001d0 73 f7 3e 3c c6 c8 11 3e ce c8 0e 3d b0 7d 2c be
       0.011655676 0.14236745 0.03485947 -0.16844821
0001e0 62 77 9a 3d 1e 6b db bc 8d 7f 1d 3e 3c ba 92 3c
       0.07542302 -0.026784476 0.15380688 0.01791107
0001f0 42 ab 26 3c 89 09 22 3e e2 69 09 3d 79 73 0d be
       0.010172667 0.1582395 0.033548243 -0.1381358
000200 e4 31 1f 3d 56 13 27 3e 1e 51 02 3d 5f d2 03 3e
       0.03886594 0.1631597 0.03181564 0.12873219
000210 06 b0 44 3e ad 5f 76 bd d7 ba 67 3d a8 7c b6 bd
       0.19207773 -0.060149837 0.05657467 -0.08910495
000220 47 6d ba 3c c9 68 50 bd 01 bf b2 3c 74 ad 29 3e
       0.022757186 -0.05088118 0.021819593 0.16570073
000230 22 d9 77 3d 2b d6 8b 3d 65 9f a3 3d d2 db 83 bd
       0.06050981 0.06827959 0.079893865 -0.06438412
000240 19 69 d3 3d 61 dd 01 3d 67 27 42 3c a0 93 37 bd
       0.1032278 0.031705264 0.011850215 -0.04481852
000250 bc 60 e3 3d 0c bd 17 be 81 b1 10 3e f2 e8 3c be
       0.11102435 -0.1481821 0.14130212 -0.18448237
000260 3d f3 94 bd d1 12 da 3d a1 81 d5 bd 3a c2 ab bd
       -0.072729565 0.1064812 -0.104251154 -0.08386655
000270 0a ab ab 3b 32 a3 91 bd 12 cd 3c be 08 29 04 3d
       0.0052388953 -0.07111205 -0.18437603 0.032265693
000280 42 ef 9e 3c 5c 65 84 3c f5 b5 51 3c 48 82 f1 3d
       0.019401196 0.016161613 0.01279973 0.11792427
000290 2a 25 3e be cb e6 23 bd 69 99 c2 3d b4 90 2a be
       -0.18568864 -0.040015023 0.09501917 -0.16656762
0002a0 00 6e 92 3d 4e 9e 97 bc 58 9f 0f 3e b0 a0 eb 3c
       0.07149887 -0.018508103 0.14025629 0.028763145
0002b0 ad 7a 4d 3e ee 63 f7 3d 8d ea 92 3d 74 1c 95 3d
       0.20066328 0.12079607 0.07173643 0.07280818
0002c0 64 e7 a5 3d 62 3d 01 3d 36 8a 41 3d d5 a8 81 bb
       0.08100775 0.03155268 0.04725095 -0.003956894
0002d0 52 89 30 be 32 bc 1b be 67 cf 6b 3d bd 8d 8b 3c
       -0.17239884 -0.1520851 0.05757084 0.01703536
0002e0 ce 93 ea 3c 1a 42 1b be 26 62 a3 bd ea b7 20 3c
       0.028634932 -0.15161934 -0.07977705 0.0098094735
0002f0 0b 82 db bc 31 23 2a 3e 95 b1 99 3d 14 23 fc 3c
       -0.026795408 0.16614987 0.07504574 0.030778445
000300 ce 1f 12 be d1 1f df 3d 92 44 9c bd c7 69 88 bd
       -0.14269945 0.108947404 -0.07630266 -0.066608004
000310 b2 e1 03 3e a5 f9 f8 3c de bb 1e be bf 28 32 3e
       0.12879065 0.030392477 -0.15501353 0.17398356

bn1.running_mean f4 [8]
000000 90 3d 79 3d ac 12 6d 3c 6e 79 93 b8 32 90 97 3d
       0.060849726 0.014469784 -7.032124e-05 0.0740055
000010 59 3d cf 3d 10 5f 80 3d bb 26 96 3b 67 f3 06 3b
       0.10119123 0.06268132 0.0045822538 0.0020591856

bn1.running_var f4 [8]
000000 a9 c4 26 3c c0 1c 31 3b fa 71 08 3b 92 e4 19 3c
       0.010178723 0.0027025193 0.0020819888 0.009392874
000010 3c 42 83 3c f6 b0 c1 3b cc 3c 32 3b 68 5e 05 3b
       0.016022794 0.005910988 0.0027196882 0.002035046

conv2.weight f4 [4, 8, 5, 5]
000000 0d 97 16 bc 63 1a d6 bc 26 6a 08 bd fb dc 1c 3c
       -0.009191287 -0.026135629 -0.033304356 0.00957417
000010 da 0b 1d 3d 0c 9a 5b 3d 56 71 c8 bd ae 1f 0e bc
       0.03834138 0.053613707 -0.09787242 -0.008674545
000020 f7 fe 9b bd 22 38 ed 3c 63 12 0e 3a 35 c4 a4 bd
       -0.0761699 0.02895743 0.000541961 -0.08045236
000030 1e fc eb 3c a7 02 83 bb 78 4b 80 bc aa 86 79 3c
       0.028806742 -0.003998119 -0.015660986 0.01522986
000040 c9 7c 75 bc be 16 a3 3c 2c 14 b5 bc 92 18 5a bd
       -0.014983364 0.019908305 -0.022104345 -0.05324609
000050 75 c6 01 3d c5 af 27 bd 11 4c 6c 3d bb b6 dc 3c
       0.031683404 -0.04093911 0.05768973 0.026942601
000060 24 3f 4b 3d 12 f8 20 bd a7 ea d3 bc 60 21 bb bd
       0.049620762 -0.03929908 -0.025868727 -0.09137225
000070 dc 41 12 bd 2f 07 9a bd e7 98 58 3d b7 92 82 3c
       -0.03570734 -0.075209014 0.052880194 0.0159391
000080 f4 eb f1 3c c5 2c be bd 8d fd 0d bc 9c 50 45 3d
       0.029531457 -0.09285883 -0.008666408 0.04817258
000090 c2 a4 c3 bc 8f b2 46 bd f7 8b 5b 3d 30 5c 36 3d
       -0.023882274 -0.04851013 0.053600278 0.04452151
0000a0 a0 71 71 3d e6 19 ac bc 3c 3c 2b 3d 82 f0 5d bd
       0.058946252 -0.021008443 0.04180549 -0.054184444
0000b0 65 55 3e bc b0 53 e4 3c 8b d8 8e bd 5b f4 3b bd
       -0.011617039 0.027871937 -0.06974896 -0.045887332
0000c0 bb 51 4c bd d6 ed 48 bd ca 73 8f 3c a8 c6 c0 b9
       -0.04988263 -0.049054943 0.017511267 -0.00036769104
0000d0 18 90 4d bc ad 7a 46 3d 75 42 80 bd 36 7e 2a bd
       -0.012546562 0.048456836 -0.06262676 -0.04162427
0000e0 50 1d 55 3d f4 54 25 bd 31 fa 6f 3c be 6d 2f bd
       0.052029908 -0.04036422 0.014647053 -0.042829268
0000f0 4d 46 83 3c 5e 4d 10 bd bf 6e 47 bc f8 00 38 3d
       0.016024733 -0.035230033 -0.0121724 0.0449228
000100 94 e9 84 bc cc cf a0 bd a1 ac 05 3d 0b 4d 31 3d
       -0.01622466 -0.07852134 0.032635335 0.043286365
000110 3e d8 88 3d c4 b6 16 3d d3 c9 24 3d b4 4e 67 3c
       0.0668187 0.036795393 0.040231537 0.014117885
000120 d0 bc 4f 3d 3a c5 f7 3c 41 d8 e0 3b ec a9 c7 3c
       0.050717175 0.030245412 0.006861717 0.024373017
000130 84 d7 28 bd c9 c1 56 bd 6d ce 1b bd 51 fe 40 bb
       -0.041221157 -0.0524309 -0.03803866 -0.002944846
000140 c3 3b 11 3d 82 f2 4b bd 8a c8 1e bd 14 c9 47 3d
       0.035457384 -0.04979182 -0.038765468 0.048775747
000150 85 99 38 3d 38 0a 1a 3d 07 d0 05 3b c6 3d 41 bd
       0.045068283 0.0376074 0.0020418183 -0.047178052
000160 a5 e7 e3 3c a3 ca 87 3c 7c f7 32 bd 52 d1 ab bc
       0.027820418 0.016576117 -0.04369305 -0.020973835
000170 7c 81 62 3d 33 4c be bb e7 f8 9b bc 51 2c 16 3d
       0.055299267 -0.0058074235 -0.019039584 0.036663357
000180 7d ff 77 bd 3f 9a 50 3d 86 e4 d2 bc 04 86 a5 3c
       -0.060546387 0.05092835 -0.025743734 0.020205505
000190 0c f1 de 3c d5 9a 6a bd d5 e2 f7 b8 36 22 ff bc
       0.02721455 -0.057276566 -0.000118201286 -0.031144243
0001a0 28 c9 58 3b 11 94 51 bd 04 31 e4 3b 7b 5b af 3c
       0.0033078883 -0.051166598 0.006963851 0.021405926
0001b0 b3 9b 97 3c b0 96 8d bc 4e e0 95 bd aa 3d c7 39
       0.01850686 -0.017283767 -0.07318173 0.0003800218
0001c0 f5 b8 d5 bc 29 2e 9a bd b6 51 65 3d 85 13 63 3d
       -0.026089171 -0.075283356 0.05598613 0.055438537
0001d0 5c e2 bc bc 31 73 24 3d 95 ba e9 bb 08 25 07 bd
       -0.023057155 0.040148918 -0.007132838 -0.0329943
0001e0 ef d6 8e bd 4f 06 64 bd 5f 3e 28 3d 77 2c b0 3c
       -0.06974589 -0.05567008 0.041075107 0.021505577
0001f0 18 08 49 bc 66 8e 1c 3b 05 0a b8 bd 64 16 c5 bc
       -0.012269996 0.0023888587 -0.08986286 -0.024058528
000200 3a 9c e9 3c b7 08 61 bd e7 92 36 bd 34 d0 f1 bc
       0.028516877 -0.05493995 -0.04457369 -0.029518224
000210 19 45 29 3c 38 d6 88 bd f2 ef 7b 3c d1 75 81 3d
       0.010331416 -0.06681484 0.015377032 0.063213
000220 be 1d f6 3c 50 d1 7b bb 42 db 89 bd 05 11 fd 3c
       0.030043479 -0.003842432 -0.06731273 0.030891905
000230 72 0e 86 bc c3 f4 1b 3d ae ea 13 bb 19 d9 6d bd
       -0.01636431 0.03807522 -0.00225703 -0.05806837
000240 80 71 5f bc e9 9a 8d bd a2 5e 2e bd a0 11 5c 3b
       -0.0136379 -0.069143124 -0.042570718 0.0033579841
000250 cc 26 2b 3d c8 45 a5 3c 9e 3d 0e 3d ac d0 0c bb
       0.041785046 0.020174876 0.03472673 -0.0021486683
000260 82 ad 79 bd 68 6a a7 3b 1d 7b eb 3c 1f e9 aa bb
       -0.060956486 0.00510912 0.028745228 -0.0052157785
000270 44 4e 2d 3d b7 a2 f7 bb 30 82 59 3d ba ae 2b bd
       0.042310968 -0.007557239 0.053102672 -0.04191468
000280 61 9d 82 3c 8c 50 6b bd 87 67 a9 3c 8c 91 19 bd
       0.015944185 -0.057449862 0.020679248 -0.03749232
000290 39 f3 bb ba 3a cc 19 3d b8 3e 69 3c 58 46 ba bc
       -0.0014339454 0.03754828 0.014236145 -0.02273862
0002a0 81 37 99 3d 95 ec 67 bd fd 4b 19 3c 42 a6 46 bd
       0.0748129 -0.056622107 0.009356496 -0.0484984
0002b0 55 bd e2 bc 1c d2 21 3d 93 5b 86 3d 2e 54 20 bc
       -0.027678171 0.039507017 0.06560435 -0.009785695
0002c0 e4 4a 00 bd f9 d5 6e bd 80 e4 1d 3b 40 bf 34 bd
       -0.03132142 -0.05830953 0.0024092495 -0.044127703
0002d0 95 0b 13 bd 92 86 34 bb 89 78 89 bd 31 06 48 3c
       -0.035899717 -0.002754603 -0.067124434 0.012208507
0002e0 92 ca 1a bd 7c 84 16 bd b3 d6 8a bd 5c 43 ed 3c
       -0.037790842 -0.03674744 -0.06779232 0.028962784
0002f0 97 cd bf bc c2 a3 6c bc 6b 0e 9a 3c 77 ef 11 bc
       -0.023413463 -0.01444334 0.018805703 -0.0089071905
000300 f4 07 02 bd b0 36 6a bc 2f 7e 12 bd 71 8e 7a bc
       -0.031745866 -0.014295265 -0.03576487 -0.01529275
000310 4a 8b 9e 3c 1e 7c 5b 3c 79 df 51 3d 4b 55 1d 3d
       0.019353528 0.013396291 0.05123851 0.03841142
000320 3c 90 b1 bd a8 ca 84 bd f4 84 74 3d 84 ec 76 bc
       -0.08670089 -0.06483966 0.059697106 -0.015071038
000330 98 1b 00 3c b2 17 7a bd 36 8c 6a bb 4f 6d 92 3c
       0.007819079 -0.061057754 -0.0035789139 0.017874388
000340 2a df 1f bd e6 fd 77 bd 2c 39 0d bd 4b d2 da bc
       -0.039031185 -0.06054487 -0.03447835 -0.026711604
000350 66 6a 63 bd fb 79 82 3c 7f e1 88 bd 76 1c 6b bd
       -0.05552139 0.015927305 -0.06683635 -0.05740019
000360 a5 a5 2e ba f9 2a ca 3c ef f6 50 bd 12 9d 13 3d
       -0.0006662256 0.024678694 -0.051016744 0.036038466
000370 4f e4 2b bd 84 8e 48 bd f6 63 8b bb c7 43 51 bc
       -0.04196578 -0.04896404 -0.0042538596 -0.012772507
000380 95 7b 02 3d 73 0b 93 bd 5d f0 2f bd b8 6e 15 3d
       0.03185614 -0.07179918 -0.042953838 0.036482543
000390 1c 3c 08 bd c6 6b df bc fc 61 ce 3c 75 4d 62 bc
       -0.03326045 -0.02727307 0.025193207 -0.0138124125
0003a0 d2 d2 b0 3c 0a 70 44 bd e4 99 f1 3b c8 17 14 bd
       0.021584902 -0.04795841 0.0073730815 -0.036155492
0003b0 68 08 8d bd 3a 8a 88 bd 0a 20 f0 3c 4c 61 86 3c
       -0.06886369 -0.066669896 0.029312152 0.016403817
0003c0 d9 46 8f bd 76 dd e5 bc a4 84 43 3d d5 09 43 3d
       -0.06995935 -0.028059702 0.047733918 0.0476168
0003d0 b9 08 95 bd 12 71 3d 3c 48 fa 1b bd b7 36 86 3c
       -0.07277054 0.011562603 -0.038080484 0.016383512
0003e0 d4 29 72 3d eb 1d 4e 3c b6 e8 03 3d a7 ee 03 bb
       0.05912192 0.012580375 0.032204352 -0.0020131262
0003f0 75 b3 2d bd 24 55 80 3d d4 81 29 3d 6f 24 1c bc
       -0.04240747 0.06266239 0.04138358 -0.009530171

bn2.running_mean f4 [4]
000000 09 a1 25 bf dd 10 93 bf f6 d3 98 bf 15 87 f0 bb
       -0.64698845 -1.1489521 -1.1939685 -0.007340322

bn2.running_var f4 [4]
000000 b4 0d 83 3f 8e d8 a0 3f c3 6d a0 3f 04 cf 87 3f
       1.0238557 1.2566087 1.2533497 1.0610051

fc1.weight f4 [32, 196]
000000 03 fa f7 3c 74 c3 cc bc 12 31 28 3d 20 0e 47 bb
       0.030270582 -0.024995543 0.041062422 -0.003037341
000010 f8 c6 c4 3b ea 4f 5a 3a d2 d9 f2 bb ac 15 2f bd
       0.0060051642 0.0008327948 -0.00741122 -0.042745277
000020 76 1a 88 3d 8d d2 e7 bc e4 ac a4 bd aa 7e 3d bd
       0.06645672 -0.02829864 -0.08040789 -0.046263374
000030 be dc df bc 1f c6 23 bd f4 0b 5f 3d c7 04 b3 bc
       -0.027326938 -0.039983865 0.05445476 -0.021852864
000040 43 a1 61 3c 4b 4a 46 3d e2 8d 30 3c f3 51 42 bd
       0.013771358 0.048410695 0.010776015 -0.047441434
000050 6e 09 3a bc ce e3 cc 3c a9 66 5b 3d 62 42 8e bd
       -0.011354787 0.02501097 0.0535647 -0.06946255
000060 ef 82 2f bc 5a 1f ea 3c 55 52 5b 3d 07 78 3d 3d
       -0.010712369 0.028579403 0.053545315 0.046257045
000070 d6 ab 0d bc 78 36 09 bb 47 07 17 3d 61 98 6d 3d
       -0.008646926 -0.0020937007 0.036872175 0.058006648
000080 c6 cf 0a bd d6 9e 6b 3d 6d 24 a3 3d ee a1 12 bc
       -0.033889554 0.057524525 0.07965932 -0.00894974
000090 a6 91 4e 3d 7f d8 8b bd 9a 61 b2 3c 2b e3 25 bc
       0.05043187 -0.06828403 0.021775056 -0.010124962
0000a0 d4 a8 e9 3c 94 e0 e4 bc a3 3b 8c 3c e6 d1 73 bd
       0.028522886 -0.027939118 0.01711828 -0.059526347
0000b0 f3 13 cc bc 1f e0 b8 b7 ef 6d 85 bd 73 a1 27 ba
       -0.024911856 -2.2038874e-05 -0.06515109 -0.0006394602
0000c0 f2 15 62 3d de 59 51 3c cf 13 29 bd 23 91 53 bd
       0.05519671 0.012777774 -0.041278657 -0.051652085
0000d0 2c b6 ca 3b 4b 1e 70 bb 0b d5 51 3d 60 47 60 3d
       0.0061862674 -0.003663915 0.051228564 0.05475557
0000e0 ca 95 b0 bc c6 c1 6f 3d f1 cc a2 bb 8b d4 12 bd
       -0.0215558 0.058534406 -0.0049682786 -0.035847228
0000f0 ec 46 2d 3d fa ec 11 bd 74 58 b3 bc 1a 1a ef 39
       0.042303964 -0.03562639 -0.021892764 0.0004560508
000100 e6 73 16 bd 83 75 8b 3d f7 57 93 bd 8a 84 23 3d
       -0.036731623 0.06809523 -0.07194512 0.03992132
000110 a2 0b 84 3c 82 bf c4 bc ec ed 51 3d f2 ed c6 bc
       0.016118828 -0.0240171 0.05125229 -0.024283383
000120 0b 30 86 3d 6f b6 75 bd 0f e2 f4 3b dd c9 09 3d
       0.06552132 -0.059988435 0.0074732373 0.033639777
000130 67 bb 4c bd af 95 e5 bc b9 c5 4f 3d a9 7d 09 3d
       -0.04998341 -0.028025476 0.050725672 0.033567104
000140 ff 44 9e bc be 7f 15 bd 49 1f 7d bc 7c b6 74 bd
       -0.01932001 -0.036498778 -0.0154493535 -0.059744343
000150 13 68 65 bd 1b 7d 35 3d 88 b6 3a 3d d2 ad 82 bd
       -0.056007456 0.044308763 0.04558423 -0.0638081
000160 cb b9 a6 3b b2 36 01 bb 4a b1 18 3d 37 9a d3 bc
       0.005088066 -0.001971644 0.03727845 -0.025830371
000170 88 22 fe bc 6b 70 80 3c d1 9e 6a bd f4 1c a9 bc
       -0.031022325 0.015678605 -0.057280365 -0.020643689
000180 04 d5 69 bb dc 55 fe bc b8 34 39 bd 63 9a 61 3d
       -0.0035679946 -0.0310468 -0.045216292 0.055078875
000190 a0 e4 8c 3d 9d 7b 3a 3d 43 fd 97 3c 16 14 94 3b
       0.06879544 0.045528043 0.018553382 0.004518996
0001a0 36 16 0c 3d ab 3f 5d 3d e5 5e 3d bd 00 59 6b 3d
       0.03420087 0.054015797 -0.046233077 0.057457924
0001b0 a8 2c be bb 39 e5 92 3c 4b 91 71 3d 2a 08 50 3d
       -0.0058036633 0.017931568 0.058976453 0.050789036
0001c0 c9 89 c8 bb 50 5c ed bc 6a 29 22 bd 09 fc 27 bc
       -0.006119941 -0.028974682 -0.039590277 -0.010252961
0001d0 c8 0f d3 3c dd 8e ed bc e7 c5 0c bd 10 e9 9f 3b
       0.025764361 -0.028998787 -0.034368422 0.004880078
0001e0 7b 1b 80 3d 62 94 5e bd 28 72 7a bd fb bd 0a 3d
       0.062552415 -0.054340728 -0.061144024 0.033872586
0001f0 87 47 bd bd ec a4 42 bd b0 98 d3 bc f0 ad 8b bd
       -0.092421584 -0.047520563 -0.025829643 -0.06820285
000200 50 86 0d 3d 07 9f 4b 3d 30 89 1a bd cc c7 04 3c
       0.03455192 0.049712207 -0.03772849 0.008104276
000210 cb 8a 86 3d c2 27 7d bd ac 68 ab bd 65 fa 86 bd
       0.065694414 -0.061805494 -0.08369574 -0.06590728
000220 84 20 8c bd 61 b5 06 bd d3 0e 27 bc df 83 6b 3d
       -0.06842139 -0.03288782 -0.010196405 0.05749881
000230 2a c4 78 bc 1a 18 8e 3c 16 3c 98 3d 52 c6 0a bd
       -0.015183488 0.017345477 0.074333355 -0.03388054
000240 ce 2d fe 3c bb cf 07 3c 5f d2 6b bd 84 2b 5e bd
       0.0310277 0.008289273 -0.057573672 -0.05424072
000250 66 0a 8e bd 9f 0f 38 3d 3d 22 8f 3d 29 9d 5a 3d
       -0.06935577 0.044936772 0.06988952 0.053372536
000260 72 3a 67 bd d9 dc 50 bd 13 ac 0f be 20 cc 65 3d
       -0.056452222 -0.050991867 -0.14030485 0.056102872
000270 25 b4 80 3a 09 a3 25 bd 48 8b 9d bc c0 2e 97 bd
       0.0009819312 -0.040438686 -0.019231454 -0.07381964
000280 7c e1 7b 3d 83 b7 95 bc a1 28 ac 3d 5e e6 40 3d
       0.061494336 -0.018275982 0.08406187 0.047094695
000290 d3 94 0a bd f1 33 a1 3d dc 13 02 3d 56 d7 78 bc
       -0.033833336 0.07871235 0.03175722 -0.015188059
0002a0 a3 b2 a2 bd a0 b3 e7 bc c6 11 0e bd bb d8 a9 bb
       -0.079442285 -0.028283894 -0.03468492 -0.005183307
0002b0 01 db 0b 3d 34 bd 07 bd 37 75 86 3d 2f 72 78 3d
       0.034144405 -0.033139423 0.06565326 0.06065577
0002c0 60 2f 8b 3d fb 8a 4a bd c5 3b 23 bd 9f 6d 4a 3d
       0.067961454 -0.04944895 -0.039851923 0.04942095
0002d0 a7 1a d3 bd 9d 41 8b bd b9 87 85 3d 2c 97 2e 3c
       -0.10307818 -0.06799624 0.06520028 0.010656159
0002e0 b8 6b 5f 3c fd 18 24 bc 76 7e 18 3b 7f b7 59 bd
       0.013636522 -0.010015723 0.0023268736 -0.05315351
0002f0 87 93 4a 3d 08 2f 2d 3d 8a 74 18 3c a9 dc 95 3c
       0.0494571 0.04228118 0.009305129 0.018293696
000300 fb cc 54 bc e9 ac 38 bb eb 76 20 3d 18 18 16 3d
       -0.012988324 -0.0028179234 0.03917591 0.03664407
000310 25 c1 19 3d 19 40 3e 3d ba 75 58 3d 89 9f 25 bb
       0.037537713 0.046447847 0.052846648 -0.0025272092
000320 cb 0d 38 3d cd be 4d bd 10 16 5f bd 34 e6 97 bd
       0.04493503 -0.05023079 -0.0544644 -0.07416955
000330 b8 f8 7f 3d 3d c6 18 bd 64 d9 4a 3d 7f 8e 15 bd
       0.062493056 -0.03729843 0.049523726 -0.036512848
000340 de df 92 bd 8f d5 85 3d 6b f8 66 3d a7 bc 7b bb
       -0.071716055 0.06534874 0.056389254 -0.0038412006
000350 0e ff 61 3d cd 95 59 3d 1e 09 40 bc 06 79 82 bd
       0.05517488 0.053121377 -0.011720924 -0.0637074
000360 87 79 03 bd 52 77 4d bd 12 f1 88 3d db 20 0e bd
       -0.03209832 -0.05016262 0.066866055 -0.034699302
000370 8a 63 65 bd 62 eb b9 3c 28 c2 8a 3d cb 85 47 3d
       -0.05600313 0.022695247 0.067753136 0.04871158
000380 0a 21 93 bd 3b e5 b1 38 fd bb 32 bd 79 0d 7f bb
       -0.07184036 8.482715e-05 -0.04363631 -0.0038917942
000390 29 51 ff bc 97 01 89 bd c8 e8 5b bd 16 02 59 bd
       -0.03116663 -0.06689756 -0.053688794 -0.052980505
0003a0 a9 4e 79 3d 58 9b 31 3b 61 d5 7e 3c 9b e5 cc bb
       0.06086603 0.0027100649 0.015553803 -0.006252957
0003b0 12 b6 0f 3a 1e f0 6c 3d d8 f4 44 3d be c2 07 3d
       0.00054821477 0.05784618 0.048085064 0.033144705
0003c0 db 2b 70 3d 9a e0 01 bd 25 eb ea bc e3 67 54 3d
       0.058635574 -0.031708337 -0.028676579 0.051856887
0003d0 93 16 98 bd cd 0f aa 3c 64 f5 62 bd a3 03 31 bd
       -0.07426181 0.020759488 -0.055409804 -0.04321636
0003e0 7a 6d 8c 3c a7 69 85 bb 47 ef a2 3c 03 74 8a bd
       0.017142046 -0.0040714326 0.019889487 -0.06760409
0003f0 bd a1 04 3c 92 73 cf 3c 14 8b 8a bd 1f 3f 7c 3d
       0.008095202 0.025323663 -0.06764808 0.061583634

deconv1.weight f4 [2, 4, 5, 5]
000000 16 61 b1 bb b9 07 80 3c 07 a3 82 3d 1c 53 d8 3c
       -0.005413185 0.015628682 0.06378751 0.026406817
000010 e5 31 ac 3d d1 ed 98 bd 0c 1f 42 bd c4 fe 20 3d
       0.08407954 -0.07467235 -0.04739289 0.039305463
000020 2e 94 56 bd d9 19 a6 bd ea d6 1b 3d 53 ac 12 3b
       -0.05238741 -0.08110399 0.038046755 0.0022380545
000030 5e fb 1d 3d 5f 83 de 3d ab 48 ae 3d 3e 15 51 3d
       0.0385698 0.10864901 0.08509954 0.05104565
000040 e1 e9 88 bd 74 f3 43 bd 24 81 82 ba e8 9c 17 bd
       -0.06685234 -0.047839597 -0.00099567 -0.03701487
000050 6d 36 90 3c 7e d0 53 3c 6a ae c4 3c 7c 96 37 bd
       0.017604077 0.012928126 0.024008948 -0.044821247
000060 c2 93 ac bc 39 39 70 3d 18 c7 ab 3d 5c 41 25 bd
       -0.02106655 0.05864832 0.083875835 -0.040345535
000070 db fd 67 3d 0e 0c 03 3d d4 8c 4e bc de 99 11 bd
       0.05663858 0.031993918 -0.012606818 -0.03554713
000080 27 69 20 3d 25 a4 ab 3c 72 87 01 3d 39 f4 02 bd
       0.03916278 0.020952294 0.03162331 -0.03197119
000090 ea 76 95 bd d1 82 62 3c 4f 8c 15 3b fa f4 b7 3d
       -0.07298072 0.013825134 0.0022819226 0.089822724
0000a0 60 51 73 3d fc 09 a1 bd f4 95 56 bd 0e 27 1b 3d
       0.059403777 -0.078632325 -0.0523891 0.037879042
0000b0 14 cf af 3d 98 19 9f 3d 97 c8 6b 3d 7c 00 61 bb
       0.08584419 0.077685535 0.057564344 -0.0034332564
0000c0 be 03 b3 bd 44 8a d4 bd bd 30 71 bd bd 0a a7 3c
       -0.08740948 -0.103779346 -0.05888437 0.020390863
0000d0 f8 b7 b3 bd 3c 8e 4b bc da af 52 3d 18 e4 03 bd
       -0.08775324 -0.012424048 0.051437236 -0.03219995
0000e0 4c 33 62 bc 06 11 74 bb 3c 39 c9 3c 41 1d 18 bd
       -0.013806175 -0.0037241592 0.024563424 -0.037137274
0000f0 00 8a 22 bd 44 d4 4c 3d d2 2f d8 bb 59 89 f6 3c
       -0.03968239 0.05000712 -0.0065974975 0.03009479
000100 0e 65 90 3d cd 7d 3b bd 5d 57 a0 3d 7d ea 51 bb
       0.07050525 -0.04577427 0.07829163 -0.0032030635
000110 29 7f 86 bd 15 51 19 3c e6 51 ca 3c 97 96 e9 3d
       -0.065672226 0.00935771 0.024697255 0.11405676
000120 0e a4 72 3d 55 81 af 3b 53 b9 46 3d 38 52 de 3c
       0.059238486 0.0053559938 0.048516583 0.027138814
000130 96 6f ac bd 00 1a 1e 3d 76 bd ab bc 7a 56 c4 3d
       -0.08419721 0.038599014 -0.020964365 0.095868066
000140 79 94 b2 bc c7 bc ed bc 84 b6 79 3d c6 4c 16 3d
       -0.021799313 -0.02902068 0.060965076 0.03669431
000150 53 b9 b6 bd f0 95 18 3e 2b 8b b4 3d 7e 19 17 bd
       -0.089220665 0.14900947 0.08815607 -0.036889546
000160 e3 dc 08 bd 63 79 a8 3c 1c 14 42 3d e4 4c ec bd
       -0.03341378 0.020565694 0.04738246 -0.11538103
000170 62 b3 c4 bc e3 d5 aa 3c aa c8 3d 3d 1c 13 4e bd
       -0.024011318 0.020853942 0.046333946 -0.050311193
000180 4f b2 99 3c f4 b0 cf 3c a7 21 17 bd bf a5 b9 3d
       0.018761782 0.025352933 -0.036897328 0.09064817
000190 cb 03 42 bc 5d f9 e8 3c c2 7b 9d bd 38 57 9c 3d
       -0.011841725 0.028439218 -0.076896206 0.07633823
0001a0 70 08 a7 3d 4d 20 fd bc b1 51 64 ba 02 f2 f2 bc
       0.08155906 -0.030899191 -0.0008709683 -0.029656414
0001b0 a4 9f 7a bd be 25 82 3d 35 d2 e0 3c c6 a4 f7 3c
       -0.0611874 0.06354855 0.027443985 0.030229937
0001c0 ae 8c b0 3c ed 18 a6 3d c9 71 31 3c 40 9e 8c bd
       0.021551456 0.08110223 0.010830351 -0.06866121
0001d0 2a af 59 3d ae 6b 59 3d cc 2c 51 bd e0 82 18 3c
       0.053145565 0.053081207 -0.051068112 0.009308547
0001e0 80 c5 a2 3a 4d d8 d9 bd 13 d1 99 38 0a 91 7d bd
       0.0012418479 -0.10636959 7.3345516e-05 -0.0619059
0001f0 90 f3 55 bc c2 8b d4 3c b2 cf cc bd 39 d4 31 3c
       -0.013058558 0.025945548 -0.10000552 0.0108538205
000200 17 52 0c bb 09 a8 e1 3b de 0c eb 3d 06 77 92 3d
       -0.0021411234 0.0068864864 0.114770636 0.07151608
000210 02 05 ee 3c d8 d5 4f 3d 6e 69 ff bc e2 88 85 3c
       0.029055122 0.050741047 -0.031178202 0.016300622
000220 d6 0f b2 bd cf 12 41 bd c7 d6 3a 3d 3c 8e be bc
       -0.08694427 -0.047137078 0.045614984 -0.023261182
000230 1d 20 f2 bc 31 64 a7 bc fc 33 83 3d 12 95 96 3d
       -0.029556328 -0.020433517 0.064063996 0.07352652
000240 99 17 9a bd 2d 3f 13 3e 39 e3 c1 bc 9b f6 78 bc
       -0.07524032 0.14379568 -0.023667919 -0.015195514
000250 09 b8 32 3d 34 7e e3 3d cc d8 a1 3d 2c 94 05 3a
       0.04363254 0.11108056 0.07902679 0.00050956267
000260 27 e4 4a 3d 37 75 0b bc 97 b6 58 3d 23 2e 00 3c
       0.04953399 -0.008511833 0.052908506 0.0078235
000270 8d d3 bf 3d 8c 8f 9a bb 71 40 9b 3d 1f c2 1d bd
       0.09366522 -0.004716819 0.075806506 -0.038515206
000280 4e af 5e 3c 6b 11 4e 3d 7f 8a 71 3d 07 89 b0 bd
       0.013591601 0.05030958 0.05896997 -0.08619886
000290 4f 9f 1d 3d 9f 21 4c 3c 32 27 64 3c 5b 6c 04 3b
       0.038482007 0.012459188 0.0139253605 0.0020206186
0002a0 4b 01 58 bc 9d 88 31 3d 50 35 92 3d 3f 4c 61 3a
       -0.013183902 0.043343175 0.07139075 0.00085944304
0002b0 0f c3 09 3c 5d 76 72 3d 85 09 f7 3d c1 a5 dc bc
       0.008408322 0.05919491 0.120623626 -0.026934506
0002c0 e6 c1 cd bd aa 5a 92 bd b6 5f e6 3d d6 2f ac 3c
       -0.10046749 -0.07146199 0.11248724 0.021018904
0002d0 bb 07 ce bd 06 61 14 3d ab 92 16 3d 0b 97 74 bd
       -0.10060068 0.03622534 0.036760967 -0.05971436
0002e0 a6 56 3a 3d 01 ac af bb 5a 4d 70 3d 9b de 91 3a
       0.04549279 -0.0053610806 0.05866752 0.0011128964
0002f0 e8 41 9f 3c 52 f1 fa bc 7d 28 54 bc 81 c7 a7 bc
       0.019440606 -0.030632649 -0.012949106 -0.020480873
000300 f8 50 94 bd 3d 93 1d bd 0d 64 82 bc 32 87 c2 bd
       -0.07242006 -0.038470495 -0.015916849 -0.09498443
000310 d4 ca 77 3d 5e 7f ef 3c 4c 59 03 bd ae f1 54 bd
       0.060496166 0.029235538 -0.032067582 -0.051988296

bn3.running_mean f4 [4]
000000 64 2a 07 3e 74 31 14 3e 6f 14 71 3e e9 4a 80 3d
       0.13199764 0.1447199 0.23542951 0.06264288

bn3.running_var f4 [4]
000000 c2 57 5d 3d c3 c3 6f 3d 84 9c af 3d f9 f1 ce 3c
       0.05403877 0.058536302 0.08574775 0.025261866
