log/mnist_test_class_9/model.tar (torch, 71258 bytes, 21 tensors)

conv1.weight f4 [8, 1, 5, 5]
0	0xbdd1c2d9	-0.10242242
1	0x3d9c390c	0.07628068
2	0x3e67e55b	0.22646086
3	0x3e45950f	0.19295143
4	0x3e01e6a7	0.12685643
5	0xbdad5df4	-0.08465186
6	0x3dd575bc	0.10422847
7	0xbdb486ca	-0.088147715
8	0x3d7d24d9	0.06180272
9	0x3e3ef77c	0.18649095
10	0x3e412bb5	0.18864329
11	0xbd6bfe89	-0.05761579
12	0x3e48cb33	0.19608764
13	0x3d75d7a8	0.06002012
14	0x3e0592db	0.13044302
15	0xbde288f9	-0.11061282
16	0x3e252696	0.16128
17	0x3d022273	0.031771135
18	0x3deead86	0.11654191
19	0x3de37914	0.11107078
20	0xbdabdd58	-0.08391827
21	0xbca2367f	-0.019801376
22	0x3b4f8917	0.0031667405
23	0xbe0f5fbc	-0.14001364
24	0xbd37b1d7	-0.044847336
25	0x3e41f382	0.18940547
26	0xbb5b2b46	-0.003344254
27	0xbd576c4a	-0.052593507
28	0x3e674f71	0.22588898
29	0xbc8c4104	-0.017120846
30	0xbd21e6b9	-0.039526675
31	0x3e19b308	0.15009701
32	0x3db81277	0.08987897
33	0x3dfb57de	0.12272619
34	0xbe020984	-0.12698942
35	0x3e1196a2	0.14217618
36	0x3d3bf5f2	0.04588885
37	0x3e08d8cd	0.13363953
38	0x3d689e80	0.056791782
39	0xbd80963b	-0.06278654
40	0xbde9a5ef	-0.114086024
41	0x3e3f6b42	0.1869326
42	0xbd5379c8	-0.05162981
43	0x3bd10c92	0.0063796723
44	0x3e1d2b0e	0.15348455
45	0x3ddeb44f	0.10874235
46	0xbdf1af18	-0.118009746
47	0xbd8c963a	-0.06864591
48	0x3c1a3d1c	0.009413984
49	0xbc3c68dd	-0.011499611
50	0xbd21c523	-0.039494645
51	0x3c65e349	0.01403124
52	0x3e3290d3	0.17438059
53	0x3c9e4292	0.019318853
54	0xbdf59c81	-0.119927414
55	0x3dd1bcee	0.102411136
56	0xbdd8b931	-0.105821975
57	0x3ca82ee3	0.02053017
58	0xbdbe38c2	-0.092881694
59	0x3e3271e5	0.1742626
60	0xbdfc4f2b	-0.123197876
61	0x3db03d8e	0.086054906
62	0x3c421183	0.011844995
63	0x3e6c0131	0.2304733
64	0xbd2e11d4	-0.04249747
65	0x3e2dcf76	0.16973671
66	0xbe135a1c	-0.14389843
67	0x3e1bc990	0.15213609
68	0xbd60f4d3	-0.054920983
69	0x3c016c18	0.007899307
70	0x3d08c15b	0.033387523
71	0x3da5c110	0.080934644
72	0x3e585626	0.21126613
73	0x3e304e9e	0.1721749
74	0xbb120f25	-0.002228686
75	0x3de0d38d	0.1097785
76	0x3d91058d	0.07081137
77	0x3e2e116d	0.16998835
78	0x3e21d3e7	0.1580349
79	0xbe1a55c2	-0.15071777
80	0x3c971a1b	0.018445065
81	0x3dfcd020	0.12344384
82	0xbbf12911	-0.007359632
83	0xbe02210c	-0.12707919
84	0x3d363ded	0.04449265
85	0x3b7998ea	0.0038085529
86	0x3d904098	0.0704357
87	0x3da7e0b2	0.08197154
88	0x3e270c87	0.16313373
89	0x3e28544c	0.16438407
90	0x3d32ebcc	0.043681905
91	0x3e39de89	0.18151297
92	0xbd03e541	-0.032201055
93	0x3d05d5e8	0.0326747
94	0x3e3d73e9	0.18501247
95	0xbd98998b	-0.07451161
96	0x3d3c4e1d	0.045972932
97	0xbc80267f	-0.015643356
98	0x3e15330d	0.14570256
99	0x3d8e60f7	0.06952088
100	0x3e04060e	0.12892935
101	0x3d715c7e	0.058926098
102	0x3e5259ae	0.20542023
103	0x3cd8fb0b	0.026486894
104	0x3d8f7b19	0.07005901
105	0xbd10cf1a	-0.035353757
106	0xbdbcffc7	-0.09228473
107	0x3dfe100b	0.12405404
108	0x3e08f748	0.1337558
109	0x3e484dc3	0.19560914
110	0x3e33ac2b	0.17546146
111	0x3d96105b	0.07327338
112	0xbbed06a1	-0.0072334562
113	0x3e0274f9	0.12739934
114	0x3d081548	0.03322342
115	0x3db7575f	0.089522116
116	0xbbd03863	-0.006354378
117	0x3dfe87e6	0.12428264
118	0x3bba5532	0.0056864256
119	0xbe26bdea	-0.16283384
120	0x3d867a22	0.06566264
121	0xbcd3a700	-0.025836468
122	0x3e1a020e	0.15039846
123	0x3cdcb067	0.026939584
124	0x3cd258b5	0.025677064
125	0x3e1dca1f	0.15409134
126	0x3d280508	0.041020423
127	0xbde6ac62	-0.11263348
128	0x3dac93e1	0.08426643
129	0x3e56e06c	0.20984048
130	0x3d258f0c	0.040419623
131	0x3df73742	0.120710865
132	0x3e49c125	0.19702585
133	0xbd4e5540	-0.05037427
134	0x3da23755	0.0792071
135	0xbd9a3060	-0.07528758
136	0x3ce42541	0.027849795
137	0xbd3111a8	-0.04322973
138	0x3d4085d3	0.047002625
139	0x3e43f218	0.1913532
140	0x3d5e9794	0.054343775
141	0x3cf2bacd	0.02963009
142	0x3dbcaac2	0.09212257
143	0xbd4ac014	-0.049499586
144	0x3e162503	0.14662556
145	0x3d03a828	0.03214279
146	0x3c2f4e91	0.010699884
147	0xbcd86a81	-0.026417973
148	0x3e1c2d5a	0.15251675
149	0xbdd5dc2c	-0.10442385
150	0x3e0cf434	0.13765031
151	0xbe231cc9	-0.1592895
152	0xbd3a7e49	-0.04553059
153	0x3e0c4061	0.13696434
154	0xbd8c30f2	-0.06845273
155	0xbdc1c3b5	-0.09461156
156	0x3c191dc3	0.009345475
157	0xbd31197b	-0.04323719
158	0xbe17beee	-0.14818928
159	0x3d857a10	0.06517422
160	0x3b94b146	0.004537734
161	0x3ca567b2	0.020191047
162	0x3d215a41	0.039392713
163	0x3e1c0112	0.15234783
164	0xbe197e1d	-0.14989515
165	0xbd424389	-0.047427688
166	0x3df754bc	0.12076709
167	0xbe05858a	-0.13039222
168	0x3dca05af	0.09864365
169	0x3bc0080d	0.0058603347
170	0x3deb735d	0.11496613
171	0x3d0299e9	0.03188506
172	0x3e58a87d	0.21158023
173	0x3e0c4970	0.13699889
174	0x3dd557fc	0.10417172
175	0x3dcb8953	0.09938302
176	0x3dcfbd82	0.101435676
177	0x3d47536e	0.04866355
178	0x3dd24710	0.1026746
179	0x3daa0071	0.083008654
180	0xbdf508b8	-0.119645536
181	0xbdce955c	-0.10087082
182	0x3dba329e	0.09091686
183	0x3d815a88	0.063160956
184	0x3db2d59c	0.08732149
185	0xbde2dc55	-0.11077181
186	0xbd213c8f	-0.039364394
187	0x3d7c0bfc	0.061534867
188	0x3d2f2e5e	0.04276883
189	0x3e57c663	0.21071772
190	0x3db13876	0.08653347
191	0x3d28e7df	0.041236755
192	0xbde944c0	-0.11390066
193	0x3e0d2efc	0.13787454
194	0xbd1d5bb4	-0.038417533
195	0xbd6a63e1	-0.05722416
196	0x3e015adf	0.12632321
197	0x3d4d06bd	0.050055254
198	0xbe00da6a	-0.12583318
199	0x3e427520	0.18989992

bn1.running_mean f4 [8]
0	0x3da1c658	0.07899159
1	0x3d784edc	0.06062208
2	0x3d73ea3c	0.059549555
3	0x3dbfcba9	0.09365017
4	0x3dc45155	0.09585825
5	0x3da1c85d	0.078995444
6	0x3d0248cd	0.03180771
7	0x3d6d56c6	0.05794408

bn1.running_var f4 [8]
0	0x3c93d300	0.018044949
1	0x3c1b0189	0.009460815
2	0x3c11e0cc	0.008903693
3	0x3c912b97	0.01772098
4	0x3c9d74cf	0.019220738
5	0x3c48c9e4	0.012255166
6	0x3b90d6ff	0.004420161
7	0x3c1144f7	0.00886654

conv2.weight f4 [4, 8, 5, 5]
0	0xbd0eee27	-0.03489509
1	0xbd06a244	-0.032869592
2	0xbd1db998	-0.038507074
3	0x3bfabf59	0.007652205
4	0x3d0b320c	0.033983275
5	0x3d001bbb	0.031276446
6	0xbdc1eb56	-0.09468715
7	0xbc9f1fb8	-0.019424304
8	0xbd955c82	-0.07293035
9	0x3c70e610	0.014703289
10	0xbc8f6d94	-0.017508306
11	0xbdca1861	-0.09867931
12	0xbb1e4321	-0.0024148899
13	0x3b034de3	0.0020035438
14	0xbcafb71a	-0.021449614
15	0x3bee8ae7	0.007279742
16	0xbd01e594	-0.031713083
17	0x3c318860	0.010835737
18	0xbcb436df	-0.02199882
19	0xbd105db0	-0.035245597
20	0x3d3b8c8b	0.04578833
21	0xbc9929d8	-0.01869671
22	0x3d246368	0.040133864
23	0x3cc91f94	0.02455119
24	0x3d42db21	0.04757226
25	0xbd8416d4	-0.064496666
26	0xbd2dbec9	-0.042418275
27	0xbdcb32d1	-0.09921802
28	0xbd25e8d1	-0.040505234
29	0xbda01da1	-0.07818151
30	0xbb8aab6f	-0.0042318623
31	0x3b1f8426	0.0024340241
32	0x3cb9e7d9	0.022693561
33	0xbdc30d4d	-0.09524021
34	0xbc62c87a	-0.013841743
35	0x3cc5dd6f	0.02415344
36	0xbd381c73	-0.044949006
37	0xbd8ef097	-0.069794826
38	0x3cab05ac	0.020876728
39	0x3d3f0b45	0.046641607
40	0x3d22c6c1	0.039740328
41	0xbceb635e	-0.028733905
42	0x3ccc2b3a	0.024922956
43	0xbd727948	-0.059197694
44	0xbc576b8b	-0.013148199
45	0x3c0314ff	0.008000611
46	0xbd371bdd	-0.044704307
47	0xbd019c22	-0.03164304
48	0xbd7ca0c4	-0.061676756
49	0xbd1da51d	-0.038487542
50	0x3b9bbccf	0.0047527323
51	0xbc99af60	-0.018760383
52	0xbcd7a639	-0.026324378
53	0x3d050768	0.032477766
54	0xbd334736	-0.043769084
55	0xbd2fa6cc	-0.04288368
56	0x3cf03beb	0.029325446
57	0xbd9703b8	-0.07373756
58	0xbbc78d17	-0.0060898173
59	0xbd1861f9	-0.03720281
60	0x3a0c28d0	0.00053466577
61	0xbcbeda9b	-0.023297599
62	0xbd1eb10e	-0.03874307
63	0x3d167a2b	0.036737602
64	0xbc38ca2a	-0.011278668
65	0xbd80707a	-0.06271453
66	0x3d2050e4	0.039139643
67	0x3d05644b	0.03256635
68	0x3d1c6065	0.038177866
69	0x3c6b9ac1	0.014380158
70	0x3d3f45c7	0.046697404
71	0x3cc99e5d	0.024611646
72	0x3c6a2e50	0.014293268
73	0xbbaf2aeb	-0.0053456924
74	0xbc5d0e1a	-0.013492132
75	0x3b5209ab	0.003204922
76	0xbd8fd538	-0.0702309
77	0xbd6e2a07	-0.05814555
78	0xbd31c028	-0.043396145
79	0xbbed8443	-0.007248433
80	0x3c087141	0.008327783
81	0xbd859c33	-0.06523933
82	0xbd5c93b2	-0.05385179
83	0x3d184bd1	0.03718168
84	0x3cfbd940	0.030743241
85	0x3c16663c	0.009179648
86	0xbcac9552	-0.021067295
87	0xbd757253	-0.05992348
88	0x3ca7d5ba	0.020487655
89	0x3c673ea4	0.014114056
90	0xbd21873c	-0.03943561
91	0xbc64a61f	-0.013955622
92	0x3d237c60	0.039913535
93	0xbc06bd04	-0.008223776
94	0xbc5d5f04	-0.013511423
95	0x3d147837	0.03624746
96	0xbd6f382e	-0.058403187
97	0x3cb1bf80	0.02169776
98	0xbce78bc5	-0.02826489
99	0x3d2c3c00	0.042049408
100	0xbbc155f8	-0.005900141
101	0xbd985390	-0.07437813
102	0x3985f01b	0.0002554663
103	0xbd1bc970	-0.038033903
104	0xba8682e9	-0.0010262403
105	0xbd95f5c3	-0.07322266
106	0xbb4d1745	-0.0031294387
107	0x3c3a4a68	0.011370279
108	0xbbc9980f	-0.00615216
109	0xbc89b0a8	-0.01680787
110	0xbdbed15b	-0.09317275
111	0xbcb7e1cd	-0.022446537
112	0xbd74599f	-0.05965578
113	0xbda3d02a	-0.079986885
114	0x3d719b3c	0.058985934
115	0x3d01220f	0.03152662
116	0xbd1c3733	-0.03813858
117	0x3ccb209c	0.024795823
118	0xbc9a3e66	-0.018828582
119	0xbc3639b8	-0.01112216
120	0xbd3efeeb	-0.046629827
121	0xbd04bc00	-0.032405853
122	0x3d1759f1	0.03695101
123	0x3bba48d4	0.0056849513
124	0x3b832424	0.004002111
125	0xbca9b458	-0.020715877
126	0xbdc898d0	-0.09794772
127	0xbd059f3f	-0.032622572
128	0x3ca57844	0.020198949
129	0xbd6e613e	-0.058198206
130	0xbd9523d5	-0.07282225
131	0xbd2a09af	-0.04151314
132	0xbbed515d	-0.0072423653
133	0xbd9c205c	-0.076233596
134	0x3a9d81a9	0.0012016791
135	0x3d03bb3c	0.032160982
136	0x3be9937a	0.0071281763
137	0xbce037cd	-0.027370358
138	0xbd7223ef	-0.0591163
139	0x3cf44fa4	0.029823132
140	0xbc9a5de4	-0.018843599
141	0x3c573df6	0.013137331
142	0xbbc453ff	-0.0059914584
143	0xbd742965	-0.05960979
144	0xbb8e6847	-0.004345927
145	0xbd553482	-0.05205203
146	0xbc84a8be	-0.016193744
147	0x3ae6fc99	0.0017622887
148	0x3d1d272e	0.038367443
149	0x3d1f1af0	0.03884405
150	0x3cab9f4b	0.02094998
151	0x3a7e2232	0.00096944266
152	0xbd875d74	-0.06609622
153	0xbc12d44e	-0.00896175
154	0x3cef71d4	0.029229082
155	0xbc27ffff	-0.010253905
156	0x3c7e70f3	0.015529859
157	0xbcd293d4	-0.025705256
158	0x3d3c1cfb	0.045926075
159	0xbd27d3f2	-0.04097361
160	0x3c76b4e4	0.015057776
161	0xbc8bf6e3	-0.017085498
162	0x3d1ebfa3	0.038756978
163	0xbd2eb805	-0.042655963
164	0xbb576360	-0.0032865629
165	0x3d10b4cb	0.035328668
166	0x3d0f0dec	0.034925386
167	0xbcec30be	-0.028831836
168	0x3d019e3a	0.031645037
169	0xbda4ebbf	-0.080527775
170	0x3c4bbd43	0.01243526
171	0xbd075c74	-0.033047155
172	0xbd10452e	-0.035222225
173	0xbb3231c9	-0.0027190319
174	0x3cfeffee	0.031127896
175	0xbce7dc9a	-0.028303433
176	0xbd134d34	-0.0359623
177	0xbd93cae3	-0.07216432
178	0x3ad1d9b0	0.001601031
179	0xbd5ba525	-0.05362429
180	0xbd20d524	-0.039265767
181	0xbca9e0f3	-0.020737147
182	0xbdb30bd5	-0.08742491
183	0x3bf13389	0.00736088
184	0xbd64875e	-0.05579316
185	0xbd6c9f6f	-0.057769235
186	0xbdb168f3	-0.086625956
187	0x3c9e2835	0.019306282
188	0xba9b1479	-0.0011831663
189	0xbc4d7ec6	-0.012542432
190	0x3c26653c	0.010155972
191	0xbccfb7cd	-0.025356198
192	0xbd2af78a	-0.041739978
193	0xbc0c1ebd	-0.00855225
194	0xbcf7278f	-0.03017023
195	0xbb8aa606	-0.0042312173
196	0x3cc97b59	0.02459495
197	0xbaaa8099	-0.0013008296
198	0x3d540d69	0.0517706
199	0x3d110b06	0.035410903
200	0xbd95999a	-0.07304688
201	0xbd1fccf2	-0.03901381
202	0x3d1581f9	0.036500905
203	0xbcc61dbc	-0.0241841
204	0xbba2d07a	-0.0049687
205	0xbd339308	-0.04384139
206	0xbc8877cf	-0.016658692
207	0x3d1bc068	0.03802529
208	0xbd77c03c	-0.060486063
209	0xbd6e542d	-0.058185745
210	0xbc19dbd5	-0.009390791
211	0xbd35d28e	-0.044390254
212	0xbdc1303f	-0.0943303
213	0xbc9659e5	-0.018353412
214	0xbd7c68ad	-0.061623264
215	0xbcef9898	-0.029247567
216	0xbcf56bc9	-0.029958623
217	0xbc63b73b	-0.013898666
218	0xbd83cc3e	-0.064354405
219	0x3d354fcb	0.04426555
220	0xbc1a804e	-0.009430004
221	0xbd7b5d76	-0.06136843
222	0xbcf61162	-0.030037586
223	0xbca8a5ae	-0.020586815
224	0x3d4419dd	0.047876228
225	0xbd4a43a6	-0.04938092
226	0xbd393900	-0.045220375
227	0x3ccdff9b	0.025146296
228	0xbd224b8d	-0.039622832
229	0xbccc3701	-0.024928572
230	0x3c94b634	0.018153287
231	0xbbbe373e	-0.005804925
232	0x3d4b2e30	0.049604595
233	0xbd09fa62	-0.03368605
234	0xbbbd77d1	-0.0057821055
235	0xbd198019	-0.03747568
236	0xbd4aa7e1	-0.049476508
237	0xbdba91d4	-0.09109846
238	0xbc8c7c2a	-0.01714905
239	0xbb355700	-0.0027670264
240	0xbd1bac94	-0.03800638
241	0xbca81625	-0.020518372
242	0xba6d05cf	-0.0009041698
243	0x3c41d1ea	0.011829833
244	0xbd8ead1b	-0.06966611
245	0x3c4ccad6	0.012499532
246	0xbca1b3bf	-0.01973903
247	0xbc59ef05	-0.013301616
248	0x3d0b83ab	0.034061115
249	0x3c994c30	0.018713087
250	0x3b848d16	0.004045139
251	0x3c327844	0.010892931
252	0xbd1ec4a3	-0.038761746
253	0x3cebeb50	0.02879873
254	0x3cac33c3	0.021020776
255	0x3c836de4	0.01604361

bn2.running_mean f4 [4]
0	0xbfbf0580	-1.4923553
1	0xbfeb9097	-1.84035
2	0xc00fc276	-2.246244
3	0xbfd54258	-1.6660872

bn2.running_var f4 [4]
0	0x4085f773	4.186456
1	0x40ae0ef9	5.4393277
2	0x40d3384c	6.600622
3	0x40a204e9	5.0630994

fc1.weight f4 [32, 196]
0	0x3c9ce6d6	0.01915304
1	0x3abacbef	0.0014251451
2	0x3d470177	0.04858538
3	0xbb0ec9fd	-0.0021787875
4	0x3cb4bf75	0.02206395
5	0x3ca0eb00	0.019643307
6	0x3c0f3b67	0.00874219
7	0xbdbad172	-0.0912198
8	0x3da9ab8b	0.08284672
9	0xbd0fb4bf	-0.035084482
10	0xbd460df4	-0.04835315
11	0xbd164efd	-0.036696423
12	0xbd0ef6e4	-0.034903422
13	0xbc98f1a4	-0.01866991
14	0xba3a284f	-0.00071013434
15	0xbcb86d7b	-0.022513142
16	0xbc058ea4	-0.008151684
17	0x3d40beed	0.04705708
18	0x3b9be48b	0.004757469
19	0xbd1e5b30	-0.038661182
20	0x3c068b87	0.008211977
21	0x3d141c92	0.03616006
22	0x3d51c634	0.05121441
23	0xbd94cbcc	-0.07265434
24	0xbabf4acb	-0.0014594434
25	0x3d1f2bcf	0.03886014
26	0x3d677241	0.056505445
27	0x3d2c5429	0.04207245
28	0x3c0de32d	0.00866012
29	0xbc1062e3	-0.008812639
30	0x3d2431a1	0.040086392
31	0x3d536fdf	0.05162036
32	0x3c493b2d	0.012282175
33	0x3d2c09d4	0.04200156
34	0x3d8420d4	0.06451574
35	0x3b628076	0.0034561432
36	0x3d5d9c16	0.054103933
37	0xbcdb0ea7	-0.026740385
38	0x3c193985	0.009352093
39	0x3b4fe64d	0.0031722963
40	0x3cdd6e4d	0.027030135
41	0xbd073fab	-0.033019703
42	0x3d34b3e4	0.04411687
43	0xbc00ed50	-0.00786908
44	0xbc313625	-0.010816132
45	0x3c61225f	0.013741105
46	0x3d0b1b62	0.03396166
47	0xbcfda27f	-0.030961273
48	0x3d92a2e7	0.071599774
49	0x3cb4b47b	0.022058716
50	0xbd02640c	-0.031833693
51	0xbd2ae152	-0.04171879
52	0x3cb31680	0.021861315
53	0x3d12c5f0	0.0358333
54	0x3d808980	0.06276226
55	0x3d83e6fb	0.064405404
56	0xbcdcd194	-0.026955403
57	0x3cbe2666	0.02321167
58	0xbc13966c	-0.009008031
59	0xbb785ab8	-0.003789587
60	0xba48adf6	-0.0007655317
61	0xbd23e1d6	-0.040010296
62	0xbbc3e1cd	-0.0059778453
63	0xbcd458bf	-0.025921224
64	0xbd589201	-0.052873615
65	0x3d6394e7	0.055561926
66	0xbd753c1f	-0.05987179
67	0xbc3ec3a5	-0.011643325
68	0xbcc6537c	-0.02420973
69	0xbb9bd923	-0.0047561093
70	0x3d03a10f	0.03213602
71	0x3c1d640b	0.009606372
72	0x3d92cc49	0.071678706
73	0xbcc5388e	-0.024074819
74	0x3d014c3f	0.031566855
75	0x3cbe2c61	0.02321452
76	0xbd246e80	-0.040144444
77	0xbd031a68	-0.032007605
78	0x3d352f2b	0.044234436
79	0x3ccb6ccd	0.024832154
80	0x3cb91281	0.022591831
81	0x3c7cc2c1	0.015427292
82	0xbad5bc08	-0.0016306648
83	0xbd782fdc	-0.060592517
84	0xbd3e5e0e	-0.046476416
85	0x3d3f0b54	0.046641663
86	0x3d061763	0.032737147
87	0xbc05ac4c	-0.008158755
88	0x3cff274b	0.031146666
89	0xbccfe9cd	-0.02538004
90	0x3d034382	0.032046802
91	0xbc775d02	-0.015097858
92	0xbcd4c039	-0.025970565
93	0x3bcf6dab	0.006330212
94	0xbd18e268	-0.037325293
95	0xbbc8557a	-0.006113705
96	0xbcd40ade	-0.025884088
97	0xbce7b356	-0.028283756
98	0xbd18371d	-0.037161935
99	0x3da64d4a	0.081202105
100	0x3d9ca098	0.07647818
101	0x3d330bda	0.043712474
102	0xbbd9c62b	-0.006645938
103	0x3da6da58	0.081471145
104	0x3d4237f1	0.04741663
105	0x3dadc8c3	0.08485558
106	0xbda84dff	-0.082180016
107	0x3d57002c	0.0524904
108	0x3abf053f	0.0014573707
109	0x3c27900a	0.010227213
110	0x3d2f4eeb	0.04279987
111	0x3db04752	0.08607353
112	0x3cd228e4	0.025654264
113	0xbdb10fb8	-0.08645576
114	0x3c6a8133	0.01431303
115	0xbc5ffdf9	-0.013671392
116	0x3cfb2ed6	0.030661982
117	0x3af122e7	0.0018397243
118	0xbcad1cfe	-0.021131989
119	0x3c2d6f3f	0.010585605
120	0x3d101c49	0.035183225
121	0xbd5f9e38	-0.05459425
122	0xbd35823b	-0.04431365
123	0x3cb9e018	0.022689864
124	0xbd193474	-0.03740354
125	0xbd582cd3	-0.052777123
126	0xbd278c52	-0.040905304
127	0xbd2269d1	-0.039651696
128	0x3d084ae4	0.033274546
129	0x3daa8a7e	0.083271965
130	0xbc3f6ba3	-0.011683377
131	0x3d14d45a	0.036335327
132	0x3d46277c	0.0483775
133	0xbd64d1f3	-0.055864286
134	0xbd3d09ed	-0.046152044
135	0xbd20b341	-0.03923345
136	0xbc1a85df	-0.009431331
137	0xbd1d71f5	-0.038438756
138	0xbcae2017	-0.021255536
139	0x3d3c0692	0.045904703
140	0x3ad70dff	0.0016407369
141	0x3cd4db87	0.025983585
142	0x3c8c9429	0.017160492
143	0xbc666ca0	-0.014063984
144	0x3c24c35b	0.010056342
145	0xbb3a2cdb	-0.0028408084
146	0xbd4a783c	-0.04943107
147	0xbd301536	-0.04298898
148	0xbd5d941d	-0.05409633
149	0x3d306b5b	0.043071132
150	0x3d7a67e6	0.06113424
151	0x3d7c307a	0.06156967
152	0xbd0fbdff	-0.035093304
153	0xbd2b0fe3	-0.041763198
154	0xbdfb081e	-0.122574076
155	0x3d8f90b5	0.070100226
156	0x3b137888	0.0022502262
157	0xbd2e448a	-0.042545833
158	0x3c4cf394	0.012509245
159	0xbcd625f1	-0.026141139
160	0x3d95565d	0.07291863
161	0x3d0f8ea7	0.035048153
162	0x3d8dbf33	0.06921234
163	0x3d8ba279	0.068180986
164	0xbd4e012f	-0.050294098
165	0x3cb5618b	0.022141239
166	0xbc1a7636	-0.009427598
167	0xbc03246f	-0.008004292
168	0xbd8c77fb	-0.06858822
169	0xbd0d1d87	-0.034451988
170	0xbcc13777	-0.023586018
171	0xbc5d15b2	-0.013493942
172	0xbc83b4fa	-0.016077507
173	0xbcdb27ef	-0.02675244
174	0x3da44378	0.08020681
175	0x3d45eba6	0.048320435
176	0x3cee54b8	0.029093131
177	0xbca56b97	-0.020192904
178	0xbb718f48	-0.0036859084
179	0x3d595482	0.05305911
180	0xbd490f5e	-0.04908692
181	0xbd2e40cf	-0.042542275
182	0x3d2847a5	0.04108395
183	0x3b466a67	0.0030275823
184	0x3bada726	0.0052994667
185	0x3c929f09	0.0178981
186	0x3d4a0bb6	0.049327575
187	0xbcdc19de	-0.026867803
188	0x3d2891a3	0.041154515
189	0x3d35d568	0.044392973
190	0x3c8963c5	0.016771207
191	0x3c7e58a1	0.01552406
192	0x3c82025d	0.015870268
193	0x3ce4c268	0.027924731
194	0x3d1194c5	0.03554227
195	0x3ce7d66d	0.028300488
196	0x3c942ef6	0.018088799
197	0x3d33160a	0.04372219
198	0x3d487e57	0.048948612
199	0xbc5d1555	-0.0134938555
200	0x3d0164f9	0.031590436
201	0xbd5ef1a1	-0.054429654
202	0xbdba258e	-0.09089194
203	0xbd955f3f	-0.072935574
204	0x3d73f59d	0.059560407
205	0xbd2e7511	-0.042592112
206	0x3d30d15b	0.043168407
207	0xbc1194fc	-0.008885618
208	0xbd5ea6fb	-0.054358464
209	0x3d110808	0.03540805
210	0x3d65c141	0.056092504
211	0xbc12315a	-0.008922899
212	0x3d404cfc	0.046948418
213	0x3d4cc510	0.04999262
214	0xbc03451b	-0.0080120815
215	0xbce7123c	-0.028206937
216	0xbd1a8e64	-0.03773345
217	0xbd37201d	-0.04470836
218	0x3d955041	0.07290698
219	0xbbe8a4ee	-0.0070997393
220	0xbd691e47	-0.05691364
221	0xbc95e2c9	-0.018296616
222	0x3d0c2ebd	0.03422426
223	0x3d39842e	0.045292072
224	0xbda7c75e	-0.08192323
225	0x3ce291aa	0.027657349
226	0xbbc13557	-0.005896251
227	0xbc3628f7	-0.011118165
228	0xbd525374	-0.05134912
229	0xbd5ef228	-0.054430157
230	0xbd73e7b1	-0.05954713
231	0xbda1813f	-0.0788598
232	0x3d3685f4	0.04456134
233	0xbc5376e9	-0.012906768
234	0xbcb1e94e	-0.021717694
235	0x3c228455	0.009919246
236	0x3c355b36	0.01106911
237	0x3d5f4356	0.054507576
238	0x3c85952b	0.01630648
239	0x3b98d3c1	0.004663915
240	0x3d75d871	0.060020868
241	0xbbbd028a	-0.005768125
242	0xbcf69626	-0.030100893
243	0x3d4a73fc	0.049427018
244	0xbda39dae	-0.079890594
245	0x3c838bdc	0.016057901
246	0xbd71f28b	-0.059069198
247	0xbd45a576	-0.0482535
248	0x3c8f6b98	0.01750736
249	0x3b9ca52e	0.004780433
250	0x3c9ee793	0.019397533
251	0xbd932243	-0.07184269
252	0x3bdbe760	0.0067109317
253	0x3c9f9ec8	0.019484892
254	0xbd281ff0	-0.041046083
255	0x3d0ab590	0.033864558

conv1.weight f4 [8, 1, 5, 5]
0	0xbe02c6e9	-0.1277119
1	0x3d6cc8ca	0.057808675
2	0x3e590f45	0.21197231
3	0x3e35b450	0.17744565
4	0x3de0b419	0.10971851
5	0xbdd7f9d5	-0.105456986
6	0x3dbc900d	0.09207163
7	0xbde3c5e0	-0.11121726
8	0x3d32da5d	0.04366528
9	0x3e3d95da	0.18514195
10	0x3e3098bc	0.17245764
11	0xbd8dd3c5	-0.069251575
12	0x3e42a969	0.19009937
13	0x3d3e4a3e	0.04645752
14	0x3e06b7c9	0.13156046
15	0xbe0a6fff	-0.13519286
16	0x3e221925	0.15829904
17	0x3d13eabf	0.036112543
18	0x3e074355	0.13209279
19	0x3dfd43ff	0.12366485
20	0xbdf34de6	-0.11880092
21	0xbd1b957b	-0.037984353
22	0x3bb8578b	0.0056256703
23	0xbdea2b11	-0.114339955
24	0xbd368d3a	-0.044568278
25	0x3e2401ca	0.16016307
26	0xbc061481	-0.008183599
27	0xbdd22d64	-0.10262564
28	0x3e562d72	0.20915774
29	0xbd1deeae	-0.0385577
30	0xbd96bb48	-0.0735994
31	0x3e233f78	0.1594218
32	0x3d95a74b	0.07307299
33	0x3ddcdb89	0.107840605
34	0xbe19a992	-0.15006092
35	0x3d9d3547	0.076761775
36	0x3d223aa6	0.039606713
37	0x3dfc4954	0.12318674
38	0x3d38770a	0.0450354
39	0xbda00619	-0.07813663
40	0xbe2f9bfc	-0.17149347
41	0x3e064f85	0.13116272
42	0xbdabd83e	-0.08390854
43	0xbc2ac8aa	-0.010423819
44	0x3e14a5d0	0.14516377
45	0x3d855414	0.06510177
46	0xbe29eaa4	-0.16593415
47	0xbdd2ba17	-0.102894
48	0xbc134850	-0.008989409
49	0xbccb9c1b	-0.02485471
50	0xbd7902d8	-0.060793728
51	0xbc647fa5	-0.013946448
52	0x3e127bff	0.14305113
53	0xbca9bc4a	-0.020719666
54	0xbe2bb541	-0.16768362
55	0x3db8bf69	0.090208836
56	0xbe09d82a	-0.13461366
57	0xbc20f844	-0.009824816
58	0xbe04bbb0	-0.12962222
59	0x3e07c4aa	0.13258615
60	0xbe093a41	-0.13401128
61	0x3d6e9bb0	0.058253944
62	0xbc8a5392	-0.016885553
63	0x3e4ba119	0.19885673
64	0xbda52e8d	-0.080655195
65	0x3e4a5a30	0.19760966
66	0xbe28186d	-0.16415568
67	0x3e07fb8e	0.13279554
68	0xbdbff872	-0.09373559
69	0xbcf2c2b3	-0.029633855
70	0x3d8caaaf	0.06868493
71	0x3da8442e	0.08216129
72	0x3e50a896	0.2037681
73	0x3e004934	0.12527925
74	0xbd2c1560	-0.042012572
75	0x3daf5c50	0.08562529
76	0x3d58fc5c	0.052975044
77	0x3e35b9c2	0.17746642
78	0x3e1fc8da	0.15603963
79	0xbe38b6e3	-0.18038516
80	0xbc8ede67	-0.017440034
81	0x3e06feaa	0.13183084
82	0x3ba59228	0.0050528236
83	0xbe1dea69	-0.15421452
84	0x3ca9b0bb	0.020714154
85	0xbd14a188	-0.03628686
86	0x3da69601	0.0813408
87	0x3dc1679d	0.09443591
88	0x3e162845	0.14663799
89	0x3e1bda84	0.15220076
90	0x3d05d089	0.032669578
91	0x3e47751d	0.19478269
92	0xbd54c1d8	-0.051942676
93	0x3cba79f0	0.022763222
94	0x3e396b88	0.18107426
95	0xbda5552e	-0.08072887
96	0x3d4efa67	0.05053177
97	0xbd13bf4e	-0.036071114
98	0x3e06d126	0.13165721
99	0x3d36183b	0.0444567
100	0x3da99081	0.08279515
101	0x3cd3801b	0.025817921
102	0x3e44717f	0.1918392
103	0x3bbb5abf	0.005717605
104	0x3d3a52bf	0.04548907
105	0xbd9df548	-0.07712799
106	0xbe004756	-0.12527213
107	0x3dfffd8b	0.12499531
108	0x3e14c592	0.14528492
109	0x3e480f67	0.19537126
110	0x3e17cf47	0.14825164
111	0x3d3edcbe	0.046597235
112	0x3cb15883	0.021648651
113	0x3e2d8668	0.16945803
114	0x3d50c026	0.050964497
115	0x3d931391	0.07181466
116	0x3be623ac	0.0070232954
117	0x3e19fada	0.15037099
118	0x3d65cd8d	0.05610423
119	0xbe2884ee	-0.16456959
120	0x3d96a3ac	0.07355437
121	0xbc9d4538	-0.019198045
122	0x3e28f990	0.1650145
123	0x3ccaad3b	0.024740806
124	0x3c3a9ab9	0.011389428
125	0x3e0f4e0c	0.13994616
126	0x3cb2a250	0.021805912
127	0xbe133f03	-0.14379506
128	0x3d24330c	0.040087745
129	0x3e30a1c3	0.17249207
130	0x3cc61091	0.024177821
131	0x3def2d47	0.11678558
132	0x3e4c702f	0.1996467
133	0xbd21523c	-0.039385065
134	0x3d89a041	0.06720019
135	0xbdd323ac	-0.10309538
136	0x3ce373fc	0.027765267
137	0xbcaf0c91	-0.021368297
138	0x3d721b44	0.059108034
139	0x3e231ad6	0.15928206
140	0x3d1fd7fd	0.03902434
141	0x3d87f1ac	0.06637892
142	0x3ded380e	0.11582957
143	0xbd1fb486	-0.03899052
144	0x3dc7b66f	0.09751593
145	0x3c74ad7e	0.014933942
146	0x3cc2aeeb	0.023765048
147	0xbc6eb013	-0.014568347
148	0x3dfdaf51	0.123869546
149	0xbe1e2df8	-0.15447223
150	0x3e1e9153	0.15485124
151	0xbe3b23ab	-0.18275325
152	0xbd8faa6b	-0.070149265
153	0x3dde9592	0.10868372
154	0xbde28c86	-0.11061959
155	0xbd9e3dfe	-0.07726668
156	0xbb178e33	-0.0023125529
157	0xbd8cf047	-0.06881767
158	0xbe3cd591	-0.18440844
159	0x3ca5b974	0.020230033
160	0x3cd57403	0.026056295
161	0x3c67f199	0.014156722
162	0x3c169688	0.009191163
163	0x3de852d7	0.113439254
164	0xbe477209	-0.19477095
165	0xbcec4b72	-0.028844569
166	0x3dcdb2ef	0.100438945
167	0xbe29b2f7	-0.16572176
168	0x3d8745c1	0.066051014
169	0xbcf84339	-0.030305492
170	0x3e05e6a5	0.13076265
171	0x3c9d616c	0.019211493
172	0x3e459f72	0.19299105
173	0x3deb4cac	0.114892334
174	0x3d938851	0.07203735
175	0x3dab06a9	0.0835088
176	0x3dc16410	0.094429135
177	0x3d2debf3	0.042461347
178	0x3da27d40	0.07934046
179	0x3d3012a6	0.042986535
180	0xbe123d50	-0.14281201
181	0xbdf55497	-0.11979025
182	0x3da03ac7	0.07823711
183	0x3d4979b3	0.049188327
184	0x3d7cb407	0.061695125
185	0xbe0e0fdf	-0.13873242
186	0xbd91a797	-0.07112043
187	0x3cc89ea5	0.02448971
188	0xba5bc741	-0.0008383878
189	0x3e38d1cb	0.1804878
190	0x3d975b09	0.073904105
191	0x3ce14117	0.027496858
192	0xbe10e810	-0.14151025
193	0x3dde4343	0.10852673
194	0xbda452bb	-0.08023592
195	0xbd97380f	-0.07383739
196	0x3dfc72df	0.123265974
197	0x3cffb8e9	0.031216102
198	0xbe1e2ef2	-0.15447596
199	0x3e2d84d5	0.16945203

bn1.running_mean f4 [8]
0	0x3d83af16	0.06429879
1	0x3ca4c95e	0.02011555
2	0x3caf5aac	0.02140554
3	0x3d9cda73	0.076588534
4	0x3db9ea9c	0.09077951
5	0x3d810643	0.063000225
6	0x3acae56a	0.0015479748
7	0x3cb22b18	0.021749064

bn1.running_var f4 [8]
0	0x3c6a8f8b	0.01431645
1	0x3b529adc	0.003213576
2	0x3b50bb78	0.0031850021
3	0x3c528c63	0.012850854
4	0x3c99079e	0.01868039
5	0x3c0c4855	0.008562167
6	0x3b3954ff	0.0028279421
7	0x3b5563e1	0.0032560753

conv2.weight f4 [4, 8, 5, 5]
0	0xbc5c6b05	-0.01345325
1	0xbc973e39	-0.018462287
2	0xbce2c482	-0.027681593
3	0x3c87f512	0.01659635
4	0x3d319413	0.043354105
5	0x3d59f9ef	0.05321687
6	0xbd9fb15c	-0.077975005
7	0xbb1928ad	-0.0023370192
8	0xbd9b0c8c	-0.075707525
9	0x3ca3663c	0.01994621
10	0x3aeef243	0.0018230159
11	0xbdab70cf	-0.08371126
12	0x3c438f41	0.01193601
13	0xbb067131	-0.0020514245
14	0xbbd79491	-0.00657899
15	0x3c8f844b	0.017519137
16	0xbd007392	-0.031360216
17	0x3c715254	0.014729101
18	0xbc698ccd	-0.014254761
19	0xbcae78f6	-0.021297913
20	0x3d0b061a	0.033941366
21	0xbd4b1d78	-0.04958865
22	0x3d4e0f20	0.050307393
23	0x3d255cb4	0.04037161
24	0x3d8a2285	0.06744865
25	0xbd3a6ef6	-0.045515977
26	0xbccea84f	-0.02522674
27	0xbdaaec06	-0.08345799
28	0xbd044ab5	-0.03229781
29	0xbd9b1761	-0.075728185
30	0x3c93584d	0.017986441
31	0x3c9e0773	0.019290661
32	0x3d2849b2	0.041085906
33	0xbd9fd43f	-0.078041546
34	0xbc30a132	-0.010780619
35	0x3d4812d8	0.048846096
36	0xbcedeb2c	-0.029042803
37	0xbd5ffe9d	-0.054686178
38	0x3d08b3fd	0.033374775
39	0x3d2e6ec3	0.0425861
40	0x3d72a747	0.05924156
41	0xbcd18ba3	-0.02557928
42	0x3ce124bb	0.027483335
43	0xbd97e65e	-0.07416986
44	0xbb4a6399	-0.0030882119
45	0x3c508623	0.012727293
46	0xbd9e95c1	-0.07743407
47	0xbd51336b	-0.051074427
48	0xbd597f4f	-0.053099927
49	0xbcb986c4	-0.02264727
50	0x3cd8ba83	0.026456123
51	0xbac737ca	-0.0015199122
52	0xbc0bd979	-0.008535736
53	0x3d413dbe	0.047178023
54	0xbd8f3c66	-0.06993942
55	0xbcb49098	-0.022041604
56	0x3d3d4235	0.046205718
57	0xbd685ae0	-0.05672729
58	0xbc1c4372	-0.009537565
59	0xbd1dae0d	-0.038496066
60	0x3c42b184	0.011883143
61	0xbd13c100	-0.03607273
62	0xbd3138c4	-0.043267027
63	0x3d23a22d	0.039949585
64	0x397609ea	0.00023464081
65	0xbda74709	-0.08167846
66	0x3cb0f06c	0.021599017
67	0x3cbc10dd	0.02295726
68	0x3d6c7c18	0.057735533
69	0x3cef97de	0.02924722
70	0x3d2da10d	0.042389918
71	0x3c9eb4fd	0.019373411
72	0x3d0e0214	0.03466995
73	0x3c996678	0.018725619
74	0x3b068dc5	0.0020531279
75	0x3cc0121a	0.023446131
76	0xbd53f5d5	-0.051748116
77	0xbd2c01e3	-0.041993987
78	0xbd192f70	-0.037398756
79	0xbb61a4ed	-0.0034430579
80	0x3d05e95c	0.032693252
81	0xbd51dcef	-0.05123609
82	0xbd17d771	-0.037070695
83	0x3d3c9ecb	0.046049874
84	0x3d454bc8	0.048167974
85	0x3d0dc0fe	0.03460788
86	0xbc554a4f	-0.013018205
87	0xbd4669ba	-0.048440672
88	0x3d02c93a	0.031930186
89	0x3cf72b37	0.030171974
90	0xbcb56cae	-0.02214655
91	0xbcc0a220	-0.023514807
92	0x3d51b802	0.051200874
93	0x3be2e411	0.0069241603
94	0x3af403fb	0.0018616909
95	0x3d2d2939	0.04227564
96	0xbd8045a2	-0.062632814
97	0x3d2a9fdb	0.041656356
98	0xbc47713d	-0.012172994
99	0x3d7b2b10	0.061320364
100	0x3c6aa6cd	0.014321995
101	0xbd66fab8	-0.056391448
102	0x3c5de7cf	0.013544037
103	0xbcdc9ae1	-0.02692932
104	0x3be2a90a	0.0069171237
105	0xbd4e4ff3	-0.050369214
106	0x3c6740b1	0.014114545
107	0x3cf0c185	0.029389152
108	0x3bf09f9b	0.007343245
109	0xbcb1f0cc	-0.021721266
110	0xbd9526e7	-0.07282811
111	0xbbd8b9d2	-0.0066139484
112	0xbd34d91c	-0.044152364
113	0xbdadf064	-0.084931165
114	0x3d91ba16	0.07115571
115	0x3d3ed591	0.04659039
116	0xbd1d079f	-0.038337346
117	0x3cb0f56f	0.021601407
118	0xbc1327fa	-0.008981699
119	0x3b6faca4	0.0036571408
120	0xbd8133ce	-0.06308709
121	0xbd4d4468	-0.050114065
122	0x3d2b9268	0.04188767
123	0x3cba53bf	0.022745011
124	0x3cb0ad3b	0.021566978
125	0xbb419477	-0.0029537955
126	0xbda4ffb7	-0.08056586
127	0xbc9ff6f8	-0.019526944
128	0x3cef69ae	0.029225197
129	0xbd573425	-0.052539963
130	0xbd55a0c0	-0.052155256
131	0xbcc12fcc	-0.023582362
132	0x3c2be785	0.01049221
133	0xbd8af8e0	-0.067857504
134	0x3c37d60f	0.011220469
135	0x3d715d23	0.058926713
136	0x3cbfa237	0.02339278
137	0xbc6b2ecd	-0.01435442
138	0xbd71a9e3	-0.058999907
139	0x3d3d67eb	0.046241682
140	0xbafc47c1	-0.0019247459
141	0x3cb46ecd	0.02202549
142	0xbbe3a772	-0.0069474513
143	0xbd5c488c	-0.053780124
144	0x3c3d6acd	0.011561108
145	0xbd7cd7c4	-0.061729208
146	0xbd0382fd	-0.032107342
147	0x3c6d0f41	0.014468969
148	0x3d60904b	0.05482511
149	0x3d7a1939	0.06105921
150	0x3d32e684	0.043676868
151	0x3c9b6bae	0.018972244
152	0xbd361760	-0.044455886
153	0x3b10dce0	0.0022104308
154	0x3c9ce12e	0.019150343
155	0x3be5dc0a	0.007014756
156	0x3d0814af	0.03322285
157	0xbd0eabad	-0.03483169
158	0x3d36f7c0	0.044669867
159	0xbce1caa9	-0.027562456
160	0x3cc3155c	0.023813896
161	0xbd5057f2	-0.05086512
162	0x3c88bbe1	0.01669115
163	0xbd107565	-0.035268206
164	0x3c16bc22	0.009200128
165	0x3cb509b5	0.022099355
166	0x3c90113c	0.017586343
167	0xbcd8f78e	-0.02648523
168	0x3d5d329a	0.054003336
169	0xbd86a476	-0.06574337
170	0x3b5d2553	0.003374417
171	0xbd4b52a7	-0.04963937
172	0xbd5dbced	-0.05413525
173	0xba5e63a8	-0.0008483478
174	0x3d8bd44e	0.06827603
175	0xbbeeae54	-0.007283965
176	0xbc9e7166	-0.019341182
177	0xbd7d83d7	-0.06189331
178	0x3b84114c	0.0040303823
179	0xbd29ece0	-0.041485667
180	0xbced5b02	-0.02897406
181	0xbb0a528e	-0.0021106335
182	0xbd901713	-0.07035651
183	0x3bf644d3	0.0075155287
184	0xbd3d74b3	-0.04625387
185	0xbd32ad0c	-0.04362206
186	0xbd9532bc	-0.072850674
187	0x3cff752d	0.031183803
188	0x3b5d814c	0.003379899
189	0x3bb88e6c	0.0056322124
190	0x3ccc8a3a	0.024968255
191	0xbcdee521	-0.027208867
192	0xbd0815a7	-0.033223774
193	0x3b59c2a7	0.0033227594
194	0xbc0fdb47	-0.008780307
195	0xbbeee694	-0.0072906706
196	0x3c1f33a0	0.009716898
197	0x3c93f057	0.018058939
198	0x3d8b3d24	0.06798771
199	0x3d6f06ab	0.05835597
200	0xbda98a5e	-0.082783446
201	0xbd8ec2e2	-0.06970765
202	0x3d1e59d4	0.038659886
203	0xbcf3e719	-0.029773282
204	0x3bc5c93e	0.006035953
205	0xbd9e2cb6	-0.07723372
206	0xbc150c92	-0.009097235
207	0x3c239dda	0.009986365
208	0xbd2ecd25	-0.04267611
209	0xbd622742	-0.05521322
210	0xbd3b518f	-0.045732077
211	0xbcb34841	-0.02188504
212	0xbd62311d	-0.05522262
213	0x3ca8ddc6	0.020613562
214	0xbd87bf05	-0.06628231
215	0xbd882e01	-0.066493995
216	0xbbc200aa	-0.0059204893
217	0x3cd892a0	0.026437104
218	0xbd262bf3	-0.040569257
219	0x3d42d84f	0.04756957
220	0xbd49e383	-0.049289238
221	0xbd64cd3e	-0.055859797
222	0xbb50797d	-0.0031810694
223	0xbb889642	-0.0041683028
224	0x3d370d7e	0.0446906
225	0xbd2e5cc6	-0.042568944
226	0xbd15818f	-0.03650051
227	0x3cebe2e4	0.028794713
228	0xbd57f3b7	-0.05272266
229	0xbd1049ce	-0.035226636
230	0x3d053742	0.0325234
231	0xbca4ceea	-0.020118196
232	0x3c6283e7	0.013825393
233	0xbd7493c6	-0.05971124
234	0x3b12530f	0.0022327339
235	0xbd31a319	-0.043368433
236	0xbd919025	-0.071075715
237	0xbd83cc09	-0.06435401
238	0x3cd3e209	0.025864618
239	0x3ca6e706	0.020373832
240	0xbd915eb8	-0.07098144
241	0xbd120c16	-0.035656057
242	0x3d1553bc	0.03645681
243	0x3d4c07ae	0.04981201
244	0xbd62deaf	-0.05538815
245	0xbc0e8e47	-0.008700914
246	0xbd42fc5f	-0.04760396
247	0x3a9fda6a	0.001219583
248	0x3d673a30	0.056451976
249	0x3cb63406	0.022241604
250	0x3c7581e2	0.01498458
251	0xbc49e635	-0.012322952
252	0xbd2b8491	-0.041874472
253	0x3d4a5fc7	0.049407747
254	0x3d204cf0	0.039135873
255	0xbc356ba2	-0.011073025

bn2.running_mean f4 [4]
0	0xbf070455	-0.52740985
1	0xbf9abc90	-1.2088795
2	0xbf8fd625	-1.1237227
3	0xbf1d038b	-0.6133353

bn2.running_var f4 [4]
0	0x3fa366d6	1.2765758
1	0x4003de9f	2.0604627
2	0x3fc19f24	1.5126691
3	0x40073ee3	2.1132133

fc1.weight f4 [32, 196]
0	0x3a09a5fe	0.000525087
1	0xbc28e27a	-0.0103079025
2	0x3d4897ff	0.04897308
3	0xbbcb8bb0	-0.0062117204
4	0x3c184cff	0.009295701
5	0x3b8034fe	0.003912567
6	0xbbba2f19	-0.005681884
7	0xbddcb6d3	-0.107770585
8	0x3dabaca9	0.08382542
9	0xbcee497d	-0.029087776
10	0xbd8806f6	-0.06641953
11	0xbd50d7bd	-0.050986994
12	0xbd44d331	-0.04805297
13	0xbd06f784	-0.032950893
14	0xbc556e26	-0.01302675
15	0xbae8e151	-0.0017767345
16	0x3c5f79f4	0.013639916
17	0x3d177a5e	0.036981933
18	0x3c2eb4fd	0.010663268
19	0xbd340064	-0.043945685
20	0xba9772c4	-0.0011554589
21	0x3d361c0d	0.044460345
22	0x3da29f34	0.07940522
23	0xbdc2c9b3	-0.09511127
24	0xbc90da06	-0.017682087
25	0x3ceb3dfe	0.028716084
26	0x3d90dbcb	0.07073172
27	0x3d10c778	0.03534648
28	0x3cfcc7e1	0.030857028
29	0xbcfff01a	-0.031242419
30	0x3cb95ef6	0.022628289
31	0x3d1a21fb	0.037630063
32	0xbc9df3cf	-0.019281296
33	0x3d54f957	0.0519956
34	0x3d661129	0.05616871
35	0xbbed0c95	-0.007234166
36	0x3d80b724	0.06284931
37	0xbd334626	-0.04376807
38	0xbcb26ffb	-0.021781912
39	0x3c047db2	0.008086609
40	0x3d449878	0.047996968
41	0xbd31780a	-0.04332737
42	0x3cf4474d	0.029819155
43	0xbc3756f0	-0.011190161
44	0x3cf25b05	0.029584417
45	0xbc0c73fc	-0.008572575
46	0x3a6d0f27	0.00090430904
47	0xbc25afd1	-0.010112719
48	0x3d7e0f43	0.062026273
49	0x3bf9ccfe	0.007623314
50	0xbd3c851c	-0.04602538
51	0xbd5514c2	-0.05202175
52	0x3c277ae0	0.010222167
53	0x3cd7ab20	0.026326716
54	0x3d4dbd54	0.050229385
55	0x3d5014a0	0.05080092
56	0xbcf5be30	-0.029997915
57	0x3d371144	0.0446942
58	0x3c192e70	0.0093494505
59	0xbcd7b7ad	-0.0263327
60	0x3d267eaf	0.04064816
61	0xbd312c1b	-0.043254953
62	0xbc93add8	-0.018027231
63	0x3a32103f	0.0006792582
64	0xbd13cfe5	-0.036086936
65	0x3d68b6bf	0.056814905
66	0xbd9b8bb7	-0.07595008
67	0x3d2de60e	0.042455725
68	0xbc166dc5	-0.0091814445
69	0xbc4f1329	-0.0126388455
70	0x3d83cc46	0.064354464
71	0x3c253367	0.010083056
72	0x3d3058af	0.043053325
73	0xbd806f1d	-0.06271193
74	0x3bb5538f	0.0055336426
75	0x3d66cf63	0.056350123
76	0xbd4b2590	-0.04959637
77	0xbcb13224	-0.021630354
78	0x3d614a51	0.055002514
79	0x3cd0df07	0.025496973
80	0xbc9a5e57	-0.018843813
81	0xbd22f615	-0.039785463
82	0x3cab5b57	0.020917578
83	0xbd90ed4b	-0.0707651
84	0xbd6e1cfa	-0.058133103
85	0x3d7e1fcc	0.062042043
86	0x3d91bf89	0.071166106
87	0xbd476c48	-0.04868725
88	0x3c2431e9	0.010021665
89	0xbb47db26	-0.0030495613
90	0x3cce4aaf	0.025182096
91	0xbcee783c	-0.029110067
92	0xbcf7f5ef	-0.030268637
93	0x3d0241e4	0.03180112
94	0xbd74d7fe	-0.0597763
95	0xbd03d0a0	-0.032181382
96	0xbc6b7fc5	-0.014373724
97	0xbd18393b	-0.037163954
98	0xbd4fa8ac	-0.050697967
99	0x3d8efd35	0.06981889
100	0x3d95e084	0.073182136
101	0x3d070aff	0.03296947
102	0xbca7706d	-0.020439351
103	0x3d84a58e	0.064768896
104	0x3d0e01f9	0.03466985
105	0x3db1181f	0.08647179
106	0xbd8fa1aa	-0.07013257
107	0x3d686a60	0.056742072
108	0xbc2a6202	-0.010399343
109	0x3c3b0faf	0.0114173135
110	0x3d26234f	0.040561017
111	0x3da98ad7	0.08278435
112	0x3d431ef0	0.047636926
113	0xbd955bd8	-0.072929084
114	0xbd37bf74	-0.04486032
115	0xbc95ef03	-0.018302446
116	0x3cb9d6ac	0.022685371
117	0xbcde185a	-0.027111221
118	0xbc8f3232	-0.01747999
119	0x3d303a6c	0.043024465
120	0x3d1ca787	0.038245704
121	0xbd7b58da	-0.061364032
122	0xbd8730ac	-0.0660108
123	0x3cc54a9d	0.02408343
124	0xbd68bbaf	-0.056819614
125	0xbd52ee7e	-0.051496975
126	0xbc63d2df	-0.013905256
127	0xbd84ccd9	-0.06484384
128	0x3cedbba8	0.029020146
129	0x3d4c714a	0.04991273
130	0xbbd3fc5b	-0.006469292
131	0x3d05837b	0.032596093
132	0x3d4c1dda	0.049833156
133	0xbd824087	-0.06359964
134	0xbcab1f90	-0.020889074
135	0xbd564faf	-0.052322086
136	0xbd3adaa7	-0.04561868
137	0xbd1a21e3	-0.037629973
138	0xbcbb6240	-0.022873998
139	0x3d2cfcb4	0.042233184
140	0xbc4c1d50	-0.0124581605
141	0x3d1c6d07	0.038189914
142	0x3d31ed79	0.043439362
143	0xbd3110a5	-0.043228764
144	0x3c9cc649	0.019137518
145	0xbb8f3de3	-0.004371391
146	0xbd79c333	-0.060977172
147	0xbd80277e	-0.062575325
148	0xbd90e1a8	-0.070742905
149	0x3d108fea	0.035293497
150	0x3d59986b	0.053123873
151	0x3d46eee5	0.04856767
152	0xbd53a733	-0.051673125
153	0xbd6871df	-0.05674922
154	0xbe0f3efe	-0.13988873
155	0x3d7bccee	0.061474733
156	0xb8474f51	-4.7519166e-05
157	0xbd416fce	-0.047225766
158	0x3bfb4537	0.007668163
159	0xbd4c3d13	-0.049862932
160	0x3d664d3e	0.056226008
161	0x3cba34aa	0.02273019
162	0x3db5a32f	0.088690154
163	0x3dbc8b0e	0.0920621
164	0xbd81c7d9	-0.06336946
165	0x3d0a491e	0.033761136
166	0x3c023398	0.007946871
167	0xbbd14f77	-0.006387647
168	0xbd956327	-0.072943024
169	0xbc3164d5	-0.010827263
170	0xbd3740e7	-0.04473963
171	0xbce11766	-0.027476978
172	0xbcffa3dc	-0.031206064
173	0xbd8b89e7	-0.06813412
174	0x3dbee7c6	0.09321551
175	0x3d406a51	0.04697639
176	0x3d2c615b	0.042085033
177	0xbd5c1f03	-0.053740513
178	0xbcbb4a83	-0.022862678
179	0x3d0c728e	0.034288935
180	0xbde3fc8c	-0.11132154
181	0xbd113230	-0.035448253
182	0x3ce13b89	0.027494209
183	0xbafe787f	-0.0019414573
184	0x3c8cb0ce	0.01717415
185	0xbc106af0	-0.008814558
186	0x3d649841	0.055809263
187	0xbd1bb2b7	-0.038012233
188	0x3d52d02b	0.051468056
189	0x3cec7530	0.028864473
190	0x3b8dff63	0.004333423
191	0x3d34f327	0.0441772
192	0x3c0d8761	0.008638234
193	0xbb5bc07d	-0.003353148
194	0x3d3eb907	0.046563175
195	0x3d0ff274	0.03514333
196	0x3caa5ec4	0.02079714
197	0x3d2e7e98	0.042601198
198	0x3d4e5664	0.050375357
199	0xbb9b210c	-0.004734164
200	0x3d3094dc	0.043110713
201	0xbd5fb33b	-0.054614287
202	0xbdb1b181	-0.08676434
203	0xbd9376b7	-0.072003774
204	0x3d75db7b	0.060023766
205	0xbd291d8f	-0.041287955
206	0x3d3e77f1	0.046501104
207	0xbd1a3256	-0.03764566
208	0xbd93c8b1	-0.07216013
209	0x3d1c3007	0.03813174
210	0x3d76764f	0.06017142
211	0xbbc1ade9	-0.0059106243
212	0x3d5b2d79	0.053510163
213	0x3d55d330	0.052203357
214	0xbc4d872f	-0.012544437
215	0xbd8688e6	-0.0656908
216	0xbd0dcbf1	-0.03461832
217	0xbd5d6006	-0.054046653
218	0x3d862726	0.06550436
219	0xbd1248f2	-0.035714097
220	0xbd68be07	-0.05682185
221	0x3cad4282	0.021149877
222	0x3d7c77cc	0.061637685
223	0x3d2ec0c6	0.04266431
224	0xbdd347c2	-0.10316421
225	0xbaf11d93	-0.0018395655
226	0xbd395895	-0.045250494
227	0xbb92b655	-0.004477302
228	0xbd02fb50	-0.03197795
229	0xbd9d33c5	-0.0767589
230	0xbd808685	-0.062756576
231	0xbda738da	-0.081651405
232	0x3d5ce064	0.053924933
233	0xba48dd5c	-0.00076623796
234	0x3c5c1284	0.013432149
235	0xbc125a65	-0.008932685
236	0xbbee1766	-0.007265973
237	0x3d5479d3	0.051873993
238	0x3ca309ef	0.019902198
239	0x3cbcd740	0.023051858
240	0x3d6c9fa9	0.05776945
241	0xbcf91328	-0.030404642
242	0xbd11301f	-0.035446282
243	0x3d6851a4	0.056718484
244	0xbda919d5	-0.0825688
245	0x3c9948d7	0.01871149
246	0xbd6a2464	-0.05716361
247	0xbd38b597	-0.045095053
248	0x3c763941	0.015028299
249	0xbbb9b7fb	-0.005667684
250	0x3c985a9d	0.018597895
251	0xbd8df0de	-0.069307074
252	0x3bc17a28	0.0059044547
253	0x3cb46c31	0.022024246
254	0xbd8f1ce2	-0.06987931
255	0x3d765e40	0.060148478

deconv1.weight f4 [2, 4, 5, 5]
0	0xbcf3e5a5	-0.029772589
1	0x3d062dd7	0.03275856
2	0x3d974834	0.073868185
3	0x3d0307d0	0.031989872
4	0x3d9e0548	0.07715851
5	0xbd8cc7b0	-0.06874025
6	0xbd0ffa44	-0.03515078
7	0x3d90b63f	0.07066011
8	0xbd15ef4a	-0.036605157
9	0xbd9feefd	-0.07809255
10	0x3d8785fe	0.06617354
11	0xbc875307	-0.016519083
12	0x3c91998d	0.017773414
13	0x3db1d06a	0.0868233
14	0x3db9c85e	0.0907142
15	0x3d9a4ba2	0.07533957
16	0xbdae65a8	-0.08515483
17	0xbd552dc0	-0.052045584
18	0x3c88a011	0.016677888
19	0xbd2bbc98	-0.041927904
20	0x3c105c61	0.008811087
21	0xbb3bcd0c	-0.0028656153
22	0x3cd83ceb	0.026396235
23	0xbcf56ab7	-0.029958112
24	0xbcbe1c29	-0.023206787
25	0x3d2fa29d	0.04287969
26	0x3db17418	0.08664721
27	0xbc3e76cd	-0.011625004
28	0x3d91fca6	0.07128267
29	0x3d599d5a	0.053128578
30	0xbdae16ac	-0.08500418
31	0xbd90e83d	-0.07075546
32	0x3d9267d6	0.071487114
33	0x3d431f07	0.04763701
34	0x3cc03750	0.023463875
35	0xbc69414d	-0.01423676
36	0xbda892f8	-0.08231157
37	0x3d5db4cd	0.054127503
38	0x3caf21b2	0.021378372
39	0x3d3bdce1	0.045864943
40	0x3dcdf664	0.10056761
41	0xbd8cbb3a	-0.06871648
42	0xbc39568d	-0.011312139
43	0x3d06e66c	0.03293459
44	0x3d907d1c	0.07055113
45	0x3e02bd2f	0.1276748
46	0x3dd40659	0.10352773
47	0xbcc9cd8b	-0.024634143
48	0xbd65803e	-0.056030504
49	0xbd9800c6	-0.074220225
50	0xbd3c9ea1	-0.046049718
51	0xbbfc4821	-0.007699028
52	0xbd37724c	-0.044786736
53	0xbbeab01a	-0.007162106
54	0x3d54acad	0.05192249
55	0xbd994bcf	-0.074851625
56	0xbd903018	-0.07040423
57	0xbca63624	-0.020289488
58	0x3cd34175	0.025788048
59	0xbd42a8e5	-0.04752435
60	0xbd6bff79	-0.057616685
61	0x3d73c58b	0.059514564
62	0xbba9f878	-0.0051870905
63	0x3d9b175f	0.07572817
64	0x3d91ebde	0.07125066
65	0xbd840d70	-0.064478755
66	0x3d6a109b	0.057144742
67	0x3ce8e3bb	0.028428903
68	0xbda0ceb0	-0.078519225
69	0x3c8e90ad	0.017402971
70	0xbcba6731	-0.022754284
71	0x3d93e85b	0.07222053
72	0x3d0468f9	0.032326672
73	0xbc85cc88	-0.01633288
74	0x3d322b30	0.043498218
75	0x3d978adf	0.073995344
76	0xbd2b3e5f	-0.04180753
77	0x3d859a85	0.06523613
78	0x3d583707	0.052786853
79	0x3de878f8	0.11351198
80	0xbcdf5eeb	-0.02726694
81	0xbd4e9331	-0.05043334
82	0x3d55a3de	0.05215823
83	0x3d543266	0.051805876
84	0xbda42e0b	-0.080165945
85	0x3de40f7c	0.11135766
86	0x3dafe921	0.08589388
87	0xbd22fb02	-0.03979016
88	0xbd0c7bad	-0.034297634
89	0x3c218327	0.009857929
90	0x3d5c242e	0.05374544
91	0xbd163cf7	-0.036679234
92	0xbc86ec0d	-0.01646998
93	0xbc5d32c5	-0.013500874
94	0x3c906da5	0.017630408
95	0x3a8b5442	0.0010629969
96	0xbbee6756	-0.007275502
97	0x3daaf987	0.08348375
98	0xbd7bb43f	-0.061451193
99	0x3dd446e7	0.10365086
100	0x3caba523	0.020952767
101	0x3d7ce358	0.06174025
102	0xbd81cfa1	-0.0633843
103	0x3d91cc4d	0.071190454
104	0x3cedc423	0.02902419
105	0xbc43a524	-0.011941228
106	0xbb192d12	-0.0023372811
107	0x3ba6bd0f	0.0050884555
108	0xbd84159d	-0.06449435
109	0x3ccb2a86	0.02480055
110	0x3dbf79d1	0.093494065
111	0x3d0407d0	0.032234013
112	0x3c88468a	0.016635198
113	0x3d639468	0.055561453
114	0xbc5da353	-0.013527709
115	0xbc27005e	-0.010192959
116	0x3d02d4c5	0.031941194
117	0x3d38ca44	0.04511477
118	0xbd970126	-0.07373266
119	0xbc2ac60f	-0.010423197
120	0x3cf5fdc5	0.030028233
121	0xbe109859	-0.14120616
122	0x3bfc0408	0.0076909102
123	0xbc2c068a	-0.010499606
124	0xbd71fc75	-0.059078652
125	0x3d3852fe	0.045001023
126	0xbd8ecc43	-0.069725536
127	0x3c3719b5	0.011175563
128	0x3cc52cab	0.02406915
129	0x3b9567b8	0.0045594834
130	0x3d78f35d	0.060778964
131	0x3d87f0b0	0.06637704
132	0xbc21b6f5	-0.0098702805
133	0x3d4c47d3	0.049873184
134	0x3832dffe	4.2647116e-05
135	0x3d017fee	0.031616144
136	0xbdc0b502	-0.094095245
137	0xbd45b0a7	-0.048264172
138	0x3d6f4c47	0.058422353
139	0xbd0da62c	-0.034582302
140	0xbc8fb105	-0.017540464
141	0xbc9c3a46	-0.019070756
142	0x3d8b6559	0.0680644
143	0x3d62368c	0.0552278
144	0xbc1ce476	-0.009575954
145	0x3e1dbd12	0.15404156
146	0x3c413494	0.011792321
147	0xbcc9e360	-0.024644554
148	0x3ca76e6e	0.0204384
149	0x3db37d7c	0.087641686
150	0x3d9938ad	0.07481513
151	0xbd819c83	-0.0632868
152	0x3d570d71	0.052503053
153	0xbc8cd68c	-0.017192148
154	0x3cf79909	0.03022434
155	0xbd33d71a	-0.04390631
156	0x3c978638	0.018496618
157	0xbc7785e7	-0.015107608
158	0x3dbfeb8b	0.09371098
159	0xbd831d75	-0.06402103
160	0xbc11ece2	-0.008906575
161	0xbb1d062c	-0.0023959978
162	0x3d51e7f6	0.051246606
163	0xbd5ec961	-0.05439127
164	0x3cdc1830	0.026867002
165	0x3d5c92ba	0.053850867
166	0xbb8fbb63	-0.004386352
167	0xbc213c39	-0.009841018
168	0x3bd1d00e	0.006402976
169	0x3d7de692	0.061987467
170	0x3df34033	0.118774794
171	0xbd1662f6	-0.03671547
172	0xbc1df1b2	-0.009640144
173	0x3d399eee	0.045317583
174	0x3df13882	0.11778356
175	0x3ca87751	0.020564707
176	0xbd461c39	-0.04836676
177	0xbd810c7b	-0.063012086
178	0x3de6cff8	0.11270136
179	0x3cb5337f	0.022119282
180	0xbda7d95e	-0.081957564
181	0x3d54befb	0.051939946
182	0x3bdb8cc4	0.00670013
183	0xbdad330f	-0.08457004
184	0x3d3c3dcb	0.045957368
185	0xbc546e4b	-0.012965749
186	0x3d84b2c5	0.0647941
187	0xbd08f035	-0.033432204
188	0x3ca348cb	0.019932171
189	0x3bc0330f	0.0058654617
190	0x3d06c320	0.03290093
191	0xbcc78363	-0.024354642
192	0xbcb000e2	-0.021484796
193	0x3c830073	0.015991425
194	0xbd5a30c4	-0.053269163
195	0xbd6fc88a	-0.05854086
196	0x3c898b0e	0.01678994
197	0x3d31024d	0.043215085
198	0x3c5bf644	0.0134254135
199	0xbd490a72	-0.049082227

bn3.running_mean f4 [4]
0	0x3de1cce3	0.11025407
1	0x3e8d4bdd	0.27596942
2	0x3e2c5354	0.16828662
3	0x3de4342a	0.11142762

bn3.running_var f4 [4]
0	0x3d105235	0.03523465
1	0x3d5316e8	0.051535517
2	0x3cdbd1dd	0.026833469
3	0x3c8b541c	0.01700788
